backend/cnn_lstm_checkpoints/cnn_lstm_epoch_5.pth (torch, 788573 bytes, 64 tensors)

cnn.0.weight f4 [16, 1, 3, 3]
0	0x3e4dde60	0.2010436
1	0x3d2d3bbe	0.042293303
2	0xbe0ff1e1	-0.14057113
3	0x3d2ffa6a	0.042963423
4	0x3e752100	0.2393837
5	0xbcc23141	-0.023705127
6	0x3d33fce8	0.043942362
7	0xbda57965	-0.08079795
8	0x3e90c471	0.28274873
9	0x3e7d466e	0.24733898
10	0xbe8ea368	-0.27859044
11	0x3da0c07f	0.07849216
12	0x3e21fb18	0.15818441
13	0xbea6d614	-0.32585204
14	0xbe8009ea	-0.25007564
15	0x3ea8372c	0.32854593
16	0x3e5ca834	0.2154854
17	0x3da41059	0.080109306
18	0x3e114361	0.1418586
19	0xbe7977fa	-0.24362174
20	0x3dbda2d6	0.09259574
21	0xbe6cfc8e	-0.23143217
22	0xbeb9508f	-0.36194274
23	0xbeca1212	-0.39466912
24	0x3df132c7	0.11777263
25	0xbe5e4f17	-0.21709858
26	0xbd07bf7c	-0.033141598
27	0xbd583738	-0.052787036
28	0xbe0344c3	-0.128192
29	0x3d6f2c02	0.05839158
30	0xbd9349d1	-0.07191814
31	0xbe352673	-0.17690448
32	0xbe252c48	-0.16130173
33	0xbe3b003c	-0.18261808
34	0xbe5fbb87	-0.2184888
35	0xbe296f8d	-0.1654646
36	0x3e897efc	0.26854694
37	0x3e058884	0.13040358
38	0x3e3c0b7e	0.18363759
39	0x3e149681	0.14510538
40	0x3e18e2e9	0.1493031
41	0x3dd0a14c	0.10187015
42	0xbe5aafdc	-0.21356148
43	0xbe6294b7	-0.22127043
44	0x3eaba10b	0.33521304
45	0xbe71bf8d	-0.23608227
46	0x3e698dbe	0.22807977
47	0x3e3858e9	0.18002667
48	0x3ea5e6d7	0.3240268
49	0x3e6434dd	0.2228579
50	0xbc9c6e21	-0.019095482
51	0xbdf38079	-0.118897386
52	0xbdb8a564	-0.09015921
53	0xbd8e1a9b	-0.06938668
54	0xbd4dcb47	-0.05024269
55	0x3e8bd5c1	0.2731152
56	0x3e8b1477	0.2716405
57	0xbe46ece6	-0.19426307
58	0x3ea1a1a8	0.31568646
59	0xbe702f5b	-0.23455565
60	0x3dc32188	0.0952788
61	0x3dbd97dc	0.092574805
62	0x3e8d5cc9	0.27609852
63	0xbe09f3a2	-0.13471845
64	0x3e4a9982	0.19785121
65	0xbd92a8c8	-0.07161099
66	0xbe2d4256	-0.16919836
67	0xbea7ace2	-0.32749087
68	0x3e31ee24	0.17376
69	0x3e7e63e4	0.24842793
70	0x3e99a9ca	0.3001235
71	0xbea8b438	-0.32949996
72	0xbe19f428	-0.15034544
73	0xbdf21244	-0.1181989
74	0xbde7284d	-0.11286984
75	0x3da19d44	0.07891324
76	0x3d9b8f8e	0.0759574
77	0xbe1afdbd	-0.15135856
78	0xbe901cf7	-0.28147098
79	0x3de7fc86	0.11327462
80	0x3e18c5ff	0.1491928
81	0x3df060a1	0.117371805
82	0xbcdf2e8b	-0.027243873
83	0xbdcc73e5	-0.09983043
84	0x3e2972ee	0.16547748
85	0x3e4b8523	0.19875006
86	0x3e40ef0c	0.18841189
87	0xbd2da66c	-0.04239504
88	0x3eb0c468	0.34524846
89	0x3eb5e98f	0.35529754
90	0xbe874f47	-0.2642767
91	0xbe9d5cc0	-0.30734825
92	0xbc688f32	-0.014194297
93	0xbe38e30d	-0.18055363
94	0x3d34c1e6	0.04413023
95	0xbddb8088	-0.10717875
96	0x3e4008d9	0.18753375
97	0x3cbdfdfa	0.023192395
98	0x3e2d24e2	0.16908601
99	0xbe169017	-0.14703403
100	0x3e72bb09	0.23704161
101	0x3eb62288	0.3557322
102	0x3e8fe553	0.28104648
103	0x3dc44b0d	0.09584627
104	0xbe38eacc	-0.18058318
105	0x3d56566f	0.052328523
106	0xbd3c4ffe	-0.045974724
107	0x3c4269ce	0.011866046
108	0xbd18d24e	-0.037309937
109	0x3d51ae38	0.05119154
110	0x3e372067	0.17883454
111	0xbe297fb0	-0.16552615
112	0xbe8df6d3	-0.27727374
113	0xbebb6ccd	-0.36606446
114	0xbe8327cd	-0.25616303
115	0xbe5d54b0	-0.21614337
116	0xbc931a73	-0.017956948
117	0x3e4cb920	0.19992495
118	0x3e4ee03e	0.20202729
119	0x3e9547fe	0.29156488
120	0x3e877af9	0.26461008
121	0xbe0295fe	-0.1275253
122	0x3e84a08c	0.25903738
123	0xbd6f311d	-0.058396447
124	0xbc462a93	-0.012095111
125	0x3d8614ee	0.06546961
126	0x3eb79370	0.35854673
127	0xbe4aad0f	-0.19792579
128	0x3eb1d5af	0.3473334
129	0xbe0d77b0	-0.13815188
130	0x3e81041f	0.25198457
131	0x3e53933a	0.20661631
132	0x3e06508b	0.13116662
133	0xbe2a53bd	-0.16633506
134	0xbd75474f	-0.05988246
135	0x3c840b74	0.016118743
136	0x3e3b94d6	0.18318495
137	0xbeb14ce5	-0.34628978
138	0xbe139bf6	-0.14414963
139	0xbebbba14	-0.36665404
140	0xbe21752f	-0.15767358
141	0x3de2e02f	0.11077916
142	0xbd8618f8	-0.06547731
143	0x3e062a46	0.13102064

cnn.0.bias f4 [16]
0	0xbdb6e033	-0.08929481
1	0x3bf48cfb	0.0074630952
2	0x3d3f70fa	0.046738602
3	0x3e134678	0.1438235
4	0xbd424bb8	-0.047435492
5	0xbe10f33c	-0.14155287
6	0xbdad7883	-0.084702514
7	0xbe9fef23	-0.31237134
8	0xbd23b4df	-0.039967414
9	0x3df4f171	0.11960114
10	0x3e99a9e4	0.3001243
11	0xbe84d595	-0.259442
12	0xbc9e0106	-0.019287597
13	0xbe590df9	-0.21196736
14	0x3ea572ca	0.3231414
15	0xbd3b348a	-0.045704402

cnn.1.weight f4 [16]
0	0x3f86c301	1.052826
1	0x3f8acbb9	1.0843421
2	0x3f712a7b	0.94205445
3	0x3f8324d6	1.0245616
4	0x3f702d06	0.938187
5	0x3f7bfb94	0.9843075
6	0x3f71c29b	0.9443757
7	0x3f685396	0.9075254
8	0x3f8796ee	1.0592935
9	0x3f73b666	0.9520019
10	0x3f82361d	1.0172764
11	0x3f60b9fe	0.877838
12	0x3f814c28	1.0101366
13	0x3f876577	1.057784
14	0x3f6fd552	0.93684876
15	0x3f8bea85	1.0930945

cnn.1.bias f4 [16]
0	0x3d554aba	0.052073218
1	0x3d92f39d	0.07175372
2	0xbdd3de63	-0.10345151
3	0xbd35db24	-0.044398442
4	0xbdbcc30f	-0.09216892
5	0x3cc67a98	0.02422838
6	0xbd38e663	-0.04514159
7	0xbd80ca09	-0.06288535
8	0x3d112f3d	0.03544544
9	0xbc80bf00	-0.015716076
10	0x3cc0d4d0	0.023538977
11	0xbe11a252	-0.14222077
12	0xbd65dfee	-0.05612176
13	0x3d547af4	0.05187507
14	0xbdc8ad56	-0.09798686
15	0x3d3a4ad7	0.04548153

cnn.1.running_mean f4 [16]
0	0xbdba1e94	-0.090878636
1	0x3c02918a	0.0079692695
2	0x3d3b430c	0.045718238
3	0x3e16b9ff	0.1471939
4	0xbd39a51f	-0.045323487
5	0xbe0f2e30	-0.13982463
6	0xbdb73f1a	-0.089475825
7	0xbea10c3c	-0.31454647
8	0xbd294911	-0.041329447
9	0x3df7702b	0.12081941
10	0x3e98b706	0.29827136
11	0xbe8461d9	-0.25855902
12	0xbc8e2a43	-0.017354136
13	0xbe5802c4	-0.21094805
14	0x3ea70522	0.32621104
15	0xbd436594	-0.047704294

cnn.1.running_var f4 [16]
0	0x3eac3471	0.3363376
1	0x3dff815a	0.12475844
2	0x3f9ba870	1.2160778
3	0x3f8b90ff	1.0903624
4	0x3f382dd7	0.71944946
5	0x3e500b8d	0.20316906
6	0x3f21d323	0.63212794
7	0x3cede94a	0.029041905
8	0x3e186e37	0.14885794
9	0x3fac21c8	1.3447809
10	0x3e814f33	0.25255737
11	0x3ed3e27f	0.4138374
12	0x3f94d286	1.1626747
13	0x3f89d9d2	1.0769598
14	0x3f00e216	0.5034498
15	0x3ed34c53	0.41269168

cnn.5.weight f4 [32, 16, 3, 3]
0	0x3d99d933	0.075121306
1	0x3d898eb1	0.06716669
2	0x3d98ae63	0.074551366
3	0xbd4693d2	-0.048480816
4	0xbc963d09	-0.01833965
5	0x3cfa816f	0.030579297
6	0x3dbfaca7	0.09359103
7	0xbbc1ff86	-0.0059203533
8	0x3c280846	0.010255879
9	0xbdbbfd2b	-0.09179147
10	0x3d60e10c	0.05490212
11	0x3d1b053b	0.037846785
12	0x3da0f6a2	0.078595415
13	0xbc9e6fba	-0.019340385
14	0xbd942108	-0.07232863
15	0x3da6ce19	0.08144779
16	0x3d4b0aa5	0.0495707
17	0x3c5e2af3	0.013560045
18	0x3c6fe3b3	0.01464169
19	0xbd0d4db4	-0.03449793
20	0x3d4fa8f7	0.050698247
21	0x3db1c3c6	0.08679919
22	0x3d057d2f	0.032590088
23	0x3d6a0160	0.057130218
24	0x3d5f19ac	0.054467842
25	0x3dbf58ae	0.09343086
26	0x3dded1c2	0.10879852
27	0x3d312617	0.043249216
28	0xbd3b6a33	-0.045755576
29	0xbd367a7a	-0.044550397
30	0xbc838a8f	-0.01605728
31	0x3d4f870b	0.050665896
32	0x3dc5cd17	0.096582584
33	0x3ce2a5ec	0.027667008
34	0xbd80b00b	-0.062835775
35	0xbc6da654	-0.014504988
36	0xbbfbd3a6	-0.0076851426
37	0xbd59e266	-0.053194426
38	0x3ca289d7	0.019841118
39	0xbc234d35	-0.009967138
40	0x3c2b5848	0.01045806
41	0xbb3dfbaf	-0.0028989126
42	0xbce4bee5	-0.027923057
43	0x3c936425	0.017992089
44	0x3bd18633	0.0063941716
45	0xbbc6a811	-0.0060625155
46	0xbc1c1a0e	-0.009527696
47	0x3ab238d1	0.0013597255
48	0x3bc116c6	0.0058926074
49	0xbdcf47fd	-0.101211525
50	0xbcea6064	-0.028610416
51	0x3c70244d	0.014657092
52	0x3ccf11a1	0.02527696
53	0x3d0b40b2	0.033997245
54	0xbcfe743b	-0.031061282
55	0xbc402945	-0.011728589
56	0xbda12167	-0.07867699
57	0xbd8f2e29	-0.06991226
58	0x3d411258	0.047136635
59	0xbcf90cd3	-0.030401623
60	0x3d9eb8d5	0.07750098
61	0x3d842cdf	0.06453871
62	0xbdae00cc	-0.08496246
63	0x3cbef815	0.023311654
64	0x3d85f96c	0.06541714
65	0x3cd46647	0.025927676
66	0xbc4938ed	-0.012281639
67	0x3ce51e4c	0.027968548
68	0x3cfaae4e	0.030600693
69	0x3c8bba51	0.017056616
70	0x3d8bf8fb	0.06834599
71	0x3d60b863	0.054863345
72	0x3db7437e	0.0894842
73	0x3d9b46c3	0.07581856
74	0x3dc5e1c6	0.096622035
75	0x3dca2aed	0.09871469
76	0x3d8b2872	0.06794824
77	0x3e00c37d	0.12574573
78	0x3d5a6b92	0.053325243
79	0x3cf02dd8	0.029318735
80	0x3db00679	0.085949846
81	0xbd77be3e	-0.060484163
82	0x3b5d80ec	0.0033798767
83	0xbd2c27a5	-0.042029995
84	0xbd57847f	-0.052616592
85	0x3cb532af	0.022118894
86	0x3dc529fc	0.096271485
87	0x3dae0451	0.08496917
88	0xbd1122b3	-0.035433482
89	0xbced4c5e	-0.028967079
90	0xbd24072a	-0.040045895
91	0x3c9d276e	0.01918384
92	0xbcdc2431	-0.026872726
93	0x3dde2035	0.10845987
94	0x3da080c9	0.07837064
95	0x3db81359	0.08988065
96	0x3c2551de	0.010090319
97	0x3df47310	0.11936009
98	0x3ca7bac3	0.020474797
99	0xbcaed022	-0.02133948
100	0xbd0cdcf1	-0.034390394
101	0xbd338d6f	-0.043836053
102	0x3d00d1d9	0.031450126
103	0x3b56af90	0.0032758452
104	0xbd9981bd	-0.07495449
105	0xbb880737	-0.0041512507
106	0xbd4980c8	-0.04919508
107	0x3d70f911	0.05883128
108	0x3d8b4efa	0.06802173
109	0x3e332cee	0.17497608
110	0x3dabdccd	0.08391724
111	0x3e255fc6	0.16149816
112	0x3e0921a1	0.13391735
113	0x3d56b901	0.052422527
114	0x3d323265	0.04350509
115	0x3dc1f2f0	0.09470165
116	0x3de87083	0.11349585
117	0xbd817f20	-0.06323075
118	0xbd4223a2	-0.047397263
119	0x3d465dfc	0.048429474
120	0xbd6920a2	-0.056915887
121	0x3b43de4b	0.0029887136
122	0xbbb09c85	-0.0053897523
123	0xbd707407	-0.058704402
124	0x3c7b0820	0.015321761
125	0x3cf25ce5	0.029585311
126	0xbdc1796b	-0.09446987
127	0xbe2d2302	-0.16907886
128	0xbe27f290	-0.16401124
129	0xbdfe5133	-0.12417831
130	0xbd84c467	-0.06482773
131	0xbd5de860	-0.05417669
132	0xbd87ee63	-0.066372655
133	0xbd996fe8	-0.074920475
134	0xbd210695	-0.039312918
135	0x3dfe8440	0.124275684
136	0x3cf31609	0.029673593
137	0x3e0b7754	0.13619739
138	0x3d986077	0.07440274
139	0x3d7b8d63	0.061414134
140	0x3d3fc4d9	0.046818588
141	0x3d2f1a99	0.042749975
142	0x3deb5b0e	0.11491977
143	0x3ca688a3	0.020328825
144	0xba4b7b2c	-0.00077621895
145	0x3c183a53	0.009291249
146	0xbb18f384	-0.0023338506
147	0xbc8a6be1	-0.016897144
148	0xbd6f852c	-0.058476612
149	0xbd81d322	-0.063390985
150	0x3c53e082	0.012931945
151	0x3ce195b0	0.027537197
152	0xbc9cf373	-0.019159054
153	0xbded0d59	-0.115748115
154	0x3d1c284b	0.038124364
155	0xbd82a87f	-0.06379794
156	0xbddac6a7	-0.10682421
157	0x3bc86766	0.0061158417
158	0x3d4456c4	0.04793431
159	0xbdb83b20	-0.08995652
160	0xbdd2a26c	-0.10284886
161	0xbd0aa404	-0.033847824
162	0xbcea2ae5	-0.028584907
163	0xbc815e96	-0.015792172
164	0xbdd1becf	-0.10241472
165	0xbd6088e8	-0.054818064
166	0xbd7a6ff5	-0.061141927
167	0xbd237fcb	-0.039916795
168	0xbdce5904	-0.10075572
169	0xbcf79406	-0.03022195
170	0xbb4e3565	-0.003146493
171	0xbb9fba6e	-0.004874519
172	0xbded9f84	-0.11602691
173	0xbd910a70	-0.07082069
174	0x3afc05d0	0.0019227806
175	0xbdcedad3	-0.10100331
176	0xbdb0f071	-0.086396106
177	0xbcdb856b	-0.026797017
178	0xbda3c2b3	-0.0799612
179	0xbcff30f8	-0.03115128
180	0x3c64eadb	0.0139720095
181	0x3db7aedb	0.08968898
182	0xbc08a627	-0.008340395
183	0xbcf14243	-0.029450541
184	0x3d7b4b4f	0.061351117
185	0xbda8b010	-0.08236706
186	0x39dbfe84	0.00041960564
187	0xbd88024a	-0.066410616
188	0x3cba5546	0.02274574
189	0xbd2b6ffb	-0.04185484
190	0xbd458a6b	-0.04822771
191	0xbc7ea09b	-0.015541221
192	0x3b5c1494	0.0033581601
193	0xbdaf31b8	-0.08554405
194	0xbc8629f1	-0.016377421
195	0x3d3070d2	0.043076344
196	0x3c444a1c	0.01198056
197	0x3d2b9b1a	0.041895963
198	0x3cf1adb9	0.029501783
199	0x3c55e806	0.013055807
200	0x3cffebed	0.031240428
201	0x3d0c0871	0.034187738
202	0xbbc786da	-0.0060890736
203	0x3d2ca8c6	0.042153142
204	0x3cc977d5	0.024593273
205	0x3bfd8673	0.007736975
206	0x3d5688c8	0.05237654
207	0x3d6327d5	0.05545791
208	0xbce9810c	-0.028503917
209	0x3d726444	0.059177652
210	0xbb8e64f2	-0.0043455297
211	0x3d2d24da	0.042271473
212	0xbdb26662	-0.08710934
213	0xb935be65	-0.00017332433
214	0x3ce089f2	0.027409527
215	0xbbcbeb48	-0.006223116
216	0xbd436943	-0.047707807
217	0xbe0953b7	-0.13410841
218	0xbdfb2a9e	-0.12263988
219	0x3ae1601b	0.0017194779
220	0xbe1dc06f	-0.15405439
221	0xbdfc2eab	-0.12313589
222	0xbdff34e0	-0.12461257
223	0xbdeb4110	-0.11487019
224	0xbddae866	-0.10688858
225	0xbbf35c0e	-0.0074267453
226	0x3d00a3de	0.031406276
227	0x3d719c09	0.058986697
228	0xbd4471a4	-0.04795994
229	0x3d889004	0.06668094
230	0xbd5eb8eb	-0.05437557
231	0xbda61806	-0.08110051
232	0x3d6dd3d2	0.058063336
233	0x3c8879f4	0.016659714
234	0xbda057ed	-0.078292705
235	0xbcd0270c	-0.025409244
236	0x3c8bee8a	0.017081518
237	0xbc326bde	-0.010889975
238	0xbc5a8d8b	-0.013339411
239	0x3d7f1f6f	0.062285837
240	0x3ce870c4	0.028374083
241	0xbd85bc8c	-0.06530103
242	0xbd0732d5	-0.03300746
243	0xbcdf119e	-0.02723008
244	0x3c6aa534	0.014321614
245	0xbd790e48	-0.060804635
246	0x3d105b2f	0.03524321
247	0x3c665913	0.014059323
248	0x3d14bea9	0.03631464
249	0x3d4aabc4	0.049480215
250	0xbda62bd3	-0.081138276
251	0xbc0a6fd5	-0.008449514
252	0xbd95e417	-0.07318895
253	0xbd1fe338	-0.039035052
254	0xbdeaf2a1	-0.11472059
255	0xbcdfab23	-0.027303284

cnn.5.bias f4 [32]
0	0xbc8a9313	-0.016915834
1	0xbd9fd98e	-0.07805167
2	0x3d24e542	0.0402577
3	0x3dc1188d	0.09428511
4	0xbdabec62	-0.08394696
5	0x3e047140	0.12933826
6	0xbd0f8688	-0.03504041
7	0x3cc05bbc	0.023481242
8	0xbd6405b0	-0.055669487
9	0xbd90517c	-0.07046792
10	0x3d9cf3f4	0.07663718
11	0x3d794b4d	0.060862828
12	0x3cca4a95	0.024693767
13	0xbd8c448d	-0.068490125
14	0xbd119046	-0.03553798
15	0xbd83bef2	-0.06432904
16	0xbd70c5fa	-0.058782555
17	0xbd0b0b01	-0.03394604
18	0xbdddba5b	-0.1082656
19	0xbba7b578	-0.0051180683
20	0xbc777206	-0.015102869
21	0x3c984ae7	0.018590404
22	0x3d850633	0.06495323
23	0xbd65db26	-0.0561172
24	0x3dfba674	0.12287608
25	0x3d9e6218	0.07733554
26	0x3d7956a3	0.06087364
27	0xbca1f7f3	-0.019771552
28	0xbd505c41	-0.05086923
29	0xbc31d023	-0.010852846
30	0xbd35efb8	-0.044418067
31	0x3d9a72a2	0.07541396

cnn.6.weight f4 [32]
0	0x3f6ea07d	0.93213636
1	0x3f82ac5c	1.020885
2	0x3f7e8f51	0.99437433
3	0x3f7fbd9d	0.998987
4	0x3f832f52	1.0248816
5	0x3f718b65	0.94353324
6	0x3f861b44	1.0477071
7	0x3f7b0a35	0.9806245
8	0x3f712356	0.94194543
9	0x3f7b832c	0.9824703
10	0x3f8066c9	1.0031368
11	0x3f83042b	1.0235647
12	0x3f71d9cf	0.94472975
13	0x3f877605	1.0582892
14	0x3f7dd234	0.9914887
15	0x3f6d7bca	0.9276701
16	0x3f68bade	0.90910137
17	0x3f7537b5	0.9578813
18	0x3f7b8b1f	0.98259157
19	0x3f792386	0.9731983
20	0x3f783346	0.9695324
21	0x3f8007ad	1.0002342
22	0x3f6bb8a8	0.9207864
23	0x3f727f27	0.9472527
24	0x3f7b96cc	0.9827697
25	0x3f80c5ec	1.0060401
26	0x3f812ecf	1.009241
27	0x3f790f10	0.9728861
28	0x3f80128a	1.0005658
29	0x3f771bce	0.965268
30	0x3f79c7d4	0.9757054
31	0x3f816c2c	1.0111136

cnn.6.bias f4 [32]
0	0xbd0272b8	-0.031847686
1	0x3cf40fd0	0.029792696
2	0xbaa722de	-0.001275148
3	0xbb8df47e	-0.0043321243
4	0x3cffefc6	0.031242263
5	0xbd52190c	-0.051293418
6	0x3d5c5db5	0.053800303
7	0xbc3f8d65	-0.011691426
8	0xbd92c0ba	-0.07165666
9	0xbc5d849a	-0.013520384
10	0x3c4b51b7	0.012409619
11	0xbbbe6e5f	-0.005811497
12	0xbd48be4d	-0.04900961
13	0x3d9258dd	0.071458556
14	0xbb80d989	-0.003932182
15	0xbd418919	-0.047249887
16	0xbdad5379	-0.08463187
17	0xbcc65251	-0.024209173
18	0xbd1a7063	-0.037704837
19	0xbc94c2cf	-0.018159298
20	0xbd2fa506	-0.042881988
21	0x3c21b717	0.009870312
22	0xbd65ea00	-0.056131363
23	0xbd2b3b03	-0.041804325
24	0xbc004401	-0.007828713
25	0xbcb1463f	-0.021639941
26	0xbb45a14f	-0.0030155962
27	0xbc9ed68e	-0.019389417
28	0xbcd7db3e	-0.02634966
29	0xbcd804ef	-0.02636954
30	0xbd090a5d	-0.03345715
31	0x3c1d1dbb	0.009589608

cnn.6.running_mean f4 [32]
0	0x3faaad40	1.3334122
1	0xbfb1803d	-1.386726
2	0x3fd82ec4	1.6889272
3	0xbfa2a197	-1.2705563
4	0xbf9c1843	-1.2194904
5	0xbef041fb	-0.4692534
6	0xc00e7191	-2.2256815
7	0xbf7b428a	-0.98148406
8	0xbf222afd	-0.63346845
9	0xbe69604d	-0.22790642
10	0xc0006c93	-2.0066268
11	0x3f46c560	0.7764492
12	0x3d01ad6f	0.03165954
13	0xbff06fa0	-1.8784065
14	0xbfd73918	-1.6814299
15	0xbef3f3ea	-0.4764703
16	0xbfd5f370	-1.6714916
17	0xbecc4875	-0.3989903
18	0x3df1837b	0.11792656
19	0xbff75929	-1.9324085
20	0x3db3ec05	0.087852515
21	0x3f36dccc	0.7143066
22	0xbf91519c	-1.135303
23	0x3f85a9a4	1.0442395
24	0x3f92bf38	1.1464605
25	0xbe281f20	-0.16418123
26	0xbf5da9f9	-0.8658748
27	0x3f85a076	1.0439594
28	0x3f03aa57	0.5143179
29	0x3efe8f52	0.4971872
30	0x3eb3b3ff	0.35098264
31	0x3ebca22d	0.3684248

cnn.6.running_var f4 [32]
0	0x407e9537	3.9778574
1	0x4017b1fb	2.370238
2	0x40350e65	2.8290036
3	0x3f4e709c	0.8064058
4	0x3ff8aa88	1.9427042
5	0x406ce33f	3.70137
6	0x3fa50d5a	1.28947
7	0x3fcbf3b9	1.5933753
8	0x3f958f5a	1.1684372
9	0x4013f6d5	2.3119404
10	0x4097c41a	4.742688
11	0x404a8e6f	3.1649435
12	0x408fdb52	4.4955225
13	0x3f6ee991	0.93325144
14	0x3f7c6e6e	0.98606
15	0x3fc61de1	1.5477868
16	0x3f68bbcf	0.90911573
17	0x3facd2e1	1.3501855
18	0x404b6e0e	3.1785922
19	0x3f7c3764	0.9852202
20	0x40d90166	6.7814207
21	0x404d348c	3.2063322
22	0x40812a59	4.0364194
23	0x3feb7e27	1.8397874
24	0x4040f2a4	3.0148096
25	0x40267428	2.6008396
26	0x3fffc3bb	1.9981607
27	0x400ff8a5	2.249551
28	0x4038a215	2.8848927
29	0x4024ec1e	2.5769114
30	0x40499f8d	3.1503632
31	0x3ffd3c9b	1.978412

lstm.weight_ih_l0 f4 [256, 32]
0	0x3d1c7b07	0.038203266
1	0xbdd3dc94	-0.10344806
2	0xbd781cf8	-0.0605745
3	0x3dcb5173	0.099276446
4	0xbd9aa48c	-0.07550916
5	0xbde25052	-0.11050476
6	0xbdec359e	-0.11533664
7	0x3d29f2ec	0.041491434
8	0xbcef5b50	-0.029218346
9	0xbe7ee8b9	-0.24893464
10	0xbe37dd11	-0.17955424
11	0xbbb7286e	-0.0055895364
12	0xbd791635	-0.060812194
13	0xbdb6d048	-0.08926445
14	0x3d090e3b	0.033460837
15	0xbd322e87	-0.043501403
16	0x3bac3f4b	0.0052565685
17	0x3d365775	0.044517
18	0xbdeb43f0	-0.114875674
19	0xbc280ded	-0.010257226
20	0xbe74a34c	-0.23890418
21	0xbd813d31	-0.063104995
22	0xbe003019	-0.12518348
23	0xbb2d9f2d	-0.0026492581
24	0xbdfdceb0	-0.12392938
25	0xbd0a4321	-0.033755425
26	0xbdf4ad36	-0.119471
27	0xbd4bfcba	-0.049801566
28	0xbe130a87	-0.14359485
29	0xbdbdc186	-0.09265427
30	0x3c9f2c86	0.01943041
31	0x3c89c51b	0.01681762
32	0xbc3d847a	-0.011567229
33	0xbe32045c	-0.17384475
34	0x3d984f1e	0.074369654
35	0xbcb5d8af	-0.02219805
36	0xbd395a30	-0.045252025
37	0xbdebc74a	-0.11512621
38	0x3d121c89	0.035671744
39	0xbd8ccad0	-0.06874621
40	0xbe158eca	-0.14605251
41	0xbdae16e1	-0.085004576
42	0x3d909fda	0.07061739
43	0x3dc0715b	0.09396621
44	0x3d8dc5dd	0.06922505
45	0x3d2124a1	0.039341573
46	0xbde7cef9	-0.11318774
47	0xbd04077d	-0.032233704
48	0x3ce1b90e	0.027554061
49	0xbd8847c9	-0.06654317
50	0xbcfe4d02	-0.03104258
51	0x3ba7710c	0.005109912
52	0xbaff9c98	-0.0019501625
53	0xbd029b76	-0.03188654
54	0xbddd0067	-0.10791092
55	0xbdf58600	-0.11988449
56	0xbdbdff42	-0.09277202
57	0x3b928eda	0.0044725956
58	0xbe17eced	-0.14836474
59	0x3d1a81f3	0.037721585
60	0x3c1494a1	0.009068639
61	0xbdd485b4	-0.10377064
62	0xbd893eae	-0.06701408
63	0xbc642d46	-0.01392681
64	0xbe0c3206	-0.13690957
65	0xbd50ed17	-0.051007356
66	0x3d46e76c	0.048560545
67	0x3cb50a49	0.02209963
68	0x3d4f51a6	0.050614975
69	0xbe019d05	-0.12657554
70	0xbc01bb86	-0.007918244
71	0x3cfa5de3	0.030562347
72	0x3dbd354b	0.092386805
73	0xbdfe6c3c	-0.12422988
74	0xbda9d876	-0.0829324
75	0xbd993832	-0.074814215
76	0x3d8ec21e	0.06970619
77	0x3dc03087	0.09384256
78	0x3df9fa62	0.1220596
79	0xbd3bebb2	-0.045879073
80	0xbd5c1d06	-0.053738616
81	0x3b58af6e	0.0033063549
82	0x3cc79505	0.02436305
83	0xbc1a14ec	-0.009404402
84	0xbd2f0039	-0.04272482
85	0x3d9c1f18	0.07623118
86	0xbca4591f	-0.020062027
87	0x3d355a8e	0.044275813
88	0xbe152717	-0.14565693
89	0x3d76c8fb	0.060250264
90	0xbe279cc4	-0.16368395
91	0xbc70f470	-0.014706716
92	0xbc9fc56b	-0.019503316
93	0x3de5f421	0.112282045
94	0x3d74847e	0.059696667
95	0xbd1bf42b	-0.038074654
96	0xbd82b749	-0.06382615
97	0xbc1cddc8	-0.009574361
98	0xbdb2b78c	-0.08726415
99	0x3dad9f6e	0.084776744
100	0xbe100b85	-0.14066894
101	0xbdd9f0ab	-0.10641607
102	0xbe07f8e4	-0.13278538
103	0x3d8637b3	0.065535925
104	0xbcc7f4b9	-0.024408685
105	0x3d8ce858	0.068802536
106	0xbcd67aef	-0.026181666
107	0x3dd92d3c	0.10604331
108	0xbc323efa	-0.010879273
109	0x3d9fdb65	0.07805518
110	0xbc0c78c7	-0.008573717
111	0x3d566eb6	0.052351676
112	0x3cbb2212	0.022843394
113	0xbde069eb	-0.10957702
114	0xbda8bf80	-0.08239651
115	0x3d60b294	0.054857805
116	0x3b9232d7	0.004461627
117	0x3a4d1920	0.00078238733
118	0x3bc4860d	0.0059974254
119	0xbdc18c28	-0.09450561
120	0x3c94b79b	0.018153956
121	0xbd26e3e3	-0.040744673
122	0xbd2ea4db	-0.042637687
123	0xbde2ded3	-0.110776566
124	0xbbdce4e5	-0.0067411535
125	0xbd9b22ff	-0.07575034
126	0xbe04c240	-0.12964725
127	0xbdca59c5	-0.098804034
128	0xbc572671	-0.013131724
129	0xbc70398b	-0.014662157
130	0xbdd3d45c	-0.10343239
131	0xbe2053c2	-0.15656951
132	0x3d1075dc	0.03526865
133	0xbd8054ab	-0.06266149
134	0x3dbae0d3	0.09124913
135	0x3d41932a	0.047259487
136	0xbd618fdc	-0.055068836
137	0x3d53805f	0.051636096
138	0x3d0344ce	0.03204804
139	0xbe3189fc	-0.17337793
140	0xbc6c167f	-0.01440966
141	0x3d728bde	0.05921542
142	0xbd2dcbef	-0.042430814
143	0xbdb1df50	-0.086851716
144	0xbd7b0f33	-0.061293792
145	0x3d70d972	0.058801122
146	0xbc5e036a	-0.013550619
147	0xbd3988d7	-0.045296516
148	0xbda61386	-0.081091926
149	0xbce849b9	-0.028355466
150	0xbd599f67	-0.053130534
151	0xbe199eae	-0.15001938
152	0x3b038f1f	0.002007432
153	0x3d0b4848	0.03400448
154	0xbc76849f	-0.015046268
155	0x3baeb7eb	0.0053319833
156	0xbe0cee66	-0.13762817
157	0x3ac4202b	0.00149632
158	0x3d7a8aec	0.061167642
159	0x3d3e7c49	0.046505246
160	0xbd8787a7	-0.066176705
161	0xbe3af5d1	-0.18257834
162	0x3d5cf86f	0.053947862
163	0xbd41d1e4	-0.047319308
164	0xbdd6b59c	-0.10483858
165	0x3d8bdd0e	0.06829272
166	0xbdef258b	-0.11677083
167	0xbcf0a398	-0.029374883
168	0xbe2f9c46	-0.17149457
169	0xbd7024f3	-0.058628988
170	0x3a83fe51	0.0010070299
171	0xbda67389	-0.08127505
172	0xbe196248	-0.14978898
173	0x3a88374b	0.0010392455
174	0xbe34cc2b	-0.17656009
175	0x3d5eeb4d	0.05442362
176	0xbdc49a8e	-0.095997915
177	0xbd9d9305	-0.076940574
178	0xbd9ff7ca	-0.07810934
179	0x3d61063a	0.05493758
180	0xbdb9dae9	-0.09074957
181	0xbc6424aa	-0.013924757
182	0x3d7149b2	0.058908172
183	0x3b9eccb1	0.0048461785
184	0xbd5e1081	-0.054214958
185	0xbe113589	-0.14180578
186	0xb81021e6	-3.4363846e-05
187	0x3d030f6c	0.03199713
188	0xbdac7ed6	-0.084226295
189	0xbd1e1e5e	-0.03860318
190	0xbd3096da	-0.043112613
191	0xbe2f38a5	-0.17111452
192	0xbe12c2c4	-0.1433211
193	0xbb21c0c2	-0.0024681543
194	0xbe1c025b	-0.15235274
195	0xbcc9a866	-0.024616431
196	0xbe01f66b	-0.12691657
197	0xbd52ca36	-0.051462375
198	0xbd2f8186	-0.042848133
199	0x3d24c26f	0.04022449
200	0xbdcb81c1	-0.09936858
201	0xbc121ab5	-0.0089175
202	0x3d9c4d5d	0.076319434
203	0x3da8dd99	0.082453914
204	0x3d8b5e54	0.06805101
205	0xbe073505	-0.13203819
206	0xbd4ce59f	-0.05002367
207	0x3c5578b2	0.013029264
208	0xbe01533f	-0.12629412
209	0x3cd5c4a6	0.026094746
210	0xbdf8c86e	-0.12147604
211	0x3ca7a4bd	0.020464296
212	0x3d2c0625	0.041998047
213	0xbb8bb369	-0.0042633307
214	0xbe1e728b	-0.15473382
215	0xbcf89cb0	-0.030348152
216	0xbd65dc1d	-0.05611812
217	0xbcdb6816	-0.02678303
218	0xbbb71745	-0.0055874907
219	0xbd1ad3bf	-0.037799593
220	0xbc8ff2fd	-0.01757192
221	0xbe22d6bc	-0.15902227
222	0xbdd8f85c	-0.10594246
223	0x3d9d8039	0.07690472
224	0x3d43f822	0.04784406
225	0xbd5546c8	-0.052069455
226	0x3d8d3d88	0.06896502
227	0xbe25fdd4	-0.16210109
228	0xbc05e9a4	-0.00817338
229	0xbc7c6f19	-0.015407347
230	0xbe036136	-0.12830052
231	0xbd06550b	-0.032795947
232	0xbe068aac	-0.13138837
233	0xbdafa50d	-0.08576403
234	0x3d6deb48	0.05808571
235	0x3de8e21c	0.11371252
236	0x3deb4e17	0.11489504
237	0x3c3a234a	0.011360953
238	0xbe345ce4	-0.1761356
239	0x3dd58288	0.104252875
240	0x3c824cf6	0.015905838
241	0xbda61afe	-0.08110617
242	0xbd2c3096	-0.042038523
243	0x3c9996a5	0.01874859
244	0xbd29371e	-0.04131233
245	0x3d7d1ff3	0.061798047
246	0x3dc6816e	0.096926555
247	0x3ddc64b7	0.10761397
248	0x3d52b623	0.05144323
249	0x3dab98e3	0.0837877
250	0xbd6aa80f	-0.05728918
251	0x3de453b5	0.11148778
252	0x3df688ca	0.12037809
253	0x3ccadcf5	0.024763564
254	0x3d5ea2fd	0.054354656
255	0x3cb39294	0.02192048

lstm.weight_hh_l0 f4 [256, 64]
0	0xbdf8da95	-0.12151066
1	0x3d0c362a	0.034231342
2	0x3deaa7f1	0.114578135
3	0xbe07e38a	-0.13270393
4	0xbd372b11	-0.044718806
5	0xbbd11784	-0.006380977
6	0xbd87612a	-0.066103294
7	0x3d82e54e	0.06391393
8	0xb9d626b7	-0.00040846106
9	0xbdef57b7	-0.11686652
10	0x3bd75940	0.0065719187
11	0xbca90876	-0.020633917
12	0x3e16c377	0.14723001
13	0xbccd60d8	-0.025070593
14	0xbda70337	-0.0815491
15	0x3e0c85a6	0.13722858
16	0xbdaa5231	-0.08316458
17	0x3d3a350f	0.045460757
18	0xbd59eef8	-0.053206414
19	0x3d7461ab	0.059663456
20	0xbd74a21a	-0.059724905
21	0x3d9b9dd8	0.07598466
22	0x3d22f3b1	0.039783183
23	0x3cbd43b9	0.023103582
24	0xbcc6ec74	-0.024282672
25	0x3c6642fd	0.014054057
26	0xbc6aca02	-0.014330389
27	0xbd9a9f82	-0.07549955
28	0xbc28dcf9	-0.01030659
29	0xbcf0a563	-0.029375738
30	0xbd914dae	-0.07094894
31	0x3db63da3	0.08898475
32	0xbe1e3b19	-0.15452231
33	0x3b84f278	0.004057225
34	0xbd9b7156	-0.075899765
35	0x3dca8520	0.09888673
36	0x3dff6c24	0.12471798
37	0x3de82d79	0.11336798
38	0x3d7262b2	0.059176154
39	0x3e0853af	0.13313173
40	0x3c63daba	0.013907129
41	0x3da5e765	0.08100776
42	0xbd0fe4a2	-0.03513015
43	0xbc5c0d6f	-0.013430937
44	0x3ddc3197	0.10751646
45	0x3db2760d	0.08713923
46	0x3e128315	0.14307816
47	0x3dcf3bb9	0.10118813
48	0x3d826b58	0.063681304
49	0x3da50917	0.080583744
50	0x3c1e4d61	0.009662003
51	0xbde25ecc	-0.11053237
52	0x3d3b792b	0.04576985
53	0x3c191673	0.009343731
54	0xbc88e96e	-0.01671287
55	0xbd3a8b02	-0.045542724
56	0xbcece885	-0.028919468
57	0xbe0948bd	-0.13406654
58	0x3e0966af	0.13418077
59	0xbd1092bb	-0.035296183
60	0xbcaeba9c	-0.021329217
61	0xbdf5d360	-0.12003207
62	0xbd8c166b	-0.068402134
63	0xbda96730	-0.082716346
64	0x3bbba0d4	0.0057259593
65	0xbd1ded81	-0.03855658
66	0x3db67f07	0.08910947
67	0xbd951ff7	-0.072814874
68	0x3dff056f	0.12452208
69	0xbdc2cf4e	-0.095121965
70	0xbdcba258	-0.09943074
71	0x3dd78630	0.10523641
72	0x39d54224	0.00040675804
73	0x3db8de32	0.090267554
74	0x3dd51db4	0.10406056
75	0x3ba2e891	0.0049715717
76	0x3d112a6d	0.03544085
77	0x3d1e3e38	0.038633555
78	0xbd51cc59	-0.05122027
79	0x3d9185c6	0.071055934
80	0x3c7e3d65	0.015517567
81	0x3ce25f10	0.02763322
82	0x3de5683b	0.11201521
83	0x3c860016	0.016357463
84	0xbde57257	-0.11203449
85	0xbdccb7d3	-0.09995999
86	0x3dda54d6	0.106607124
87	0x3d9cc2ba	0.07654329
88	0xbd4ccfe5	-0.05000295
89	0x3dc070ff	0.09396552
90	0xbe057810	-0.13034081
91	0xbc865e51	-0.016402395
92	0x3db8b98e	0.09019767
93	0x3da0ed5f	0.07857775
94	0x3dc3139f	0.09525227
95	0xbe140a93	-0.14457159
96	0xbcce396a	-0.025173862
97	0x3e122e14	0.1427539
98	0xbda1aa8b	-0.078938566
99	0x3c92d565	0.01792402
100	0x3d9019eb	0.070361935
101	0xbd7ed098	-0.06221065
102	0x3dbd341e	0.09238456
103	0xbd8e1590	-0.069377065
104	0x3dd7a810	0.10530102
105	0x3e1a03e4	0.15040547
106	0x3c2d1bd9	0.010565721
107	0xbb95e690	-0.0045746043
108	0xbdf81370	-0.121130824
109	0xbd611de9	-0.054960165
110	0x3d413c5e	0.04717671
111	0x3dbbdede	0.09173368
112	0xbd9bc5ac	-0.07606062
113	0xbadfb946	-0.0017068766
114	0xbdbba467	-0.09162217
115	0xbdbc7dde	-0.09203695
116	0x3deb169a	0.1147892
117	0x3dad8eb0	0.08474481
118	0xbda63c44	-0.081169635
119	0x3c5e0b6e	0.01355253
120	0xbd0d7b85	-0.034541626
121	0x3d0f60d4	0.035004452
122	0x3dfb840a	0.12281044
123	0x3bc3c0f2	0.0059739286
124	0xbba3bfd5	-0.0049972334
125	0x3dd9e88a	0.106400564
126	0xbe048777	-0.129423
127	0x3cfdfd4d	0.031004572
128	0xbda92648	-0.08259255
129	0xbcd741f3	-0.026276564
130	0xbcf5d1a5	-0.030007193
131	0xbd3306d6	-0.04370769
132	0xbd7b1d7c	-0.061307415
133	0x3d84ddf0	0.06487644
134	0x3d8d7fde	0.06909154
135	0x3d1d5a83	0.038416397
136	0x3da8d891	0.08244432
137	0x3daa6359	0.0831973
138	0xbdfc0b80	-0.12306881
139	0x3d5482cc	0.05188255
140	0x3dc3d943	0.09562924
141	0xbd906018	-0.070495784
142	0xbe187e71	-0.14891984
143	0xbe028b8d	-0.12748547
144	0x3df5a4c3	0.119943164
145	0xbd046092	-0.03231866
146	0xbdc4a222	-0.09601237
147	0xbe27d866	-0.16391143
148	0xbd80e49b	-0.06293603
149	0x3d75774f	0.059928235
150	0xbc4cee59	-0.012507998
151	0xbd4357ee	-0.04769128
152	0xbdae00ff	-0.08496284
153	0x3dca80ff	0.09887885
154	0x3d056b26	0.032572888
155	0xbca1f76d	-0.019771302
156	0xbd83da7a	-0.064381555
157	0x3ce3b28a	0.027795095
158	0x3d400072	0.046875425
159	0x3d5be49b	0.053684812
160	0xbd839de5	-0.064266
161	0x3d5e1725	0.05422129
162	0xbe221ed4	-0.15832072
163	0x3d93ddb6	0.072200224
164	0xbdaa5a7a	-0.08318038
165	0x3d2afa17	0.04174241
166	0xbbe020d0	-0.006839849
167	0xbe0cf5f9	-0.13765706
168	0x3d904f0a	0.070463255
169	0x3dd5225f	0.104069464
170	0x3dae8f37	0.0852341
171	0xbbb1a939	-0.0054217842
172	0x3cd728a7	0.026264502
173	0x3cc413c9	0.023935216
174	0xbdfbafeb	-0.12289413
175	0xbd9a0fd8	-0.07522553
176	0x3d560391	0.052249495
177	0x3d80fe2f	0.06298482
178	0xbd843231	-0.06454886
179	0xbd8d2787	-0.06892305
180	0xbd6aea22	-0.057352193
181	0x3dd76ece	0.10519181
182	0xbd13abaa	-0.036052383
183	0xbc16aa02	-0.009195806
184	0xbdee910a	-0.11648758
185	0xbe29ce0e	-0.1658251
186	0x3da22b37	0.07918399
187	0x3dc10692	0.09425081
188	0x3dccd486	0.10001473
189	0xbd55e52d	-0.052220512
190	0xbddecc3b	-0.108787976
191	0x3dc6ffe8	0.09716779
192	0xba8556a7	-0.0010172919
193	0x3cb4abc1	0.022054555
194	0xb82d4684	-4.1312087e-05
195	0x3d60a8f0	0.05484861
196	0x3e088f40	0.13335896
197	0x3da61369	0.08109171
198	0xbc7e35d5	-0.015515764
199	0x3cdc56a8	0.02689679
200	0xbdc8b548	-0.09800202
201	0xbdc04ac7	-0.09389263
202	0xbd915dda	-0.07097979
203	0x3df908ef	0.12159907
204	0x3d98b9db	0.07457324
205	0x3df5371e	0.119734034
206	0x3db54ffd	0.08853147
207	0xbd2a365e	-0.041555755
208	0x3dd781c5	0.105227984
209	0x3cf9c90c	0.030491374
210	0x3df3ba48	0.11900765
211	0x3c33fbcc	0.010985326
212	0x3d2f4448	0.042789727
213	0x3d99271f	0.07478165
214	0x3bd1ed71	0.006406479
215	0xbd34033b	-0.043948393
216	0x3d66d4fa	0.056355454
217	0xbd3e7bc5	-0.046504755
218	0xbd856fb6	-0.06515448
219	0x3d958fc6	0.07302813
220	0x3b9d6795	0.0048036077
221	0x3bfd9a08	0.007739309
222	0x3bdc9176	0.0067312075
223	0x3db076a2	0.086163774
224	0xbd5a7f2c	-0.053343937
225	0xbc996dfb	-0.0187292
226	0x3d76a2d6	0.060213886
227	0x3d9894e1	0.074502714
228	0xbbe19e07	-0.0068852934
229	0x3ca33018	0.019920394
230	0x3d5f75ac	0.05455558
231	0xbd999fed	-0.075012065
232	0xbc53cd92	-0.01292743
233	0xbd7bd68c	-0.061483905
234	0xbc2a511d	-0.0103953155
235	0xbcede002	-0.02903748
236	0x3d1962e6	0.037447833
237	0xbdabc8c0	-0.083878994
238	0xbe01cfe8	-0.12676966
239	0x3cbf5b42	0.023358945
240	0xbd64e380	-0.055881023
241	0x3d38dfd4	0.045135334
242	0x3e1930c4	0.14960009
243	0xbd9665df	-0.07343649
244	0x39930746	0.00028043444
245	0xbded623d	-0.11591003
246	0xbdc499bb	-0.09599634
247	0xbdab59a4	-0.08366707
248	0x3dc746fa	0.097303346
249	0xbd66f3f8	-0.05638501
250	0x3d8972c6	0.067113444
251	0xbd8779b6	-0.066150114
252	0x3c922ed8	0.017844602
253	0xbc96e0a5	-0.018417666
254	0x3da31a13	0.07963958
255	0xbcca1caf	-0.02467188

lstm.bias_ih_l0 f4 [256]
0	0xbddb7eb9	-0.1071753
1	0x3b2ce9ac	0.0026384396
2	0xbd8acffe	-0.067779526
3	0xbde6b993	-0.11265864
4	0x3caf38de	0.021389421
5	0xbe39efe6	-0.1815792
6	0xbe22b369	-0.15888752
7	0x3dc0f86f	0.09422385
8	0x3d0d8d52	0.0345586
9	0xbe0cc603	-0.1374741
10	0xbc2908a5	-0.010317002
11	0x3d1fb475	0.038990457
12	0xbd77aa83	-0.060465347
13	0x3d61bb49	0.05511025
14	0x3cfcbc61	0.030851545
15	0xbd38e57e	-0.045140736
16	0xbd6852d4	-0.056719616
17	0x3d162d63	0.036664378
18	0xbe45ac3e	-0.19303986
19	0xbc138a15	-0.009005089
20	0x3d3e4a49	0.046457563
21	0x3c750eed	0.014957172
22	0x3c8a0ccf	0.01685181
23	0x3d52ea7a	0.051493146
24	0xb9ea46dc	-0.00044684752
25	0x3db1c239	0.08679623
26	0xbd700d26	-0.05860629
27	0x3d482d44	0.048871294
28	0x3d070108	0.032959968
29	0xbe41b365	-0.1891609
30	0xbe134e5b	-0.14385359
31	0xbd0a96fe	-0.033835404
32	0x3c908ff6	0.01764677
33	0xbda49187	-0.0803557
34	0x3d433416	0.047657095
35	0xbd38aaeb	-0.045084875
36	0xbc0c9430	-0.0085802525
37	0xbdbdddaf	-0.092707984
38	0xbe0d09c7	-0.13773261
39	0xbe01c45f	-0.12672566
40	0x3d573418	0.052539915
41	0xbc11541a	-0.008870149
42	0x3cda9eb5	0.026687006
43	0x3cd748cb	0.026279828
44	0xbc80ebef	-0.015737502
45	0xbd8cf3b1	-0.06882418
46	0x3d47d77f	0.048789497
47	0xbe007c35	-0.12547381
48	0xbdaf2257	-0.08551472
49	0x3d405333	0.046954345
50	0xbc534298	-0.012894295
51	0xbd9defbf	-0.077117436
52	0xbc736bc1	-0.0148572335
53	0x3d21f244	0.039537683
54	0xbcb58cba	-0.02216183
55	0xbc67d7be	-0.014150558
56	0x3d6e97bb	0.05825017
57	0xbd3e0fc5	-0.046401758
58	0x3d8ae061	0.06781078
59	0xbe03625d	-0.12830491
60	0xbdce492c	-0.1007255
61	0xbe0c34b5	-0.13691981
62	0xbe3c2942	-0.18375114
63	0x3cfef09b	0.031120589
64	0x3d910914	0.0708181
65	0xbe2bb0ee	-0.16766712
66	0xbc0b9cf6	-0.008521309
67	0xbd31e709	-0.043433223
68	0xbe1f23dc	-0.15541023
69	0xbe05c4f0	-0.13063407
70	0xbd30bd00	-0.043148994
71	0x3d8cd472	0.06876458
72	0xbdb4d96c	-0.088305324
73	0xbe228b93	-0.15873556
74	0xbd9ece50	-0.07754195
75	0xbe1306c4	-0.1435805
76	0xbe207517	-0.15669666
77	0xbd426382	-0.04745818
78	0x3d367716	0.044547163
79	0xbdace0f2	-0.084413424
80	0xbe0650b3	-0.13116722
81	0xbde8ed3b	-0.11373373
82	0xbdf3e49f	-0.119088404
83	0xbd13333d	-0.035937537
84	0xbdcc2a01	-0.09968949
85	0xbe3386bd	-0.17531867
86	0x3cd118fb	0.025524607
87	0x3d020c70	0.031750143
88	0x3c35aef5	0.011089076
89	0xbca22ff0	-0.019798249
90	0xbda7c094	-0.08191028
91	0xbd80c366	-0.06287269
92	0xbd99a4e1	-0.07502151
93	0xbe109bbd	-0.1412191
94	0xbcc31043	-0.023811465
95	0x3cd20307	0.02563621
96	0xbdb470a9	-0.08810551
97	0xbd4834c6	-0.048878454
98	0x3df10151	0.11767829
99	0x3d64c9ce	0.05585652
100	0x3d500e39	0.050794814
101	0x3d8bf728	0.06834251
102	0xbdad30b8	-0.08456558
103	0xbd5934e0	-0.05302894
104	0xbda90ff5	-0.08254997
105	0xbd3d100d	-0.046157885
106	0x3d4cc36a	0.04999105
107	0x3c744890	0.014909878
108	0xbc3ab5a4	-0.011395846
109	0x3dcb59ce	0.09929238
110	0xbd9f0fd0	-0.07766688
111	0x3dabd4ee	0.083902225
112	0x3d993d49	0.07482392
113	0xbd65eaf0	-0.056132257
114	0x3d06a9b0	0.03287667
115	0xbd9de38c	-0.07709417
116	0x3cc752ff	0.024331568
117	0xbdbd2f59	-0.092375465
118	0xbe21c3b9	-0.15797319
119	0x3d908055	0.070557274
120	0xbdf482a7	-0.119389825
121	0xbdae662b	-0.08515581
122	0xba5a1f7a	-0.00083207304
123	0xbddac8a7	-0.10682803
124	0x3d824653	0.063610695
125	0xbe24036e	-0.16016933
126	0xbd966ab3	-0.0734457
127	0xbd90e7a6	-0.070754334
128	0x3d316506	0.043309234
129	0x3d920509	0.07129867
130	0xbd6920ae	-0.05691593
131	0x3d01a000	0.03164673
132	0xbd86674d	-0.06562672
133	0xbd581a34	-0.052759364
134	0xbd908816	-0.07057206
135	0x3d019c4a	0.03164319
136	0xbdb9989b	-0.0906231
137	0xbc080540	-0.008302033
138	0x3db4647c	0.088082284
139	0xbdc4cb83	-0.09609129
140	0xbdcab0f8	-0.09897035
141	0xbdc18162	-0.09448506
142	0x3d50aa98	0.05094394
143	0x3bb64283	0.005562128
144	0xbd4635da	-0.0483912
145	0x3d85e2a9	0.065373726
146	0x3db38ec3	0.08767464
147	0x3d5e722e	0.05430811
148	0x3dd26f7c	0.1027517
149	0xbda9e4a7	-0.08295565
150	0x3dd69634	0.10477868
151	0xbc974795	-0.01846675
152	0x3d8b54be	0.06803273
153	0xbd859cc4	-0.06524041
154	0xbc2e78bc	-0.0106489025
155	0xbd0b7af6	-0.03405281
156	0xbdbc78d2	-0.09202732
157	0xbdfd8984	-0.12379745
158	0xbd9c4c55	-0.07631747
159	0xbd825e63	-0.06365659
160	0xbdada0a6	-0.08477907
161	0x3e1202f1	0.14258935
162	0x3cfda0a9	0.030960398
163	0xbdd911c2	-0.1059909
164	0xbd0ad549	-0.03389481
165	0x3de45416	0.111488506
166	0xbb94b28c	-0.004537886
167	0xbd99921e	-0.07498573
168	0x3c9fd33f	0.01950991
169	0xbcaf0868	-0.021366313
170	0xbe00b8f2	-0.12570551
171	0xbd97f0f5	-0.07419006
172	0x3dc6b7ea	0.097030476
173	0x3dca3ff8	0.09875482
174	0x3db91c37	0.09038585
175	0x3dfed8d4	0.124437004
176	0x3dcad342	0.099035755
177	0x3da029bc	0.0782046
178	0x3d006438	0.031345576
179	0x3cadbfbd	0.021209592
180	0x3c4deb6e	0.012568338
181	0x3ce81a6f	0.028332917
182	0x3da202a4	0.0791066
183	0x3d8ff472	0.07029046
184	0xbcc9f46d	-0.024652684
185	0x3d4565cd	0.048192788
186	0x3cb17861	0.021663846
187	0xbd96cc89	-0.07363231
188	0xbd5d773e	-0.054068796
189	0xbd0568fc	-0.032570824
190	0x3d5f18f7	0.054467168
191	0xbd97b301	-0.07407189
192	0xbda4f613	-0.080547474
193	0xbdc11197	-0.09427183
194	0x3d715ba9	0.058925305
195	0xbbff91b6	-0.0077993525
196	0xbe2ce280	-0.16883278
197	0xbd971672	-0.07377328
198	0xbe22a754	-0.15884143
199	0xbdf4f75a	-0.11961241
200	0x3d0bba1b	0.03411303
201	0xbda1ac3b	-0.078941785
202	0xbd219caf	-0.039456066
203	0xbd56df3d	-0.05245899
204	0xbde35ff0	-0.11102283
205	0x3d855627	0.06510573
206	0xbdb95ebd	-0.09051273
207	0xbd952a34	-0.0728344
208	0x3ce40fd3	0.027839577
209	0x3d841dad	0.06450973
210	0x3d48dec0	0.049040556
211	0xbcf2cc32	-0.029638384
212	0xbc8d9a22	-0.01728541
213	0xbdd99392	-0.1062385
214	0xbddfe490	-0.10932267
215	0xbdb1efa8	-0.08688289
216	0xbd697996	-0.05700072
217	0xbde254ba	-0.110513166
218	0xbda670f0	-0.0812701
219	0x3dc4be7b	0.09606644
220	0xbe20f140	-0.1571703
221	0x3c7f4639	0.015580707
222	0x3c10cb67	0.008837557
223	0x3d4a8120	0.04943955
224	0x3d31e5b2	0.043431945
225	0xbcf195ae	-0.029490318
226	0x3de379cb	0.111072145
227	0x3d7ee2c1	0.062227968
228	0xbc6423b1	-0.013924525
229	0x3dbe4dc1	0.09292174
230	0xbc6bddea	-0.01439617
231	0xbe38a4e0	-0.18031645
232	0xbe1219c2	-0.14267638
233	0x3c89237d	0.016740555
234	0xbe3460be	-0.17615029
235	0xbdfa91b9	-0.12234826
236	0xbe10b479	-0.14131345
237	0xbe0a1b1e	-0.13486907
238	0xbe0ef50c	-0.13960665
239	0xbc279c9d	-0.010230211
240	0x3c949607	0.018137945
241	0xbe46ceae	-0.1941478
242	0xbd46fec4	-0.048582807
243	0x3d8879b9	0.06663842
244	0xbd3d14de	-0.04616248
245	0xbdcbd3fa	-0.09952541
246	0xbcd854ee	-0.026407685
247	0xbdff157a	-0.12455268
248	0xbd708dc2	-0.05872894
249	0xbda529a4	-0.08064583
250	0xbca8bb43	-0.020597106
251	0xbdf70a9c	-0.120625705
252	0x3d9937a3	0.07481315
253	0xbe2880b6	-0.1645535
254	0xbe21e9c4	-0.15811831
255	0xbdad2ccc	-0.0845581

lstm.bias_hh_l0 f4 [256]
0	0x3d700cf5	0.058606107
1	0xbdd83f3a	-0.105589345
2	0xbc8a3aab	-0.016873678
3	0xbd6ba696	-0.057531916
4	0xbde369ac	-0.1110414
5	0xbddf954f	-0.1091715
6	0xbe02f97a	-0.1279048
7	0xbd5f6cb0	-0.05454701
8	0xbc01a7f2	-0.007913576
9	0xbbf755ca	-0.0075480687
10	0xbe17a96d	-0.14810725
11	0xbd34336d	-0.043994356
12	0x3d89c401	0.06726838
13	0xbd1332ce	-0.035937123
14	0x3dba98aa	0.091111496
15	0x3d8f9a72	0.0701188
16	0xbd8823b9	-0.066474386
17	0xbdb3edd5	-0.08785597
18	0xbe2275ac	-0.15865201
19	0xbd5b3e7f	-0.053526398
20	0x3c500e80	0.01269877
21	0x3cd85b84	0.026410826
22	0x3d86a43b	0.06574293
23	0x3def17a0	0.11674428
24	0x3b9d9a04	0.00480962
25	0x3d1c89eb	0.038217466
26	0xbe1aa767	-0.15102921
27	0xbda32366	-0.07965736
28	0xbe17997d	-0.14804645
29	0xbd8bd3bb	-0.06827494
30	0xbce2f433	-0.027704334
31	0xbdd2939c	-0.102820605
32	0xbd622103	-0.055207264
33	0x3d51e944	0.05124785
34	0x3dffa432	0.1248249
35	0xbe287fdb	-0.16455023
36	0xbd5fdb91	-0.054652754
37	0xbe16ac8a	-0.14714256
38	0xbd0a00d9	-0.033692215
39	0x3d645ed2	0.05575449
40	0x3a8a562d	0.0010554247
41	0x3d698fd9	0.05702195
42	0xbd0c63e2	-0.034274943
43	0x3c8ef2c7	0.01744975
44	0xbdfe8136	-0.12426989
45	0x3b16104e	0.0022897902
46	0xbd5abd07	-0.053402927
47	0xbe1cd7b5	-0.1531666
48	0xbd84f5c7	-0.06492191
49	0xbdddd5e7	-0.10831814
50	0xbdd458fd	-0.10368536
51	0x3d965401	0.07340241
52	0x3cc97e9c	0.024596505
53	0xbe07d708	-0.13265622
54	0xba76c9ff	-0.0009414255
55	0x3cd2b6ab	0.025721869
56	0xbdcdbc06	-0.10045628
57	0xbd063c65	-0.03277244
58	0xbcf35549	-0.029703753
59	0x3d4e08ba	0.05030129
60	0xbdf7ad58	-0.120936096
61	0xbdeef1c7	-0.11667209
62	0xbd5ad966	-0.053429984
63	0xbc5d48d5	-0.013506134
64	0xbde07268	-0.10959321
65	0xbe17a416	-0.14808688
66	0xbda29333	-0.07938232
67	0xbe1829a9	-0.14859642
68	0xbe1d250f	-0.15346168
69	0xbc9e0417	-0.01928906
70	0xbde93c00	-0.11388397
71	0x3d5b8a9e	0.053598993
72	0xbdb60292	-0.08887209
73	0xbda21def	-0.07915866
74	0x3c99e4f2	0.018785927
75	0xbc4a0067	-0.0123291975
76	0x3d4b914d	0.049699116
77	0x3c7f96f0	0.015599951
78	0x3db21cf3	0.08696928
79	0xbd6eaf8c	-0.058272883
80	0x3c86b8af	0.016445486
81	0x3d857161	0.06515766
82	0x3d4af848	0.049553186
83	0xbca155fa	-0.019694317
84	0xbd293354	-0.041308716
85	0xbd8f99a8	-0.070117295
86	0xbc349a41	-0.011023105
87	0x3c755132	0.014972972
88	0xbdeecb20	-0.11659837
89	0xbe0a48ed	-0.13504381
90	0xbe4b095c	-0.19827789
91	0xbdec42cd	-0.11536179
92	0x3d8f30ea	0.069917515
93	0xbe1b3166	-0.15155563
94	0xbdd78858	-0.105240524
95	0xbde7071e	-0.11280654
96	0xbdd50b39	-0.10402531
97	0xbddecdc2	-0.10879089
98	0xbcbbb3b8	-0.022912845
99	0xbd9c306c	-0.07626423
100	0x3d92ecd4	0.07174078
101	0x3d99bae4	0.0750635
102	0xbd5b3c72	-0.053524442
103	0xbd89ded2	-0.06731953
104	0xbd762635	-0.06009503
105	0xbd44da4d	-0.04805975
106	0xbd756be0	-0.05991733
107	0x3b4f7f7e	0.0031661685
108	0xbd8b6a73	-0.06807413
109	0x3cc55f0d	0.024093175
110	0xbde6c391	-0.1126777
111	0x3d27bf6e	0.040954046
112	0x3d195ff6	0.03744503
113	0xbd9863aa	-0.074408844
114	0xbdd2fcc8	-0.103021204
115	0xbdeb299a	-0.11482544
116	0xbdb6c684	-0.089245826
117	0x3c040e5a	0.008060062
118	0x3d870d78	0.06594366
119	0xbe13d9f9	-0.14438619
120	0x3c5c855e	0.013459532
121	0xbd84ae16	-0.06478517
122	0xbd84694c	-0.06465396
123	0x3c1e1ac6	0.009649938
124	0xbe087b89	-0.13328375
125	0xbcd7b433	-0.026331043
126	0xbe36b94e	-0.17844126
127	0xbda6a478	-0.08136839
128	0x3cd90e2c	0.026496015
129	0xbcd21092	-0.025642667
130	0x3d5154be	0.051106207
131	0x3d8c3a3b	0.06847044
132	0x3d3492ef	0.04408544
133	0x3df56cc0	0.11983633
134	0xbddd306c	-0.10800251
135	0x3d520d26	0.05128207
136	0x3d5a9793	0.05336721
137	0xbc6c28e3	-0.014414045
138	0x3db7cc82	0.08974554
139	0x3d3b18fd	0.045678128
140	0x3ca5915a	0.02021091
141	0x3d7771fb	0.060411435
142	0xbd64a30a	-0.05581955
143	0xbd905e27	-0.07049208
144	0x3d386e54	0.045027092
145	0x3ce44fdf	0.027870117
146	0xbe00f485	-0.12593277
147	0x3d6e9c3e	0.058254473
148	0x3cfcf357	0.030877752
149	0x3dab758b	0.08372029
150	0xbd86ff8c	-0.065917104
151	0x3d9878bd	0.07444904
152	0x3d7d1e05	0.061796207
153	0xbd8c1753	-0.06840386
154	0xbd18885e	-0.037239425
155	0x3de299c2	0.11064483
156	0x3b1c858a	0.0023883306
157	0x3d51d092	0.0512243
158	0x3d7dbcf3	0.061947774
159	0x3d98bb1d	0.07457564
160	0xbdf57f88	-0.11987215
161	0x3d168ca9	0.036755238
162	0xbb87c8ac	-0.004143795
163	0x3dd613c2	0.10452987
164	0x3cfc5330	0.030801386
165	0xbdc9dc44	-0.098564655
166	0xbdc8c1a8	-0.09802562
167	0x3db749b8	0.089496076
168	0x3d47863b	0.048711997
169	0x3d75e9c7	0.0600374
170	0x3d7ad7dd	0.06124102
171	0xbd304a78	-0.04303977
172	0x3db99194	0.0906097
173	0xbd8675a8	-0.0656541
174	0x3e1ce881	0.15323068
175	0xbd87d198	-0.06631774
176	0x3dca1902	0.09868051
177	0x3d8fa810	0.07014477
178	0x3db87a44	0.09007695
179	0x3d074c29	0.033031616
180	0x3da5c660	0.08094478
181	0xbdda8fe5	-0.10671977
182	0x3dd20978	0.10255712
183	0xbc1eca56	-0.009691795
184	0x3c4a5d26	0.01235131
185	0x3da740e5	0.081666745
186	0xbbc512c0	-0.006014198
187	0xbd2a9b62	-0.04165209
188	0x3cff1b5a	0.031140972
189	0x3dc46adb	0.095906936
190	0x3cba32ac	0.02272924
191	0xbd7a1b65	-0.06106128
192	0xbb04d8ad	-0.002027075
193	0xbc35f01c	-0.01110461
194	0x3d63c018	0.055603117
195	0xbd56c680	-0.052435398
196	0xbd7c83b1	-0.06164903
197	0xbe43897d	-0.19095416
198	0xbd851b0e	-0.06499301
199	0x3ca89722	0.020579878
200	0x3b81de53	0.0039632707
201	0xbde8773a	-0.11350866
202	0xbd5507e3	-0.052009474
203	0xbdc5fbdf	-0.09667181
204	0xbdda7d96	-0.10668485
205	0x3d1d014c	0.038331315
206	0xbc48ce7f	-0.012256264
207	0xbe305659	-0.17220439
208	0xbcc11ba7	-0.023572756
209	0x3d24d4ff	0.04024219
210	0xbe11fe4b	-0.14257161
211	0x3c4de20a	0.012566099
212	0xbd9d57bd	-0.076827504
213	0x3d7dbc6e	0.06194728
214	0x3d3cd41e	0.04610073
215	0xbdbde17e	-0.09271525
216	0xbe096f20	-0.13421297
217	0x3d109fc4	0.035308614
218	0xbe1ef99e	-0.15524909
219	0xbcedca97	-0.029027266
220	0xbd3be81f	-0.045875665
221	0xbd8be868	-0.06831437
222	0xbe3e08af	-0.18558
223	0xbd2d914d	-0.042374898
224	0xbc6246c4	-0.013810817
225	0x3d9662a2	0.073430315
226	0x3c165f53	0.0091780005
227	0xbd44a4f1	-0.048008863
228	0x3d3403b9	0.043948863
229	0xbdfe75dd	-0.124248244
230	0x3d3eb904	0.046563163
231	0xbe2cf715	-0.1689113
232	0x3d5c4e4d	0.05378561
233	0xbdd406ab	-0.10352834
234	0xbc8d6ac9	-0.017262833
235	0xbdb4af75	-0.08822528
236	0x3ccfefa5	0.025382826
237	0xbda4f0b1	-0.08053721
238	0x3c92f7b4	0.01794038
239	0xbe224470	-0.1584642
240	0xbd02dd92	-0.031949587
241	0xbe2168ca	-0.1576263
242	0x3cd9de50	0.026595265
243	0xbd8b4b64	-0.06801489
244	0x3da244f4	0.07923308
245	0xbd80a236	-0.06280939
246	0xbda3ba49	-0.079945154
247	0xbc8ef559	-0.017450975
248	0xbe0b20be	-0.13586709
249	0x3d3c37bf	0.0459516
250	0xbe0f0249	-0.13965715
251	0xbcdcf9dc	-0.026974611
252	0x3dde0863	0.108414434
253	0xbe4c4d2e	-0.19951317
254	0xbe41cb3a	-0.18925181
255	0xbdae982a	-0.08525117
