backend/cnn_lstm_checkpoints/cnn_lstm_epoch_8.pth (torch, 788573 bytes, 64 tensors)

cnn.0.weight f4 [16, 1, 3, 3]
0.16772811 0.027326876 -0.14542164 0.059417285 0.2756216 0.0038869448 0.039615605 -0.06261222
0.30042765 0.2642077 -0.25647503 0.087787285 0.20353079 -0.27707556 -0.21725905 0.36718985
0.2502794 0.10266245 0.08447619 -0.30085793 0.012894055 -0.27532676 -0.29013854 -0.4065928
0.07783632 -0.23307228 -0.07493764 -0.10303508 -0.16998704 -0.033212937 -0.12554534 -0.13985085
-0.19401045 -0.13161424 -0.12659834 -0.15790984 0.23971415 0.11009502 0.1840955 0.11326964
0.13896236 0.11938361 -0.24481007 -0.24375534 0.3222748 -0.20922168 0.23477514 0.187261
0.34978646 0.2421956 0.01345843 -0.07448914 -0.04836153 -0.024595542 -0.030363524 0.24870169
0.2549588 -0.12924919 0.37730005 -0.17260484 0.13886724 0.12439309 0.30974543 -0.13796273
0.20638853 -0.057341494 -0.18602374 -0.33867827 0.17572628 0.23070888 0.28566796 -0.34864548
-0.16418137 -0.13296112 -0.13086994 0.060309645 0.05388988 -0.16790818 -0.2761834 0.098887645
0.13005053 0.11687647 -0.037381083 -0.109525986 0.20280595 0.2240511 0.21388254 -0.039000306
0.301533 0.34621838 -0.27331764 -0.31937808 -0.053637903 -0.19184203 0.02153625 -0.14066947
0.17062047 0.003122631 0.13768795 -0.14272374 0.24232997 0.37113658 0.29440665 0.09566196
-0.17414139 0.07752219 -0.03344244 0.017340062 -0.0800703 0.0042345403 0.12606949 -0.20272715
-0.25821707 -0.3761946 -0.29344207 -0.23097485 -0.07747548 0.07910664 0.04497357 0.11300157
0.29760674 -0.07776963 0.32386658 0.009049669 0.06419859 0.15436904 0.3586047 -0.18413444
0.34820506 -0.1365457 0.2718887 0.23753485 0.123173565 -0.16248657 -0.042925287 -0.033080406
0.13188902 -0.3770153 -0.17120571 -0.36280453 -0.1767836 0.0974553 -0.06928818 0.117439955
00000000: ebc0 2b3e 9ddc df3c 69e9 14be 8a5f 733d
00000010: 461e 8d3e 1dbc 7e3b f943 223d d63a 80bd
00000020: a7d1 993e 3b46 873e b250 83be d2c9 b33d
00000030: 606a 503e d9dc 8dbe 2879 5ebe 4f00 bc3e
00000040: 9f24 803e b140 d23d da01 ad3d 0d0a 9abe
00000050: 9641 533c a1f7 8cbe 0a8d 94be ee2c d0be
00000060: a668 9f3d 80aa 6ebe e878 99bd 0e04 d3bd
00000070: 1511 2ebe 4a0a 08bd f58e 00be 1035 0fbe
00000080: adaa 46be e2c5 06be ffa2 01be 1eb3 21be
00000090: a077 753e 7f79 e13d 8883 3c3e eaf9 e73d
000000a0: 264c 0e3e 657f f43d 7eaf 7abe 009b 79be
000000b0: 3401 a53e 353e 56be e568 703e 59c1 3f3e
000000c0: 3617 b33e 2002 783e bf80 5c3c c38d 98bd
000000d0: bd16 46bd 977c c9bc edbc f8bc a8ab 7e3e
000000e0: f689 823e e659 04be 792d c13e 53bf 30be
000000f0: 3733 0e3e cec1 fe3d f496 9e3e 1a46 0dbe
00000100: 8457 533e eade 6abd 027d 3ebe 3d67 adbe
00000110: 97f1 333e f33e 6c3e 1243 923e a981 b2be
00000120: 291f 28be f626 08be c502 06be 3f07 773d
00000130: a3bb 5c3d 1ff0 2bbe e967 8dbe 9b85 ca3d
00000140: f72b 053e ee5c ef3d e81c 19bd 294f e0bd
00000150: 5dac 4f3e a76d 653e 0604 5b3e c9be 1fbd
00000160: 8962 9a3e 8943 b13e 4af0 8bbe 8685 a3be
00000170: 6bb3 5bbd 3d72 44be ca6c b03c a80b 10be
00000180: 22b7 2e3e 0ea5 4c3b 12fe 0c3e 2c26 12be
00000190: 5925 783e 9d05 be3e 78bc 963e 6bea c33d
000001a0: 1f52 32be f4c3 9e3d f1fa 08bd bf0c 8e3c
000001b0: e6fb a3bd e6c1 8a3b 5c18 013e b597 4fbe
000001c0: 0735 84be 949c c0be 0a3e 96be ac84 6cbe
000001d0: 77ab 9ebd a902 a23d 3536 383d 5e6d e73d
000001e0: e95f 983e af45 9fbd d7d1 a53e 1045 143c
000001f0: 8d7a 833d eb12 1e3e 099b b73e bd8d 3cbe
00000200: ef47 b23e a3d2 0bbe ff34 8b3e 563c 733e
00000210: 6c42 fc3d e162 26be 6dd2 2fbd 527f 07bd
00000220: ea0d 073e 2608 c1be 8d50 2fbe 84c1 b9be
00000230: c306 35be a596 c73d f6e6 8dbd 5c84 f03d

cnn.0.bias f4 [16]
-0.053482186 -0.010343846 0.0050555086 0.08111217 -0.106251694 -0.16673125 -0.12359488 -0.31796232
-0.017548854 0.11374487 0.34410092 -0.25681752 0.06821903 -0.2618088 0.31152683 -0.10362962
00000000: 2310 5bbd 3c79 29bc aea8 a53b 231e a63d
00000010: 7d9a d9bd 99bb 2abe 501f fdbd f5cb a2be
00000020: 9dc2 8fbc 12f3 e83d ff2d b03e 967d 83be
00000030: 6bb6 8b3d ce0b 86be 7280 9f3e c43b d4bd

cnn.1.weight f4 [16]
1.0522935 1.0597893 0.9649757 1.040138 0.9353537 0.93373775 0.94380444 0.9188924
1.0870734 0.9267573 1.014049 0.90953755 1.0355841 1.0267898 0.95584136 1.1137291
00000000: 8eb1 863f 2da7 873f a608 773f 3e23 853f
00000010: 5773 6f3f 7009 6f3f 2b9d 713f 883c 6b3f
00000020: 3925 8b3f f73f 6d3f 5ccc 813f 74d7 683f
00000030: 058e 843f d96d 833f 05b2 743f ad8e 8e3f

cnn.1.bias f4 [16]
0.050599772 -0.0077735847 -0.13015498 -0.09663455 -0.0832165 -0.046719477 -0.09456237 -0.070978016
0.00933038 -0.06381415 -0.024055202 -0.108280815 -0.09732169 0.005730965 -0.09446363 -0.008937923
00000000: b541 4f3d 8eb9 febb 5947 05be 56e8 c5bd
00000010: 6a6d aabd ec5c 3fbd eaa9 c1bd ec5c 91bd
00000020: 73de 183c feb0 82bd 6a0f c5bc 55c2 ddbd
00000030: 9850 c7bd d2ca bb3b 2676 c1bd 5e70 12bc

cnn.1.running_mean f4 [16]
-0.055261042 -0.012292607 0.004441756 0.080440216 -0.1043704 -0.16479786 -0.12608263 -0.31998026
-0.018039081 0.114172496 0.34226575 -0.25763583 0.07009728 -0.26088172 0.31383145 -0.104904495
00000000: 6759 62bd ee66 49bc 268c 913b d7bd a43d
00000010: 26c0 d5bd c5c0 28be ce1b 01be 74d4 a3be
00000020: b2c6 93bc 45d3 e93d 753d af3e d8e8 83be
00000030: 2a8f 8f3d 4a92 85be 84ae a03e 2bd8 d6bd

cnn.1.running_var f4 [16]
0.39905816 0.29549253 1.8158997 1.2248182 0.5347686 0.43950072 1.1176903 0.05288149
0.25148857 1.3721901 0.4555644 0.5026859 1.7502896 0.90124434 0.58735555 0.68885297
00000000: 5a51 cc3e cc4a 973e 676f e83f d8c6 9c3f
00000010: 98e6 083f 3d06 e13e 7a10 8f3f 439a 583d
00000020: 1cc3 803e eda3 af3f bd3f e93e 06b0 003f
00000030: 7d09 e03f f3b7 663f ef5c 163f ab58 303f

cnn.5.weight f4 [32, 16, 3, 3]
0.079000145 0.07122385 0.07795575 -0.039554086 -0.008743777 0.03885355 0.09944203 0.0005652899
0.016475426 -0.10194005 0.048360668 0.03206781 0.07453551 -0.019675318 -0.07231984 0.084757425
0.056853816 0.022723688 0.011666526 -0.03548028 0.05266059 0.077617146 0.026098246 0.05533933
0.038936526 0.08111109 0.10005303 0.031422816 -0.058854304 -0.052768707 -0.032685112 0.033078916
0.085013375 0.006233579 -0.084340304 -0.03102857 -0.013407043 -0.057725865 0.013465653 -0.010966607
0.010478381 -0.0045042834 -0.03362326 0.014504211 0.00146484 -0.0055520427 -0.0060576866 0.0017763226
0.0111578265 -0.09298499 -0.023427473 0.017600346 0.03130013 0.03704921 -0.033147097 -0.012988653
-0.0827018 -0.06732394 0.050521117 -0.030004306 0.0788405 0.06666842 -0.085551 0.02703185
0.06656557 0.026909957 -0.005105615 0.034382034 0.036829717 0.029746052 0.07699772 0.062756315
0.091448806 0.07658887 0.09780108 0.10024158 0.068860814 0.1276573 0.052676383 0.027941056
0.08547067 -0.06632453 -0.002821451 -0.050122656 -0.05203153 0.022523394 0.0948479 0.08602265
-0.034824193 -0.02984443 -0.03817869 0.018492138 -0.026640508 0.10853256 0.07521903 0.088652
0.010078174 0.11710919 0.021754295 -0.03695512 -0.048541173 -0.05964916 0.020836875 -0.0054754196
-0.085707515 -0.016812306 -0.060429234 0.046026487 0.047611807 0.15329263 0.06640058 0.13372086
0.10541089 0.029325191 0.012392289 0.064134225 0.08761686 -0.078322314 -0.062298298 0.03232244
-0.067015626 -0.006507724 -0.01604719 -0.07037211 0.0041989936 0.017794598 -0.116656154 -0.19116767
-0.18841985 -0.14088926 -0.080454886 -0.071846835 -0.087411664 -0.094691016 -0.06089069 0.13553402
0.03963781 0.14939177 0.08075602 0.06582558 0.057970364 0.047366157 0.118390016 0.029660687
-0.017142825 -0.009532222 -0.021062845 -0.046062216 -0.08401634 -0.089496434 -0.029355565 -0.012548575
-0.06235219 -0.11170679 0.050237533 -0.045572262 -0.1120907 0.010752172 0.055552837 -0.11849607
-0.121177256 -0.046592653 -0.05524496 -0.041462854 -0.13036607 -0.09505461 -0.10164893 -0.08132016
-0.1378313 -0.0671189 -0.04089547 -0.0036465158 -0.106821805 -0.06276848 -0.007054776 -0.10109423
-0.08890019 -0.025732702 -0.06836213 -0.023438634 -0.007977456 0.06841839 -0.028922549 -0.07311902
0.018193292 -0.12833887 -0.04997221 -0.111937776 -0.026918726 -0.056459457 -0.06335575 -0.029483974
-0.029344816 -0.11530362 -0.043575674 0.0062982515 -0.020082917 0.006948058 0.015994698 0.0059515066
0.023971966 0.009905325 -0.022179412 0.02293142 -0.01599858 -0.024158914 0.013806863 -0.005870166
-0.07860975 0.0034615437 -0.07563348 -0.02776973 -0.1527064 -0.073977806 -0.040862657 -0.085398816
-0.021053275 -0.09691205 -0.08823444 0.00938075 -0.14305595 -0.1102593 -0.113451846 -0.09659734
-0.08805561 -0.040491816 -0.0015603559 0.02343826 -0.10205787 0.015480842 -0.109486826 -0.14527878
-0.0046923915 -0.053096052 -0.052114785 0.003305442 0.045740116 -0.0059472104 -0.008662067 0.06743938
0.032460857 -0.06138008 -0.026960455 -0.05238709 -0.008152603 -0.08380995 -0.009761623 -0.026048344
-0.0045549674 -0.00051446026 -0.12654729 -0.057850666 -0.116712 -0.076059565 -0.15226409 -0.09127868
00000000: d4ca a13d cfdd 913d 44a7 9f3d 7703 22bd
00000010: 0f42 0fbc e624 1f3d 43a8 cb3d f72f 143a
00000020: 79f7 863c f2c5 d0bd d615 463d 8959 033d
00000030: 13a6 983d 222e a1bc 6d1c 94bd 4d95 ad3d
00000040: 8cdf 683d 0727 ba3c f524 3f3c c553 11bd
00000050: a1b2 573d bdf5 9e3d fdcb d53c 7eab 623d
00000060: e87b 1f3d 921d a63d 9ae8 cc3d 36b5 003d
00000070: 3611 71bd 0024 58bd d3e0 05bd c27d 073d
00000080: 7e1b ae3d 0d43 cc3b 9cba acbd a12f febc
00000090: 37a9 5bbc f571 6cbd 0b9f 5c3c 49ad 33bc
000000a0: 84ad 2b3c ab98 93bb 8bb8 09bd 12a3 6d3c
000000b0: e0ff bf3a e9ed b5bb 8f7f c6bb 7fd3 e83a
000000c0: 51cf 363c ea6e bebd f9ea bfbc 9a2e 903c
000000d0: 9134 003d eac0 173d 40c5 07bd 5cce 54bc
000000e0: 905f a9bd 22e1 89bd 3bef 4e3d 97cb f5bc
000000f0: 2177 a13d 7489 883d 5d35 afbd e671 dd3c
00000100: 8853 883d 4572 dc3c 014d a7bb 2dd4 0c3d
00000110: c2da 163d fead f33c fbb0 9d3d 6286 803d
00000120: 8349 bb3d a0da 9c3d ef4b c83d 754b cd3d
00000130: e606 8d3d 98b8 023e 31c3 573d a4e4 e43c
00000140: 3f0b af3d 28d5 87bd 18e8 38bb 6a4d 4dbd
00000150: 031f 55bd fb82 b83c 9e3f c23d a52c b03d
00000160: d0a3 0ebd 4e7c f4bc 4261 1cbd d37c 973c
00000170: 323d dabc 5246 de3d 6f0c 9a3d 2e8f b53d
00000180: ed1e 253c f1d6 ef3d 1036 b23c 405e 17bd
00000190: 1cd3 46bd ad52 74bd 18b2 aa3c 266b b3bb
000001a0: 6c87 afbd f6b9 89bc a584 77bd 4586 3c3d
000001b0: 9904 433d bef8 1c3e 07fd 873d 1fee 083e
000001c0: aae1 d73d 623b f03c 0709 4b3c ce58 833d
000001d0: 7870 b33d 7367 a0bd 802c 7fbd 8964 043d
000001e0: 7d3f 89bd bf3e d5bb 6675 83bc 411f 90bd
000001f0: b697 893b fac5 913c 6ce9 eebd 75c1 43be
00000200: 22f1 40be 4645 10be 88c5 a4bd 6f24 93bd
00000210: e304 b3bd 5ded c1bd 8468 79bd 6ec9 0a3e
00000220: 425b 223d 28fa 183e 6a63 a53d 90cf 863d
00000230: 5572 6d3d 0403 423d 7776 f23d f8fa f23c
00000240: 1c6f 8cbc 092d 1cbc fd8b acbc bcab 3cbd
00000250: c210 acbd e849 b7bd 157b f0bc 8a98 4dbc
00000260: 0365 7fbd 88c6 e4bd dfc5 4d3d fba9 3abd
00000270: cf8f e5bd e129 303c 5f8b 633d 11ae f2bd
00000280: c82b f8bd f0d7 3ebd 8a48 62bd f4d4 29bd
00000290: af7e 05be feab c2bd 502d d0bd 2f8b a6bd
000002a0: a623 0dbe a275 89bd 0282 27bd 62fa 6ebb
000002b0: 64c5 dabd c38c 80bd c02b e7bb 7e0a cfbd
000002c0: 4e11 b6bd 63cd d2bc 7201 8cbd 6102 c0bc
000002d0: e0b3 02bc f11e 8c3d fbee ecbc 6dbf 95bd
000002e0: 190a 953c 446b 03be a9af 4cbd a23f e5bd
000002f0: a984 dcbc 0842 67bd a9c0 81bd 6088 f1bc
00000300: 8a64 f0bc 4e24 ecbd 687c 32bd 9061 ce3b
00000310: ee84 a4bc 89ac e33b 5007 833c db04 c33b
00000320: db60 c43c f249 223c 99b1 b5bc acda bb3c
00000330: 740f 83bc eae8 c5bc 2e36 623c 855a c0bb
00000340: 26fe a0bd 11db 623b bae5 9abd 587d e3bc
00000350: 115f 1cbe ad81 97bd 9a5f 27bd 93e5 aebd
00000360: eb77 acbc d379 c6bd 42b4 b4bd b8b1 193c
00000370: 427d 12be a1cf e1bd 7159 e8bd d4d4 c5bd
00000380: 8056 b4bd bfda 25bd db84 ccba 9801 c03c
00000390: b703 d1bd 5ca3 7d3c a13a e0bd f6c3 14be
000003a0: a2c2 99bb 3f7b 59bd 5076 55bd 1da0 583b
000003b0: fd59 3b3d d1e0 c2bb 58eb 0dbc a81d 8a3d
000003c0: adf5 043d ae69 7bbd 2cdc dcbc d893 56bd
000003d0: 7f92 05bc 8da4 abbd 37ef 1fbc 5663 d5bc
000003e0: d641 95bb d8dc 06ba 9d95 01be d2f4 6cbd
000003f0: b306 efbd 1ec5 9bbd 1eeb 1bbe 51f0 babd

cnn.5.bias f4 [32]
-0.029355554 -0.07082232 0.055928096 0.092680216 -0.054558065 0.10945436 -0.080284536 0.015851855
-0.04843513 -0.05823233 0.0672877 0.08315339 0.028130047 -0.12512021 -0.062350318 -0.051722854
-0.077673286 -0.030988563 -0.1367595 0.059556328 -0.03858264 -0.008351382 0.08229704 -0.05973354
0.15645379 0.054645423 0.04998076 -0.047043875 -0.006508736 -0.02960498 -0.047177564 0.07163237
00000000: 0f7b f0bc 4b0b 91bd dc14 653d 20cf bd3d
00000010: 4778 5fbd 9c29 e03d 386c a4bd c0db 813c
00000020: ea63 46bd 0685 6ebd 22ce 893d 534c aa3d
00000030: fc70 e63c 831f 00be 0c63 7fbd 58db 53bd
00000040: 2c13 9fbd badb fdbc af0a 0cbe 56f1 733d
00000050: d508 1ebd 3cd4 08bc 5a8b a83d 28ab 74bd
00000060: 6c35 203e e1d3 5f3d a0b8 4c3d 14b1 40bd
00000070: 3c47 d5bb 2586 f2bc 433d 41bd feb3 923d

cnn.6.weight f4 [32]
0.91506714 1.049721 0.9908131 1.019262 1.0550356 0.95697945 1.0663123 0.9773821
0.9519161 0.9916782 0.99291486 1.0111092 0.93763256 1.0468366 1.0019207 0.92604613
0.9046593 0.9679088 1.0106609 1.002616 0.9990152 1.0410817 0.9581613 0.944674
0.9661245 1.010478 1.056647 0.98380965 1.0488654 0.9649541 0.97611344 1.0368786
00000000: d741 6a3f 425d 863f eda5 7d3f 2d77 823f
00000010: 680b 873f 9bfc 743f ec7c 883f b735 7a3f
00000020: c6b0 733f 9fde 7d3f ab2f 7e3f 076c 813f
00000030: b008 703f befe 853f f03e 803f 5c11 6d3f
00000040: c097 673f dfc8 773f 565d 813f b955 803f
00000050: 76bf 7f3f 2a42 853f 0f4a 753f 28d6 713f
00000060: ef53 773f 5857 813f 3540 873f f3da 7b3f
00000070: 3941 863f 3b07 773f 92e2 793f 70b8 843f

cnn.6.bias f4 [32]
-0.05266587 0.06820609 0.008441193 0.012740717 0.049449284 -0.057924747 0.031499278 0.001322075
-0.06658362 -0.023586068 0.022661574 0.008493582 -0.080617055 0.072532214 0.0014910762 -0.020788247
-0.07472109 -0.0039067254 -0.030012663 0.017765017 -0.042525753 0.08989574 -0.055945747 -0.0019816286
-0.024699615 -0.021758068 0.04576908 0.02113702 -0.005988082 -0.016670577 -0.052569445 0.02004228
00000000: 2bb8 57bd a2af 8b3d ee4c 0a3c 71be 503c
00000010: 558b 4a3d 8042 6dbd 6305 013d 7a49 ad3a
00000020: fe5c 88bd 9237 c1bc c4a4 b93c aa28 0b3c
00000030: 8e1a a5bd c58b 943d 3770 c33a 1d4c aabc
00000040: 5f07 99bd fd03 80bb 1edd f5bc f187 913c
00000050: 7c2f 2ebd 421b b83d 5e27 65bd 36de 01bb
00000060: d956 cabc fa3d b2bc 5c78 3b3d 8b27 ad3c
00000070: ac37 c4bb bc90 88bc 0f53 57bd b52f a43c

cnn.6.running_mean f4 [32]
0.9480401 -2.867597 1.4114317 -1.3759527 -1.6913295 0.64275175 -2.4092383 -1.5268261
-0.58111143 2.6827834 -2.9953482 0.095141605 0.17685023 -2.9982016 -2.2783103 -1.9077772
-2.4606829 -0.9812353 0.31764233 -2.4910576 -0.13491938 -0.39240602 -0.105944596 0.6593162
0.0629572 -0.37335426 -2.4248455 0.114835605 0.1272972 0.17245883 0.086874306 -0.6683879
00000000: c2b2 723f b686 37c0 cba9 b43f 381f b0bf
00000010: 7c7d d8bf 618b 243f f630 1ac0 0a6f c3bf
00000020: b8c3 14bf b9b2 2b40 c9b3 3fc0 9ad9 c23d
00000030: 3a18 353e 89e2 3fc0 d6cf 11c0 0b32 f4bf
00000040: d47b 1dc0 3d32 7bbf 04a2 a23e 7d6d 1fc0
00000050: 4e28 0abe 71e9 c8be 7bf9 d8bd f2c8 283f
00000060: b4ef 803d 4a28 bfbe ab30 1bc0 ee2e eb3d
00000070: 325a 023e 0c99 303e 28eb b13d 781b 2bbf

cnn.6.running_var f4 [32]
3.9751856 1.957431 2.2657864 2.3683732 2.7712355 4.5094423 2.8728392 1.9538662
7.825761 2.3495517 4.686863 3.8571308 4.7388644 2.8104067 2.3370652 1.1153779
2.0202723 2.2946362 3.5665421 2.146648 7.0971394 1.4821717 5.991909 2.141031
5.909377 6.2152023 1.6503606 2.7735472 6.235657 1.5451505 4.872852 4.395611
00000000: 7169 7e40 198d fa3f a502 1140 6d93 1740
00000010: ec5b 3140 5a4d 9040 99dc 3740 4a18 fa3f
00000020: a26c fa40 0e5f 1640 c8fa 9540 3bdb 7640
00000030: c7a4 9740 b4dd 3340 7a92 1540 b4c4 8e3f
00000040: 244c 0140 52db 1240 3a42 6440 ae62 0940
00000050: c41b e340 cdb7 bd3f b8bd bf40 a706 0940
00000060: 9e19 bd40 f0e2 c640 043f d33f cc81 3140
00000070: 818a c740 7ec7 c53f 67ee 9b40 d8a8 8c40

lstm.weight_ih_l0 f4 [256, 32]
0.0015642059 -0.08352983 -0.049604114 0.17005838 -0.06322909 -0.18388383 -0.13476561 0.091750115
-0.10575964 -0.26297417 -0.21987046 0.01618568 -0.092603296 -0.112127975 0.053959202 -0.044441294
-0.024575785 0.089400455 -0.18092941 0.012897845 -0.29066133 -0.043485988 -0.19960877 0.035639174
-0.1568462 -0.119493484 -0.15913053 -0.008589155 -0.22565007 -0.0722796 -0.018846653 -0.0717184
-0.012608086 -0.16463365 0.048117336 -0.0158003 -0.034982912 -0.107417196 0.04667248 -0.11253881
-0.17535074 -0.07767551 0.0672943 0.085632525 0.065313324 0.01836539 -0.114527725 -0.0421776
0.030326517 -0.076638415 -0.03148799 0.011137043 0.0036497843 -0.049783904 -0.095784664 -0.12929374
-0.09441573 -0.0010497478 -0.14439549 0.016429177 -0.0156481 -0.11951611 -0.04893937 -0.025119942
-0.17994772 -0.10844596 -0.000795562 -0.037474148 -0.035427205 -0.1570505 -0.045835156 -0.026673565
0.031227272 -0.14163566 -0.13974549 -0.11974085 0.012982572 0.070172645 0.075347535 -0.08983612
-0.10131785 -0.029002348 0.0038081296 -0.04865091 -0.08931739 0.01592273 -0.02792895 0.026892325
-0.19963528 0.054434076 -0.19204348 -0.058141153 -0.06969953 0.067478105 0.045062263 -0.06850062
-0.07423647 -0.016452167 -0.0977387 0.06678023 -0.15311421 -0.116592236 -0.1640976 0.058695443
-0.03163708 0.052082486 -0.052384734 0.10532769 -0.014291232 0.090548344 -0.023988012 0.042256627
0.004038268 -0.12573226 -0.09296912 0.046283644 0.002121066 -0.0017913857 0.010343647 -0.09965925
0.01973805 -0.0581614 -0.0556825 -0.108949915 -0.011584627 -0.08470482 -0.14326057 -0.105419815
-0.02745248 -0.034432113 -0.11085211 -0.16234754 0.03169034 -0.07867766 0.07065667 0.0323837
-0.058900267 0.03793284 0.019538444 -0.16709292 -0.020084435 0.036089957 -0.051826846 -0.0943311
-0.08581726 0.052529827 -0.006251036 -0.049648706 -0.108570665 -0.030383132 -0.06243722 -0.15078974
-0.021988528 0.021593582 -0.028200729 0.0038819122 -0.15049471 -0.0006901692 0.05419468 0.037523955
-0.07561743 -0.19977479 0.054047152 -0.07477791 -0.09570469 0.04995683 -0.13257629 -0.028080292
-0.19961147 -0.08470808 -0.024773132 -0.07488707 -0.16860352 -0.0073377728 -0.1744054 0.04327926
-0.11469503 -0.07627517 -0.106434286 0.034052584 -0.12136614 -0.034302287 0.02820031 0.013326572
-0.06584794 -0.15824221 -0.049341526 0.015871366 -0.1002058 -0.06700722 -0.061343238 -0.18232389
-0.1419055 -0.037104577 -0.17227563 -0.08317558 -0.17229436 -0.062331855 -0.06839803 -0.0011088031
-0.0954851 -0.0084091425 0.06271072 0.043517333 0.049150664 -0.17644204 -0.096175544 -0.04486084
-0.14265364 -0.0051617436 -0.12495223 -0.015304358 0.015763156 -0.04302814 -0.12915543 -0.058652826
-0.05823727 -0.025760138 -0.06884643 -0.06185074 -0.018902183 -0.2020947 -0.12128545 0.082889
0.09359163 -0.052050058 0.043514926 -0.1621659 -0.05594155 0.05064017 -0.14050135 -0.08711446
-0.1286546 -0.038160894 0.08497997 0.10381098 0.15302838 0.002898027 -0.1691928 0.10097839
0.041081127 -0.09402017 0.021286456 0.036592193 -0.022490924 0.010233683 0.13787937 0.09589474
0.08058387 0.15518704 -0.08035635 0.074782915 0.17282799 -0.05244203 0.11655343 0.08037299
00000000: 0a06 cd3a b011 abbd af2d 4bbd c923 2e3e
00000010: 417e 81bd 0b4c 3cbe ffff 09be 7ce7 bb3d
00000020: 8398 d8bd 8da4 86be b925 61be d597 843c
00000030: cca6 bdbd 5aa3 e5bd 5304 5d3d 1308 36bd
00000040: 2853 c9bc 9617 b73d 8f45 39be 7c51 533c
00000050: 90d1 94be 5d1e 32bd 3e66 4cbe 62fa 113d
00000060: 4a9c 20be 00b9 f4bd 1df3 22be 87b9 0cbc
00000070: d010 67be 5407 94bd 4c64 9abc 19e1 92bd
00000080: 2592 4ebc b995 28be af16 453d a16f 81bc
00000090: 3e4a 0fbd 8cfd dbbd a42b 3f3d bf7a e6bd
000000a0: 258f 33be 5614 9fbd 98d1 893d 1b60 af3d
000000b0: fec2 853d 0473 963c 838d eabd 6bc2 2cbd
000000c0: 516f f83c 9af4 9cbd 8df9 00bd 2578 363c
000000d0: 3831 6f3b 35ea 4bbd c02a c4bd 9465 04be
000000e0: 095d c1bd b197 89ba 69dc 13be 7b96 863c
000000f0: 7230 80bc ddc4 f4bd a674 48bd 56c8 cdbc
00000100: 3744 38be ea18 debd 438d 50ba 7e7e 19bd
00000110: 1e1c 11bd d9d1 20be a5bd 3bbd 8582 dabc
00000120: 56d0 ff3c f008 11be 7119 0fbe b13a f5bd
00000130: dbb4 543c adb6 8f3d cf4f 9a3d 00fc b7bd
00000140: bc7f cfbd 5596 edbc d091 793b 2d46 47bd
00000150: 09ec b6bd 6370 823c 41cb e4bc 4b4d dc3c
00000160: 316d 4cbe 44f6 5e3d 0ca7 44be 6b25 6ebd
00000170: a1be 8ebd f631 8a3d 3593 383d 0e4a 8cbd
00000180: 4a09 98bd b2c6 86bc 3a2b c8bd 13c4 883d
00000190: f9c9 1cbe e9c7 eebd 3409 28be a26a 703d
000001a0: e295 01bd 7254 553d 6091 56bd 0bb6 d73d
000001b0: c625 6abc 6971 b93d 8282 c4bc 4915 2d3d
000001c0: 7253 843b f5bf 00be 9866 bebd eb93 3d3d
000001d0: 9501 0b3b eecc eaba 6678 293c 261a ccbd
000001e0: b1b1 a13c a63a 6ebd 5513 64bd 2221 dfbd
000001f0: 73cd 3dbc b879 adbd e6b2 12be 58e6 d7bd
00000200: 06e4 e0bc b008 0dbd 6e06 e3bd 6f3e 26be
00000210: bbcd 013d c121 a1bd 72b4 903d c5a4 043d
00000220: 6841 71bd 775f 1b3d 160f a03c 681a 2bbe
00000230: 1d88 a4bc 10d3 133d 6348 54bd aa30 c1bd
00000240: f6c0 afbd 8429 573d 7ed5 ccbb 715c 4bbd
00000250: 4c5a debd 0ce6 f8bc 2cbe 7fbd a068 1abe
00000260: 4921 b4bc 06e5 b03c 3705 e7bc ae67 7e3b
00000270: 491b 1abe 79ec 34ba 3efb 5d3d b8b2 193d
00000280: 50dd 9abd c391 4cbe 8c60 5d3d 2925 99bd
00000290: d200 c4bd 889f 4c3d 14c2 07be a408 e6bc
000002a0: f366 4cbe 6e7b adbd 06f1 cabc 645e 99bd
000002b0: 67a6 2cbe b371 f0bb 5497 32be 9845 313d
000002c0: 3ae5 eabd 2836 9cbd 38fa d9bd b97a 0b3d
000002d0: d08e f8bd 8e80 0cbd 5604 e73c b257 5a3c
000002e0: 49db 86bd 3f0a 22be 571a 4abd ab04 823c
000002f0: b338 cdbd 153b 89bd 0c43 7bbd 1db3 3abe
00000300: ad4f 11be f8fa 17bd 0669 30be f557 aabd
00000310: ef6d 30be b04f 7fbd 4414 8cbd 4255 91ba
00000320: b18d c3bd 80c6 09bc 7a6e 803d 3b3f 323d
00000330: 3552 493d 39ad 34be aff7 c4bd 00c0 37bd
00000340: cc13 12be d823 a9bb f4e6 ffbd 21bf 7abc
00000350: bc21 813c 463e 30bd 5241 04be f23d 70bd
00000360: 348a 6ebd ed06 d3bc 5bff 8cbd 3457 7dbd
00000370: c0d8 9abc eaf1 4ebe 8264 f8bd b5c1 a93d
00000380: f8ac bf3d 7132 55bd b53c 323d d10e 26be
00000390: f722 65bd 116c 4f3d 96df 0fbe 1169 b2bd
000003a0: 08be 03be 994e 1cbd fa09 ae3d da9a d43d
000003b0: 79b3 1c3e d3ec 3d3b e140 2dbe c2cd ce3d
000003c0: af44 283d a68d c0bd ef60 ae3c b2e1 153d
000003d0: e33e b8bc 2dab 273c 4030 0d3e 7664 c43d
000003e0: 2809 a53d 5ae9 1e3e df91 a4bd c927 993d
000003f0: d2f9 303e 74cd 56bd 91b3 ee3d 989a a43d

lstm.weight_hh_l0 f4 [256, 64]
-0.12033202 0.0056391675 0.11458828 -0.11584879 -0.04244715 0.02861836 -0.033020098 0.14390333
-0.0072875433 -0.11516636 -0.021836327 0.008650324 0.12942813 -0.051926773 -0.06731521 0.1314425
-0.07750704 0.043398906 -0.06557507 0.039876107 -0.0672719 0.09124246 0.040113293 0.022103153
-0.023995172 -0.013555506 -0.028844602 -0.06528943 -0.016583424 -0.014634959 -0.07185498 0.10082711
-0.1748923 0.012308815 -0.044763893 0.089653894 0.13191195 0.119504854 0.06413379 0.16655198
0.028042661 0.061469164 -0.023763398 0.004205586 0.123932734 0.097015515 0.15097976 0.12092677
0.03266478 0.08871766 0.03497904 -0.11096123 0.031690404 -0.025170367 0.002265463 -0.04842907
-0.022052566 -0.107743025 0.11155194 0.012657634 -0.000948072 -0.117983446 -0.025598383 -0.09089312
0.027033523 -0.02073207 0.08822364 -0.066266194 0.11491452 -0.08845858 -0.08241098 0.12096059
-0.014097986 0.06554993 0.12201357 0.00039075795 0.035309944 0.034038078 -0.06613517 0.064853735
0.00063326274 0.013779443 0.119249806 0.012045649 -0.118315235 -0.093773425 0.10543121 0.080522485
-0.048666563 0.071194075 -0.12724605 -0.026692692 0.098380364 0.059959203 0.09270585 -0.1364264
-0.04146854 0.15123014 -0.07485745 0.010853759 0.05962496 -0.0747563 0.103458114 -0.08376564
0.107700676 0.16534902 0.013391281 0.0135844 -0.1382741 -0.040807027 0.07000065 0.0868801
-0.07839586 -0.008185705 -0.086066805 -0.09510387 0.10383528 0.08107884 -0.09202592 0.019633878
-0.03308282 0.011464953 0.115398355 0.0103846155 0.00026864503 0.11898081 -0.11925817 0.02742398
-0.038998835 0.021602228 -0.057686456 -0.07856355 -0.027724775 0.061532706 0.08778645 0.098437354
0.05503164 0.07832452 -0.056944467 0.03495138 0.12827794 -0.02281769 -0.21753442 -0.1090698
0.060341563 -0.056396585 -0.09084402 -0.1626008 -0.09024246 0.07432235 -0.038604368 -0.010391584
-0.10744526 0.13898094 0.009452383 -0.0016358924 -0.015921423 0.08023375 0.025938958 0.011584545
-0.06935478 0.0455801 -0.14705428 0.03129274 -0.07782268 0.06495916 -0.0078117703 -0.16754109
0.13237236 0.13794427 0.06976266 -0.028014317 0.070979804 0.03661139 -0.12623131 -0.017521985
0.004086947 0.11315094 -0.08959581 -0.047500465 -0.075219 0.06454977 -0.03819901 -0.0062585375
-0.050009646 -0.20740226 0.0781732 0.095443256 0.13876595 -0.0022474504 -0.11604794 0.103870824
0.0071162507 0.028371142 0.009131463 0.05198355 0.14285535 0.076329075 -0.005236598 0.042276338
-0.09332809 -0.0863559 -0.055717833 0.12061445 0.08083812 0.12331872 0.079670735 -0.044931725
0.10324541 0.031295367 0.12489414 0.011589049 0.033692632 0.07791867 0.0034594806 -0.046550047
0.06178298 -0.044489432 -0.06431645 0.07715498 0.012233392 0.0110173095 0.005690775 0.08007847
-0.06218943 -0.012339672 0.059813496 0.07981762 -0.018515386 0.027527379 0.07022486 -0.077715315
-0.008760783 -0.054751202 -0.016959585 -0.027863063 0.049596053 -0.08702932 -0.117791615 0.036927417
-0.059835516 0.047364406 0.14538836 -0.070455365 -0.011861755 -0.115296796 -0.09512514 -0.08819926
0.092401214 -0.06892705 0.06649122 -0.0710467 0.04280766 -0.017446551 0.10175999 -0.016723312
00000000: a270 f6bd c4c8 b83b 43ad ea3d 2142 edbd
00000010: 10dd 2dbd 0d71 ea3c 1540 07bd 655b 133e
00000020: 58cc eebb 57dc ebbd 19e2 b2bc 17ba 0d3c
00000030: cf88 043e 2bb1 54bd 8fdc 89bd dd98 063e
00000040: 03bc 9ebd 0dc3 313d 394c 86bd 2155 233d
00000050: dac5 89bd 54dd ba3d d64d 243d ac11 b53c
00000060: 8691 c4bc ea17 5ebc 844b ecbc 77b6 85bd
00000070: f6d9 87bc 78c7 6fbc b428 93bd 727e ce3d
00000080: f816 33be e9aa 493c 585a 37bd 769c b73d
00000090: ed13 073e f6be f43d 9458 833d 9a8c 2a3e
000000a0: b9b9 e53c 17c7 7b3d 75ab c2bc 03cf 893b
000000b0: 72d0 fd3d 12b0 c63d 709a 1a3e 74a8 f73d
000000c0: 81cb 053d 9bb1 b53d 2f46 0f3d a43f e3bd
000000d0: cccd 013d 1632 cebc 2978 143b 8f5d 46bd
000000e0: 95a7 b4bc 60a8 dcbd 5875 e43d f761 4f3c
000000f0: 0988 78ba 4ea1 f1bd b3b3 d1bc 2c26 babd
00000100: 6875 dd3c 4dd6 a9bc 99ae b43d 92b6 87bd
00000110: 4e58 eb3d c629 b5bd 16c7 a8bd 30ba f73d
00000120: 3dfb 66bc 0b3f 863d 40e2 f93d a5de cc39
00000130: 29a1 103d 836b 0b3d e071 87bd 09d2 843d
00000140: 8b01 263a 2cc3 613c 3e39 f43d 1d5b 453c
00000150: 424f f2bd 480c c0bd 51ec d73d f9e8 a43d
00000160: 9756 47bd 33ce 913d ca4c 02be a2aa dabc
00000170: a57b c93d c897 753d 91dc bd3d 5db3 0bbe
00000180: eada 29bd 13dc 1a3e dd4e 99bd f7d3 313c
00000190: 4d39 743d d519 99bd d9e1 d33d 528d abbd
000001a0: 2c92 dc3d 4151 293e 1a67 5b3c 1a91 5e3c
000001b0: ba97 0dbe 4525 27bd 805c 8f3d 32ee b13d
000001c0: 028e a0bd 561d 06bc cb43 b0bd d1c5 c2bd
000001d0: 97a7 d43d aa0c a63d 1678 bcbd 3ad7 a03c
000001e0: da81 07bd 80d7 3b3c f955 ec3d 3c24 2a3c
000001f0: edd8 8c39 36ac f33d a13d f4bd 41a8 e03c
00000200: 3ebd 1fbd 28f7 b03c a248 6cbd ede5 a0bd
00000210: 111f e3bc b809 7c3d 62c9 b33d 8699 c93d
00000220: db68 613d 9b68 a03d 9a3e 69bd 2e29 0f3d
00000230: 4b5b 033e 2aec babc 58c1 5ebe fd5f dfbd
00000240: b728 773d 1b00 67bd 6e0c babd d380 26be
00000250: 0ad1 b8bd 5136 983d 9d1f 1ebd 7641 2abc
00000260: 430c dcbd 0551 0e3e 2bde 1a3c 716b d6ba
00000270: a56d 82bc 9851 a43d f07d d43c 1acd 3d3c
00000280: e109 8ebd 33b2 3a3d 6695 16be d12c 003d
00000290: 7f61 9fbd 4f09 853d e1f9 ffbb e48f 2bbe
000002a0: 9f8c 073e 4341 0d3e badf 8e3d 487e e5bc
000002b0: dc5d 913d d3f5 153d c842 01be 448a 8fbc
000002c0: cceb 853b aebb e73d 027e b7bd d98f 42bd
000002d0: 6b0c 9abd ab32 843d 9176 1cbd 6b14 cdbb
000002e0: ead6 4cbd 4261 54be 4519 a03d c177 c33d
000002f0: a918 0e3e f649 13bb 8baa edbd 3aba d43d
00000300: 702f e93b 996a e83c 229c 153c b4ec 543d
00000310: ac48 123e 6b52 9c3d c597 abbb f429 2d3d
00000320: cc22 bfbd 5ddb b0bd 6238 64bd b504 f73d
00000330: 758e a53d 868e fc3d 692a a33d 540a 38bd
00000340: 5472 d33d 922f 003d 80c8 ff3d ffdf 3d3c
00000350: 4901 0a3d d393 9f3d 74b8 623b 43ab 3ebd
00000360: 2610 7d3d 8d3a 36bd 58b8 83bd 6e03 9e3d
00000370: 916e 483c f281 343c ae79 ba3b 2e00 a43d
00000380: 58ba 7ebd 562c 4abc fffe 743d 6c77 a33d
00000390: 94ad 97bc 1981 e13c 0dd2 8f3d 3529 9fbd
000003a0: 6389 0fbc cc42 60bd d4ee 8abc 1441 e4bc
000003b0: 3b25 4b3d 6e3c b2bd bb3c f1bd 3441 173d
000003c0: 1616 75bd 2e01 423d b0e0 143e e74a 90bd
000003d0: ce57 42bc ba20 ecbd f8d0 c2bd d0a1 b4bd
000003e0: d93c bd3d a029 8dbd 8c2c 883d ef80 91bd
000003f0: 1657 2f3d 12ec 8ebc 8b67 d03d 54ff 88bc

lstm.bias_ih_l0 f4 [256]
-0.11747399 -0.01031768 -0.12216665 -0.13020766 0.0018693019 -0.20198815 -0.18664172 0.09145961
0.016334066 -0.18620189 -0.025124783 0.025432652 -0.10962054 0.045996297 -0.0165446 -0.07030922
-0.112667605 0.016174642 -0.20152299 -0.039249215 0.012443176 -0.014005777 -3.7911377e-05 0.028755607
-0.030899487 0.06896215 -0.07002446 0.020792104 0.023809392 -0.20943648 -0.16735889 -0.053474154
-0.012506869 -0.107751325 0.009694576 -0.06949125 -0.048821554 -0.11791439 -0.17070276 -0.14528285
0.040499087 -0.03322746 0.007262944 0.008000922 -0.03188602 -0.059325006 0.030898567 -0.15008315
-0.10882746 0.01294161 -0.036279127 -0.10071602 -0.03437546 0.007680259 -0.031649116 -0.03982101
0.039491534 -0.077471666 0.033839166 -0.16616905 -0.13392931 -0.16588062 -0.212908 0.005398152
0.06526938 -0.19503258 -0.0509619 -0.06048875 -0.17194577 -0.14474033 -0.0725659 0.07401264
-0.104030825 -0.19025269 -0.07067504 -0.15513676 -0.18848422 -0.06583958 0.00059842947 -0.121947065
-0.18117216 -0.12370527 -0.13184021 -0.05473971 -0.13521162 -0.19241378 0.014072608 0.0086338315
-0.024029555 -0.039138515 -0.08726598 -0.07996806 -0.0809938 -0.15410297 -0.038436547 0.009622536
-0.10697417 -0.057759255 0.080348015 0.03922203 0.018000847 0.052520163 -0.11264165 -0.06547721
-0.09166314 -0.06746427 0.03244957 -0.0017016099 -0.029958066 0.08892535 -0.06635573 0.06381047
0.055095844 -0.07983701 0.018915007 -0.096476376 0.009463749 -0.118481524 -0.17838334 0.05146507
-0.14181776 -0.11681775 -0.02047948 -0.13162091 0.037372623 -0.17842011 -0.09234899 -0.09136661
0.033221643 0.059770938 -0.05603001 0.012582011 -0.057955477 -0.056147348 -0.06831672 0.05949099
-0.1040089 -0.000861107 0.094458304 -0.10384926 -0.08095453 -0.08758464 0.043644436 0.0041319043
-0.050957233 0.071807496 0.09716293 0.048182067 0.10891 -0.08167416 0.1034435 -0.018923767
0.0758712 -0.08272563 -0.022060622 -0.03938819 -0.0897268 -0.12759587 -0.07568152 -0.06502789
-0.07957254 0.14384042 0.02395389 -0.106396526 -0.026727082 0.1107914 0.0028974689 -0.07404086
0.024158398 -0.029954819 -0.14474605 -0.066358924 0.11086539 0.100725144 0.09776673 0.12688005
0.100743376 0.07792121 0.03874125 0.027945092 0.009691784 0.029041808 0.08092683 0.0707015
-0.016522883 0.049211938 0.042340394 -0.06492125 -0.054907527 -0.032246422 0.05361571 -0.06793225
-0.093878016 -0.111937135 0.0044802036 -0.021915385 -0.18701017 -0.0948539 -0.1901636 -0.13139027
0.014830007 -0.12102358 -0.028142627 -0.068235084 -0.15546414 0.053828243 -0.1244657 -0.10010671
-0.024424471 0.04673109 0.0375094 -0.054588966 -0.05854711 -0.12668595 -0.12501621 -0.10580886
-0.07184582 -0.12190965 -0.091987856 0.071523204 -0.16507302 -0.0048577623 -0.013149685 0.031477682
0.026576826 -0.05899373 0.077154584 0.0401605 -0.05596807 0.072093666 -0.039762925 -0.19606069
-0.15197869 -0.007420999 -0.18376784 -0.120670535 -0.15727232 -0.15194468 -0.12087739 -0.03386327
-0.0014469076 -0.22885112 -0.06939013 0.041768327 -0.0670949 -0.13322517 -0.04350898 -0.15000166
-0.08077392 -0.112425 -0.04299454 -0.1589069 0.041821763 -0.19262236 -0.18728219 -0.108500995
00000000: 3496 f0bd 7d0b 29bc 8232 fabd 2855 05be
00000010: 5d03 f53a fbd5 4ebe 021f 3fbe 2d4f bb3d
00000020: 05cf 853c b5ab 3ebe 7dd2 cdbc 2358 d03c
00000030: bc80 e0bd 9d66 3c3d 8a88 87bc 48fe 8fbd
00000040: 46be e6bd af80 843c 0b5c 4ebe c9c3 20bd
00000050: 76de 4b3c 7d78 65bc 0803 1fb8 e190 eb3c
00000060: ec20 fdbc 073c 8d3d fc68 8fbd 3454 aa3c
00000070: ea0b c33c 8476 56be 2160 2bbe b707 5bbd
00000080: 9ce9 4cbc baac dcbd 00d6 1e3c 6e51 8ebd
00000090: 1cf9 47bd 1a7d f1bd b4cc 2ebe 07c5 14be
000000a0: 5fe2 253d 8419 08bd fdfd ed3b 4d16 033c
000000b0: ea9a 02bd c7fe 72bd fe1e fd3c 66af 19be
000000c0: eee0 debd 0c09 543c 6c99 14bd 3344 cebd
000000d0: 48cd 0cbd afaa fb3b 81a2 01bd 5b1b 23bd
000000e0: e0c1 213d 77a9 9ebd f09a 0a3d 3828 2abe
000000f0: c424 09be 9cdc 29be 8e04 5abe fbe2 b03b
00000100: f4ab 853d 9fb6 47be 6dbd 50bd 0dc3 77bd
00000110: 8d12 30be cf36 14be 6e9d 94bd f093 973d
00000120: 1d0e d5bd 9ad1 42be 13be 90bd 2cdc 1ebe
00000130: 0202 41be e7d6 86bd ecdf 1c3a 62bf f9bd
00000140: 3285 39be 3059 fdbd 1f01 07be bf36 60bd
00000150: ea74 0abe 1e08 45be cc90 663c ea74 0d3c
00000160: a1d9 c4bc b54f 20bd 82b8 b2bd 4bc6 a3bd
00000170: 14e0 a5bd 2bcd 1dbe a46f 1dbd d7a7 1d3c
00000180: 4615 dbbd f894 6cbd 808d a43d 48a7 203d
00000190: 8376 933c 621f 573d aab0 e6bd ea18 86bd
000001a0: e2b9 bbbd b52a 8abd d7e9 043d 8e08 dfba
000001b0: 9e6a f5bc 7e1e b63d 83e5 87bd 10af 823d
000001c0: 2eac 613d 9681 a3bd a5f3 9a3c 6895 c5bd
000001d0: d70d 1b3c 71a6 f2bd 1faa 36be 0acd 523d
000001e0: ad38 11be 253e efbd 95c4 a7bc a2c7 06be
000001f0: 0914 193d c3b3 36be 7821 bdbd 6b1e bbbd
00000200: 6b13 083d 5fd2 743d b97f 65bd c724 4e3c
00000210: b962 6dbd c3fa 65bd a3e9 8bbd d3ac 733d
00000220: 9e02 d5bd eabb 61ba 5b73 c13d ecae d4bd
00000230: 7dcb a5bd 935f b3bd 82c4 323d ed64 873b
00000240: 88b8 50bd cf0f 933d 5cfd c63d 8f5a 453d
00000250: 350c df3d c844 a7bd 30da d33d 0406 9bbc
00000260: 5c62 9b3d 0e6c a9bd 7ab8 b4bc 8355 21bd
00000270: afc2 b7bd 7ea8 02be eafe 9abd 582d 85bd
00000280: eef6 a2bd e74a 133e f33a c43c 6ce6 d9bd
00000290: c1f2 dabc 9ae6 e23d 76e3 3d3b bca2 97bd
000002a0: d5e7 c53c cf63 f5bc 4f38 14be 30e7 87bd
000002b0: 650d e33d fc48 ce3d ec39 c83d d8ec 013e
000002c0: 8b52 ce3d 2895 9f3d 25af 1e3d 1bed e43c
000002d0: 4aca 1e3c 16e9 ed3c f7bc a53d f3cb 903d
000002e0: ff5a 87bc 7592 493d 1f6d 2d3d 6ff5 84bd
000002f0: b7e6 60bd d314 04bd 269c 5b3d 1020 8bbd
00000300: 1e43 c0bd 4c3f e5bd acce 923b e587 b3bc
00000310: 987f 3fbe c342 c2bd 3fba 42be 2c8b 06be
00000320: 8ff9 723c 36db f7bd 5e8b e6bc d6be 8bbd
00000330: fe31 1fbe 017b 5c3d dfe7 febd bf04 cdbd
00000340: d415 c8bc 1969 3f3d 75a3 193d ae98 5fbd
00000350: 18cf 6fbd f6b9 01be 4004 00be 51b2 d8bd
00000360: e723 93bd c4ab f9bd 2164 bcbd c27a 923d
00000370: e708 29be dd2d 9fbb c771 57bc beee 003d
00000380: a5b7 d93c 69a3 71bd 3903 9e3d 567f 243d
00000390: c63e 65bd d8a5 933d 73de 22bd 22c4 48be
000003a0: 4da0 1bbe da2b f3bb a32d 3cbe 1d22 f7bd
000003b0: ff0b 21be 6397 1bbe 918e f7bd 36b4 0abd
000003c0: 2aa6 bdba f357 6abe 6a1c 8ebd 4415 2b3d
000003d0: 0d69 89bd 2e6c 08be 7936 32bd 099a 19be
000003e0: cc6c a5bd 143f e6bd 0b1b 30bd 7eb8 22be
000003f0: 4c4d 2b3d cc3e 45be e7c6 3fbe c535 debd

lstm.bias_hh_l0 f4 [256]
0.048307434 -0.11854553 -0.071260735 -0.07508107 -0.13056168 -0.12958047 -0.15565898 -0.0573112
-0.02613809 -0.056275867 -0.16291484 -0.057552192 0.018113215 -0.045051064 0.043715373 0.044950258
-0.12242239 -0.10834583 -0.16713513 -0.08377054 -0.021315629 -0.0025521382 0.04885319 0.09400684
-0.025642985 0.020383455 -0.1624474 -0.10773673 -0.15719695 -0.0885506 -0.051209603 -0.12245927
-0.085360795 0.023852233 0.086862236 -0.18895651 -0.09489405 -0.17234874 -0.06666234 0.03719714
-0.01098548 0.03266464 -0.05369901 -0.00082912797 -0.14041823 0.0117889745 -0.07129375 -0.17777583
-0.08823462 -0.14233054 -0.12707016 0.049803846 0.005078273 -0.16451381 -0.010428726 5.141693e-05
-0.119214915 -0.063842334 -0.06367536 0.0124371685 -0.1541401 -0.14563295 -0.08258667 -0.039228562
-0.11514194 -0.17545234 -0.12182296 -0.16565219 -0.16999723 -0.033395052 -0.1433009 0.058846947
-0.10459759 -0.11067583 0.025652857 -0.023885489 0.017911578 -0.0027814081 0.04302051 -0.09580655
-0.03355932 0.05518618 0.036801513 -0.038496472 -0.07683077 -0.087212525 -0.022475114 -0.008143389
-0.15171693 -0.1543841 -0.20363347 -0.13245714 0.06394524 -0.16443948 -0.119865544 -0.12882012
-0.122893974 -0.11767173 -0.06024333 -0.09289878 0.038946744 0.05924113 -0.08160049 -0.07976794
-0.069208175 -0.069366105 -0.077458784 -0.0134453345 -0.0866363 0.013726081 -0.10136658 0.020862361
0.017716883 -0.0981136 -0.11698287 -0.13420753 -0.10411378 -0.018045964 0.045533437 -0.1634783
-0.008968592 -0.09644711 -0.084301405 -0.015143097 -0.1595216 -0.044581704 -0.19734439 -0.101980664
0.016408464 -0.03717025 0.051991995 0.04940564 0.05175669 0.11644839 -0.105747215 0.07912992
0.03998143 -0.0069731134 0.09612156 0.037920173 0.038226664 0.067311905 -0.06311904 -0.071922235
0.042461067 0.03430402 -0.11644454 0.052128438 0.037036058 0.08500178 -0.06725231 0.07399211
0.06963468 -0.085889116 -0.048651107 0.105309375 0.004688826 0.04742588 0.06258376 0.07320435
-0.11466544 0.038006026 -0.011150269 0.10412425 0.037969172 -0.09926176 -0.090590276 0.09044094
0.053360544 0.0514489 0.042200558 -0.03520853 0.104444616 -0.06368379 0.1606116 -0.06387492
0.10038813 0.06986138 0.09747271 0.039767083 0.07806826 -0.10601088 0.10437735 -0.009280841
0.02048108 0.08268608 0.014662364 -0.032941166 0.030302232 0.096231274 0.021877779 -0.05492167
-0.015357681 -0.02876989 0.0011580263 -0.066551425 -0.07982627 -0.21203457 -0.09631522 0.0088021
-0.0153197525 -0.1555905 -0.04069602 -0.11244793 -0.15112637 0.027053805 -0.04620932 -0.19947645
-0.075836845 0.02246347 -0.15410283 -0.012384462 -0.11808915 0.041499887 0.030407192 -0.11164122
-0.14905785 0.02391213 -0.16596726 -0.053570434 -0.05377829 -0.088752836 -0.20756729 -0.06033676
-0.030665914 0.043926883 -0.024739735 -0.070076294 0.0019052794 -0.14507636 0.021196458 -0.18465552
0.044483375 -0.1276898 -0.024880322 -0.086547635 0.009424313 -0.097612664 0.036669698 -0.18209691
-0.051534433 -0.19232963 0.005787946 -0.09288497 0.0583006 -0.096509166 -0.0970464 -0.042899925
-0.15791197 0.01417247 -0.16205446 -0.06525607 0.075423084 -0.22758204 -0.21841569 -0.10919406
00000000: 04de 453d 00c8 f2bd 26f1 91bd 1bc4 99bd
00000010: f6b1 05be beb0 04be 1165 1fbe 26bf 6abd
00000020: 8c1f d6bc 8681 66bd 26d3 26be d9bb 6bbd
00000030: 2a62 943c 7787 38bd e40e 333d c31d 383d
00000040: 97b8 fabd 6be4 ddbd 7925 2bbe e48f abbd
00000050: 1d9e aebc c641 27bb 481a 483d a886 c03d
00000060: 3d11 d2bc 34fb a63c 9c58 26be 13a5 dcbd
00000070: 3df8 20be 045a b5bd 29c1 51bd edcb fabd
00000080: a4d1 aebd c265 c33c d4e4 b13d d17d 41be
00000090: d057 c2bd 307c 30be 4486 88bd 075c 183d
000000a0: 71fc 33bc 5ccb 053d 7ef3 5bbd d659 59ba
000000b0: ccc9 0fbe 8b26 413c 7502 92bd de0a 36be
000000c0: 5ab4 b4bd 19bf 11be ae1e 02be 1eff 4b3d
000000d0: a467 a63b 4f76 28be 3fdd 2abc 82a8 5738
000000e0: f326 f4bd c5bf 82bd 3a68 82bd 44c5 4b3c
000000f0: e7d6 1dbe ce20 15be 3323 a9bd 21ae 20bd
00000100: 8acf ebbd c7a9 33be 517e f9bd baa0 29be
00000110: c113 2ebe 40c9 08bd 79bd 12be 7f09 713d
00000120: 4337 d6bd 02aa e2bd f125 d23c 80ab c3bc
00000130: 4dbb 923c 4948 36bb 4636 303d 3936 c4bd
00000140: 7f75 09bd e70a 623d 2fbd 163d 7aae 1dbd
00000150: 7359 9dbd 7b9c b2bd bb1d b8bc d96b 05bc
00000160: af5b 1bbe de16 1ebe 4b85 50be d8a2 07be
00000170: b9f5 823d d362 28be 117c f5bd 6ce9 03be
00000180: d6af fbbd e0fd f0bd b6c1 76bd b741 bebd
00000190: 9f86 1f3d d4a6 723d 281e a7bd 605d a3bd
000001a0: 04bd 8dbd d10f 8ebd b6a2 9ebd d249 5cbc
000001b0: 5f6e b1bd 5be3 603c 4899 cfbd 8be7 aa3c
000001c0: ff22 913c c8ef c8bd b794 efbd b36d 09be
000001d0: 9b39 d5bd 21d5 93bc 4581 3a3d db66 27be
000001e0: 00f1 12bc 1086 c5bd 37a6 acbd c11a 78bc
000001f0: a159 23be 4e9b 36bd a614 4abe 3ddb d0bd
00000200: 0b6b 863c d53f 18bd 8ff5 543d 925d 4a3d
00000210: d3fe 533d 7e7c ee3d ff91 d8bd de0e a23d
00000220: 91c3 233d b77e e4bb 61db c43d 2f52 1b3d
00000230: 9093 1c3d d3da 893d 8e44 81bd f74b 93bd
00000240: a8eb 2d3d 5f82 0c3d 7a7a eebd a184 553d
00000250: 1fb3 173d 6a15 ae3d 94bb 89bd 2d89 973d
00000260: a19c 8e3d a2e6 afbd 6246 47bd 71ac d73d
00000270: b9a4 993b a441 423d ea2b 803d 2aec 953d
00000280: b7d5 eabd 35ac 1b3d 9eaf 36bc 183f d53d
00000290: 9085 1b3d c049 cbbd 6587 b9bd 1939 b93d
000002a0: 9690 5a3d 15bc 523d 7eda 2c3d d236 10bd
000002b0: 0fe7 d53d a66c 82bd 5e77 243e dbd0 82bd
000002c0: 4b98 cd3d 7c13 8f3d c69f c73d cfe2 223d
000002d0: 40e2 9f3d 3b1c d9bd cbc3 d53d ab0e 18bc
000002e0: f0c7 a73c 5257 a93d 693a 703c 51ed 06bd
000002f0: 633c f83c e714 c53d 0739 b33c 8cf5 60bd
00000300: c89e 7bbc d5ae ebbc eac8 973a 1d4c 88bd
00000310: f57b a3bd 971f 59be ea40 c5bd af36 103c
00000320: b3ff 7abc 1e53 1fbe dfb0 26bd 1a4b e6bd
00000330: dfc0 1abe f19f dd3c fc45 3dbd 8e43 4cbe
00000340: 5950 9bbd 5005 b83c 22cd 1dbe 33e8 4abc
00000350: b9d8 f1bd c9fb 293d 8118 f93c 27a4 e4bd
00000360: 9fa2 18be 5fe3 c33c 52f3 29be ac6c 5bbd
00000370: a046 5cbd 0cc4 b5bd 858c 54be ae23 77bd
00000380: 1537 fbbc adec 333d fcaa cabc 2984 8fbd
00000390: 91ba f93a e68e 14be 32a4 ad3c 5616 3dbe
000003a0: 3334 363d 1dc1 02be d1d1 cbbc e33f b1bd
000003b0: 6f68 1a3c 26e9 c7bd f732 163d 9d77 3abe
000003c0: c515 53bd 0ff2 44be cfa8 bd3b 7a3a bebd
000003d0: 9ccc 6e3d 99a6 c5bd 43c0 c6bd d5b7 2fbd
000003e0: adb3 21be a633 683c 9bf1 25be f9a4 85bd
000003f0: 6b77 9a3d 440b 69be 5da8 5fbe 23a1 dfbd

lstm.weight_ih_l0_reverse f4 [256, 32]
0.100396365 -0.111689426 -0.027975852 -0.21658298 -0.10929053 -0.06505251 -0.0049749655 -0.06869755
-0.00987714 -0.09424348 -0.12518182 -0.15478316 0.014778753 -0.01451392 -0.10753082 -0.14793848
-0.099652864 -0.11792427 0.074178785 -0.070032716 -0.0008594867 -0.23624434 0.019572383 -0.07347315
0.073149405 -0.13055065 -0.15835637 -0.06277342 -0.038967032 -0.19079174 0.117016844 0.08832622
-0.11514017 -0.18574136 -0.04897479 0.0054603782 -0.050416835 -0.039669894 -0.0027320336 -0.07954265
-0.084037066 0.054137435 0.058557503 -0.117711954 -0.07669851 -0.03531941 0.007367553 -0.08765309
-0.038962867 0.05844504 0.01411149 -0.17851199 0.011037081 0.01229263 0.07323159 -0.15238845
-0.01662624 -0.06160849 -0.11566724 -0.028310556 -0.027438028 -0.1555431 0.020632254 -0.10647657
0.011117623 -0.212513 -0.026901929 -0.117368415 -0.22778158 -0.2233373 -0.091042854 -0.13945593
-0.007419154 -0.068585455 -0.026795695 -0.117245555 0.06608834 -0.1534685 0.06434632 0.09337241
-0.07855777 0.0620395 -0.19268623 -0.09455048 -0.18939541 0.11022587 0.010637366 -0.023649212
-0.018163964 -0.012478007 -0.085959 -0.09652266 -0.16866751 0.03324158 0.029203823 -0.18735996
-0.072316274 -0.043885514 -0.0038486882 0.09775371 -0.06748202 -0.0838681 -0.2360954 0.049293052
-0.13286935 -0.25749135 -0.20782423 0.037817266 -0.08751688 -0.09043913 -0.016219245 -0.04062472
-0.06638168 -0.031204043 -0.17062727 -0.03905246 -0.120480336 0.020430313 -0.26859933 0.061189476
-0.01733377 -0.14093812 0.030312156 -0.12913696 -0.086920425 0.060467735 0.0435941 -0.17662102
0.119300924 -0.077259116 -0.02184944 0.060278494 0.013467625 -0.04661736 -0.09463605 0.05100792
0.04010687 -0.025849288 0.025829587 -0.07763883 0.16571341 0.027580056 0.089118496 0.013702338
-0.0679878 -0.06217099 0.20848927 -0.02122373 0.23976994 -0.06846675 0.050633334 -0.056651153
0.14307107 0.054526 -0.09023685 -0.16721451 -0.034841508 -0.0653543 0.08583156 0.09453451
-0.11111808 -0.060663126 -0.06997646 -0.14953312 -0.09706928 -0.118743174 -0.15557528 -0.13146369
-0.1572581 0.043868188 -0.011214676 0.041927952 -0.02229309 -0.11327766 0.0563901 -0.034638926
-0.1194429 0.079080865 -0.039210428 -0.07153086 -0.17931223 0.045344822 -0.080044456 -0.019973658
-0.14710566 -0.08558787 -0.14391682 0.017866284 -0.025702478 0.034598794 -0.072546795 0.054282118
-0.029337255 -0.18241347 -0.046162236 -0.046214636 -0.12551981 -0.10578586 0.066191815 -0.13110147
-0.056985267 0.016950315 -0.14077912 -0.05859809 0.022868913 -0.14911182 0.024737393 0.05069887
-0.0016126117 -0.16739309 -0.10143313 0.060762595 -0.022047302 -0.029170478 -0.12271215 -0.062814385
0.009954815 0.008716795 -0.1956628 -0.06659449 0.005128357 -0.105914235 0.024699934 -0.058357656
-0.13176838 -0.11067504 -0.051713068 -0.014883198 -0.10610997 -0.13785067 -0.063011564 -0.09036278
0.03529461 0.044373278 -0.15927348 -0.1596336 0.008197296 -0.19852844 -0.052926313 -0.14365709
-0.07316519 -0.0897867 -0.16646361 -0.017138148 0.022058202 -0.17680049 -0.07829922 0.005140716
0.01024411 0.032731142 -0.11840674 -0.1142224 -0.18009223 -0.07037342 0.038510256 0.047218017
00000000: 9c9c cd3d 6dbd e4bd 9d2d e5bc eec7 5dbe
00000010: b7d3 dfbd 403a 85bd 0905 a3bb 4db1 8cbd
00000020: bad3 21bc ba02 c1bd aa2f 00be 7a7f 1ebe
00000030: 9522 723c cbcb 6dbc 1e39 dcbd 2f7d 17be
00000040: cd16 ccbd 4882 f1bd 0ceb 973d 506d 8fbd
00000050: 2d4f 61ba 09ea 71be 4356 a03c 1779 96bd
00000060: 5bcf 953d 12af 05be 2c28 22be 5a8f 80bd
00000070: e59b 1fbd e95e 43be 87a6 ef3d 61e4 b43d
00000080: 9cce ebbd fc32 3ebe ca99 48bd f9ec b23b
00000090: e281 4ebd e67c 22bd eb0b 33bb 42e7 a2bd
000000a0: a01b acbd 37bf 5d3d fed9 6f3d f712 f1bd
000000b0: 1c14 9dbd 16ab 10bd 846b f13b 7783 b3bd
000000c0: 8797 1fbd 1164 6f3d e133 673c d9cb 36be
000000d0: dfd4 343c 0767 493c 72fa 953d b80b 1cbe
000000e0: c133 88bc 2f59 7cbd f2e2 ecbd 8aeb e7bc
000000f0: b7c5 e0bc b146 1fbe f904 a93c 6310 dabd
00000100: b126 363c 029d 59be 6f61 dcbc da5e f0bd
00000110: 933f 69be 88b2 64be ad74 babd 89cd 0ebe
00000120: 601c f3bb 8876 8cbd a582 dbbc 701e f0bd
00000130: 5359 873d d926 1dbe 01c8 833d 093a bf3d
00000140: e5e2 a0bd 211d 7e3d 8a4f 45be afa3 c1bd
00000150: dff0 41be 1abe e13d 5948 2e3c febb c1bc
00000160: 98cc 94bc 8e70 4cbc 460b b0bd acad c5bd
00000170: 2db7 2cbe 5328 083d db3c ef3c 4adb 3fbe
00000180: 8e1a 94bd 4cc1 33bd 463a 7cbb 1933 c83d
00000190: 0334 8abd 0ac3 abbd fec2 71be 83e7 493d
000001a0: e70e 08be e8d5 83be e0cf 54be 47e6 1a3d
000001b0: 0d3c b3bd 2738 b9bd 39de 84bc 1b66 26bd
000001c0: 1ef3 87bd 9f9f ffbc eab8 2ebe 79f5 1fbd
000001d0: 65be f6bd 795d a73c da85 89be d1a1 7a3d
000001e0: 8dff 8dbc 1552 10be 3351 f83c 7b3c 04be
000001f0: 5603 b2bd 04ad 773d ba8f 323d 24dc 34be
00000200: 0b54 f43d 073a 9ebd 99fd b2bc 95e6 763d
00000210: 50a7 5c3c d8f1 3ebd 8cd0 c1bd aeed 503d
00000220: 1a47 243d e3c1 d3bc 9298 d33c 1b01 9fbd
00000230: c7b0 293e 92ef e13c c283 b63d c57f 603c
00000240: 303d 8bbd 02a7 7ebd 367e 553e 63dd adbc
00000250: 4086 753e 4c38 8cbd e664 4f3d 0a0b 68bd
00000260: 3981 123e a856 5f3d 19ce b8bd 483a 2bbe
00000270: f8b5 0ebd 7ad8 85bd 75c8 af3d 4f9b c13d
00000280: e091 e3bd e679 78bd d14f 8fbd 361f 19be
00000290: 42cc c6bd 9f2f f3bd 204f 1fbe 6b9e 06be
000002a0: 4408 21be 21af 333d c3bd 37bc a5bc 2b3d
000002b0: 00a0 b6bc 1efe e7bd 4ef9 663d 8ce1 0dbd
000002c0: 7b9e f4bd 26f5 a13d 1d9b 20bd c67e 92bd
000002d0: a09d 37be 7ebb 393d 59ee a3bd cc9f a3bc
000002e0: dea2 16be b148 afbd ee5e 13be 505c 923c
000002f0: 018e d2bc 77b7 0d3d 6a93 94bd ed56 5e3d
00000300: af54 f0bc 99ca 3abe 9d14 3dbd 8f4b 3dbd
00000310: 4488 00be 42a6 d8bd 938f 873d 773f 06be
00000320: 6269 69bd 63db 8a3c 6728 10be 8d04 70bd
00000330: 9657 bb3c c5b0 18be 13a6 ca3c 9ea9 4f3d
00000340: 455e d3ba 1869 2bbe 2cbc cfbd 33e2 783d
00000350: 8b9c b4bc edf6 eebc 8250 fbbd d4a4 80bd
00000360: 8519 233c e3d0 0e3c d45b 48be b162 88bd
00000370: c70b a83b 90e9 d8bd 8457 ca3c 7008 6fbd
00000380: 4aee 06be 98a9 e2bd 15d1 53bd a8d8 73bc
00000390: 2f50 d9bd ba28 0dbe 350c 81bd 1f10 b9bd
000003a0: 1591 103d c1c0 353d 9618 23be fe76 23be
000003b0: f44d 063c 0a4b 4bbe 43c9 58bd d81a 13be
000003c0: a2d7 95bd 17e2 b7bd 7075 2abe 4d65 8cbc
000003d0: 67b3 b43c 300b 35be 575b a0bd 7473 a83b
000003e0: e9d6 273c 1711 063d 3c7f f2bd 6fed e9bd
000003f0: 196a 38be f11f 90bd eebc 1d3d ae67 413d
