backend/cnn_lstm_checkpoints/cnn_lstm_epoch_10.pth (torch, 788665 bytes, 64 tensors)

cnn.0.weight f4 [16, 1, 3, 3]
00000000: 09d8 3f3e 3d2d 633d 9114 ebbd c3c7 b43d
00000010: 1f86 8b3e a2e4 bd3c 5efb a33d c57b 27bc
00000020: 6aae a13e a42c 943e 7df8 77be 3090 b03d
00000030: da30 653e 158f 87be 83fb 5bbe 4197 c13e
00000040: cb37 763e e22a b53d ec69 983c 3aba c1be
00000050: 1e6f a1bd 39b0 86be a0eb 44be 5882 97be
00000060: e4a8 6b3c 5c4c 9abe 53ca 0dbe 8b16 cebd
00000070: e7b8 2dbe 6043 90bd 1c13 ebbd 3fb3 f4bd
00000080: e86e 20be 61a1 2fbe 6d40 30be b9a1 24be
00000090: d954 843e da27 093e 134b 5e3e d8fd 0b3e
000000a0: 2601 293e c0f0 0f3e b3e8 73be 8916 77be
000000b0: d10a 9d3e 2221 2abe d84c 853e f8cf 4a3e
000000c0: 2e12 b63e 9c74 7c3e 80a0 b53c bb54 92bd
000000d0: fa84 37bd 8bc2 d7bc 73e8 01bc ad1f 673e
000000e0: b5b0 743e 7006 7fbd a51e eb3e 86d7 a7bd
000000f0: a6bd 183e 2d95 f23d e136 a53e 26b9 b8bd
00000100: 35cd 863e 9d7f 453c e1d8 06be 0e5a 91be
00000110: cf6f 7a3e aadf 8e3e 0039 ab3e fda8 95be
00000120: c620 36be 2d2b 14be 3223 10be 592d 0a3d
00000130: 2e6b e53c 6331 38be d899 8dbe 1ba5 a13d
00000140: c06b e33d e956 eb3d 649b 3fbd a8a1 19be
00000150: c198 5f3e 5341 7c3e af23 1c3e 092e dbbc
00000160: 896e ad3e 3bab 9f3e d14c 98be 4a6e acbe
00000170: fd93 c1bd e591 69be b6d7 a5bc 9374 37be
00000180: 4626 0c3e 1c5a f5bc af10 d93d 742f 13be
00000190: d40b 7f3e 0e12 bf3e d9c7 9c3e 4a9e a43d
000001a0: 1ca2 40be cb67 a73d 64cd 47bd 0447 3abc
000001b0: 84ee 13be 81d3 a0bd 39d6 b43d 24af 67be
000001c0: 0af1 77be d861 9ebe d1cc bebe 3b45 91be
000001d0: a55f acbd 441a 353c ae34 7abc 7f24 cb3c
000001e0: 5dd1 933e 3878 48bd f6b8 aa3e 611b 003d
000001f0: 7ec0 073e 0070 723e 071a b93e 0c63 15be
00000200: 9b19 a83e 9723 0cbe 82f1 a33e f6fe 813e
00000210: 40f5 d23d 352f 37be 1006 83bd c61b a2bd
00000220: fdc2 8b3d 0626 d3be ebc6 42be 5933 b3be
00000230: 198b 4ebe 8941 a23d 2c4d c1bd 989f ae3d
0.18734755 0.055463064 -0.11478532 0.08827164 0.27250764 0.02318031 0.08006929 -0.01022238
0.3157838 0.28940308 -0.24215885 0.086212516 0.22381917 -0.2647635 -0.21482663 0.3781071
0.24044721 0.0884607 0.018605195 -0.37837392 -0.07882522 -0.26306322 -0.19230509 -0.29591632
0.014383528 -0.30136383 -0.13846712 -0.100628935 -0.16965066 -0.07044101 -0.11478254 -0.11948251
-0.15667307 -0.17151405 -0.17212076 -0.16077317 0.25845984 0.13394108 0.21708326 0.13671052
0.16504344 0.14056683 -0.23819236 -0.2412969 0.30672315 -0.16614202 0.2603519 0.19805896
0.35560745 0.24653858 0.022171259 -0.07145067 -0.04480455 -0.026337883 -0.007928955 0.22570677
0.23895533 -0.062262 0.45921817 -0.08195405 0.14916095 0.11844859 0.32268432 -0.09019689
0.26328436 0.012054351 -0.1316867 -0.2838902 0.24456714 0.27905017 0.33441925 -0.2923049
-0.1778594 -0.14469595 -0.14075926 0.033734653 0.028005209 -0.1798759 -0.27656436 0.078928195
0.11104536 0.11491186 -0.04677905 -0.15003073 0.21835615 0.24634294 0.15247987 -0.02675535
0.33873394 0.31185326 -0.29746106 -0.33677894 -0.09452055 -0.2280956 -0.02024446 -0.17915563
0.13686475 -0.029950194 0.10598885 -0.1437357 0.24906856 0.37318462 0.30621222 0.08038004
-0.1881184 0.08174094 -0.04877986 -0.0113694705 -0.14446455 -0.07852841 0.08829922 -0.22625405
-0.24213043 -0.30934024 -0.37265638 -0.2837313 -0.0841668 0.0110536255 -0.015271349 0.024797676
0.2887067 -0.048942775 0.3334424 0.03127611 0.13257024 0.23675537 0.3615267 -0.14588565
0.32832035 -0.13685451 0.32020193 0.25389832 0.10300684 -0.17889102 -0.06397641 -0.079154536
0.068243004 -0.41239947 -0.19021194 -0.35000113 -0.20170249 0.07922656 -0.094385475 0.08526534

cnn.0.bias f4 [16]
00000000: 37b3 00bd 4739 e6ba 97ba 19bd c759 103e
00000010: 586b f6bd 9153 53be b821 42be 0609 bdbe
00000020: 36e9 3ebb 35e7 bf3d f8fd bf3e 2220 90be
00000030: e16b a53d e369 89be 0686 a73e 6927 02be
-0.031420913 -0.0017564677 -0.03753146 0.14096747 -0.12032193 -0.20637347 -0.18958175 -0.36920947
-0.0029130704 0.09370271 0.3749845 -0.28149515 0.08077217 -0.26838598 0.3271944 -0.12710346

cnn.1.weight f4 [16]
00000000: 60a3 7f3f b412 833f 744f 7b3f 7879 883f
00000010: d166 603f 5c57 623f 0f5c 663f 9326 723f
00000020: 2319 893f 87ca 6e3f 9516 8d3f d0db 6b3f
00000030: 7ab1 863f e19f 843f 1b4a 7a3f 4cec 8e3f
0.99858665 1.0240083 0.9816811 1.0662069 0.87656885 0.8841455 0.8998422 0.9459011
1.0710796 0.9327778 1.1022516 0.9213228 1.0522912 1.0361291 0.97769326 1.1165862

cnn.1.bias f4 [16]
00000000: 4ae2 cdbc db3e 75bd e379 45be 29d8 0fbe
00000010: 282e 1fbe 4925 f5bd d346 19be 249f d4bc
00000020: 71cb 85bd fb7a 69bd be30 94ba 7c7d a2bd
00000030: 9413 03be 03e1 273a 4ed6 7bbd fce7 8ebd
-0.025132317 -0.059874397 -0.19284777 -0.14047302 -0.15544951 -0.11970002 -0.14968424 -0.02595479
-0.06532944 -0.05700205 -0.001130603 -0.079340905 -0.12800437 0.0006404074 -0.061483674 -0.06977841

cnn.1.running_mean f4 [16]
00000000: ca9d 06bd 4358 ecbb e264 0abd 7d99 133e
00000010: 5b9b eebd 44d7 50be 69ac 44be ede2 bdbe
00000020: 98fb 9abb 0f12 b83d 301a be3e 9f30 8cbe
00000030: 5a0d ad3d 1115 89be 56ea a83e 0730 04be
-0.032865323 -0.00721267 -0.033787616 0.1441402 -0.116507255 -0.20394617 -0.19206394 -0.37087193
-0.0047296993 0.089878194 0.37129354 -0.27380845 0.08449812 -0.26773885 0.32991284 -0.12908946

cnn.1.running_var f4 [16]
00000000: 71fd 343f 02a5 ba3e 954b 1640 815e ab3f
00000010: 9eab 3b3f 65fc 163f 56f5 d13f 7868 e93d
00000020: 071f cc3e b530 a33f 237e 603f af09 eb3e
00000030: 9c5f 1d40 86d7 633f 70a1 273f b5f3 8d3f
0.7069922 0.36454016 2.3483632 1.3388215 0.7330874 0.58978873 1.6402996 0.11396879
0.39867422 1.2749239 0.8769247 0.45905825 2.4589605 0.8900074 0.6548071 1.1089998

cnn.5.weight f4 [32, 16, 3, 3]
00000000: c5ce 5e3d a477 613d 5a7d 683d 2866 8cbd
00000010: 7bb9 e0bc 50d9 3c3c 6877 203d d705 34bd
00000020: 679d eabc b654 16be 2d1f 7c3c 902d c83b
00000030: 1a1b 3a3c df0a 7dbd 9b72 d9bd 0c50 f63c
00000040: af3f 643c 4b60 2cbc 3cc8 493b 0427 54bd
00000050: e0ee 143d 315b 943d 3da0 463c 1fb1 353d
00000060: c74d 4e3d 48ef ac3d 43c9 d43d 8a7e 623d
00000070: 24c6 24bd 5adb 1ebd 3e1d ddba ff03 6b3d
00000080: 6094 dc3d ff2d 5a3d aa1b 3abd 44b8 763b
00000090: 51b9 3fbd 674d afbd b8eb 83bc ce05 29bd
000000a0: c384 85bc 5ef0 17bd 644d 9abd e456 8abc
000000b0: d4b6 11bd 7028 25bd e7b4 cdbc 1eb6 e5bc
000000c0: a091 8dbc 5ddc dbbd d7cf 59bd 2b18 02bd
000000d0: 7e4f 69bb b58f 2dbc 5fc5 77bd d286 09bd
000000e0: 95ef ddbd 6793 c0bd c4fa f83c 587f 74bd
000000f0: 0c70 f43c a26c df3c 746b 06be 7f3a 6cbc
00000100: 37ac 923c d7fe ccbc 1485 97bd 9bcd 25bd
00000110: d727 06bd e094 e53c b3a8 863d b500 6e3d
00000120: ed1a a93d decc 7d3d 16ad 9e3d f79c c93d
00000130: cbc4 6a3d f4f5 e93d 00e5 863d 1558 ff3c
00000140: 1103 af3d ad94 bdbd af86 b0bc 6e9e 9dbd
00000150: a102 a8bd b8db 7439 f7f3 753d d590 a03c
00000160: 7680 b5bd c926 b5bd a21a 59bd 2be7 74ba
00000170: be8d 60bd 5786 bb3d 8d7d 583d 6f05 7f3d
00000180: 427b 2c3c 207e e03d 8933 5c3c 6ebc b3bd
00000190: 0ac3 afbd c585 cebd 0e3d bebc d989 13bd
000001a0: 0142 febd d2b5 94bd 829f d1bd eac0 3abb
000001b0: 6316 633d c746 283e e46c 8d3d de00 163e
000001c0: 28c5 f43d eb31 1e3d c8b9 3a3d 2dfd c63d
000001d0: f426 e73d 91bb d4bd eed8 a5bd b864 c63b
000001e0: abdd bfbd 694d cdbc f2ae 40bd 7cf5 febd
000001f0: 2372 18bd 9224 eebc 70d3 25be 136e 6abe
00000200: c04c 68be 7354 3cbe 6572 efbd 7d9b e9bd
00000210: d2b6 16be 882f 14be 177b ecbd 89d5 c33d
00000220: 37fb 16bc 0e52 d13d 04f6 1c3d 94ee 743c
00000230: dcd3 393c 0e4d a33c 30c2 ab3d 8538 29bb
00000240: 71a6 b2ba d0ee 9a3b bf3a 3fbc 3657 00bd
00000250: e615 8dbd cc41 a2bd 0469 b7bc 89ba a8bb
00000260: 6922 76bd ffe0 aebd 7c3c a33d 9f18 bebc
00000270: f066 aabd 19cf 283d 4acc 973d 22b3 d7bd
00000280: 6d43 d5bd 14aa 17bd f72e 6abd 006a 42bd
00000290: fa11 0abe 72a1 cfbd 9d24 e7bd 0a27 bebd
000002a0: 32af 0abe 4888 8dbd 1da9 38bd 49b4 4ebd
000002b0: 4c41 0fbe 5f7a cbbd 04a1 64bd 9e63 0cbe
000002c0: b39b 04be 7ac0 94bd 0181 d5bd 2cd3 83bd
000002d0: ed78 84bc 4ca9 5a3d e443 46bd 5e05 acbd
000002e0: 00a5 153b a30b 18be da68 56bd 378d f4bd
000002f0: e974 2bbd 27e4 cdbd 404f ddbd 725d 9cbd
00000300: 32a0 92bd a6ea 20be 385d b0bd debc febc
00000310: 80da 67bd 23b7 0cbd 9f00 063d b736 953c
00000320: e8ff 053d 80ae ef3c bbe3 ebbb 96a8 093d
00000330: 1352 fd39 700f 49bc fda0 953c 22ba 54bb
00000340: c594 9fbd b55c 7d3b 4be9 9fbd a56e a4bc
00000350: 1693 24be bae2 b5bd 6bfe 48bd 4c27 cbbd
00000360: c867 debb 03db 94bd 7c83 83bd 9eee 9f3c
00000370: eb59 02be f041 babd 50e6 cfbd dfcf 97bd
00000380: c63f 86bd d81a 8cbd f01a f9bc 1de8 09bc
00000390: aede fdbd f85d dcbb 8060 0bbe 26fd 32be
000003a0: ba6a 0fbd ddcc b8bd 52e7 f0bd d342 6ebd
000003b0: 9ff3 53bc 0014 84bd 75a5 88bd 9efd 383c
000003c0: db20 dabc 1992 f5bd 6658 a6bd e5e8 36bd
000003d0: a4ab 66ba ed61 a2bd a4ba 23bb 8023 98bc
000003e0: f490 89b9 77bc 163c 6cc2 ebbd dd36 50bd
000003f0: 9c28 07be c3c5 b9bd c655 2cbe 41fa e1bd
0.05439641 0.05504574 0.05676017 -0.06855422 -0.027432194 0.011526421 0.039176375 -0.04395088
-0.028639508 -0.14680752 0.015388292 0.006108947 0.011359001 -0.061777946 -0.106175624 0.030067466
0.013931199 -0.010521005 0.0030789515 -0.05179502 0.03636062 0.07243956 0.012123165 0.04435837
0.050367143 0.08444077 0.1038995 0.05529646 -0.040228024 -0.03878341 -0.0016869677 0.057376858
0.10770488 0.05326652 -0.04543654 0.0037646452 -0.04680759 -0.08559685 -0.01610361 -0.0412653
-0.016298657 -0.037094466 -0.07534292 -0.016887136 -0.03557475 -0.040321767 -0.025110675 -0.028040942
-0.017281353 -0.1073539 -0.053176727 -0.03176133 -0.003560036 -0.010593344 -0.060490962 -0.03357584
-0.10836712 -0.09403115 0.030393012 -0.059691757 0.029838584 0.02727348 -0.13126928 -0.014418243
0.017904384 -0.02502386 -0.073984295 -0.040479284 -0.032752838 0.02802509 0.065751456 0.058106143
0.08257089 0.061962955 0.07747857 0.09844392 0.057316583 0.11423865 0.06586647 0.03116993
0.08545507 -0.09256873 -0.021548597 -0.07696234 -0.082036264 0.00023351505 0.060047116 0.019600311
-0.088623926 -0.08845288 -0.053003915 -0.0009342308 -0.054822676 0.09156483 0.05285411 0.06226104
0.010527434 0.109615564 0.013440021 -0.087761745 -0.085821226 -0.10084108 -0.023222473 -0.036020134
-0.12414933 -0.07261242 -0.10235502 -0.0028496333 0.05544127 0.1643325 0.06905535 0.14648768
0.11951667 0.038621824 0.04558733 0.09716258 0.112867266 -0.10387338 -0.08098017 0.006054487
-0.09368452 -0.025061326 -0.04704184 -0.12449166 -0.037218224 -0.029070172 -0.16193938 -0.22893552
-0.22685528 -0.1839159 -0.11691741 -0.1140661 -0.14718178 -0.14471257 -0.11546915 0.09562213
-0.009215168 0.10220729 0.038320556 0.01494946 0.011342015 0.019934203 0.08386648 -0.0025821042
-0.0013629926 0.0047281757 -0.011671721 -0.03133317 -0.068889424 -0.07922706 -0.022388943 -0.00514919
-0.06009141 -0.08539008 0.07970521 -0.0232051 -0.08320415 0.04121313 0.07412012 -0.10532214
-0.10413251 -0.037027434 -0.057173695 -0.04746437 -0.1348342 -0.10138215 -0.1128628 -0.0928479
-0.13543394 -0.06910759 -0.045083154 -0.050464902 -0.13989753 -0.0993545 -0.05581762 -0.13709876
-0.1295002 -0.072632745 -0.10424996 -0.06436762 -0.016170943 0.05338411 -0.04840459 -0.08399461
0.0022833943 -0.14848189 -0.052346088 -0.11940997 -0.04185954 -0.10053282 -0.10806131 -0.07635011
-0.07159461 -0.15714511 -0.0861153 -0.031095918 -0.056604862 -0.03435434 0.032715436 0.018214567
0.032714754 0.029258013 -0.0071987784 0.03360804 0.0004831707 -0.012271747 0.018265242 -0.0032459577
-0.077920474 0.0038659994 -0.07808169 -0.02007229 -0.16071734 -0.08881135 -0.049070757 -0.09919605
-0.006787274 -0.07268336 -0.06421563 0.019522961 -0.12729613 -0.09094608 -0.101513505 -0.07412695
-0.065551326 -0.068410575 -0.030408353 -0.0084171565 -0.123959884 -0.006725069 -0.1361103 -0.17479381
-0.03501389 -0.090234496 -0.11762871 -0.058169197 -0.012936502 -0.06449127 -0.066721834 0.011290936
-0.026626995 -0.119907565 -0.081223294 -0.0446557 -0.000879938 -0.07928834 -0.0024983073 -0.018571615
-0.00026238675 0.009200207 -0.115116924 -0.05083357 -0.13199085 -0.09070923 -0.16829595 -0.1103406

cnn.5.bias f4 [32]
00000000: 63b9 66bc d477 88bd 4baf 903d 8c3c 063e
00000010: 8e97 1dbe 005c b23d 1a91 88bc f72f 113d
00000020: 0e5e 24bd 7c84 41bd da2a 9c3d 3f8b d23d
00000030: 47dd 9f3c b2d0 efbd 89c4 9ebd a4d7 88bd
00000040: 0fea 67bd fcfd 583c bc2a 26be 3155 4d3d
00000050: bd70 87bd 48bc d6bc 217e 783d d320 ddbd
00000060: 6b5a 313e fe73 4c3d b027 513d 4d4e 6abd
00000070: c0e1 9cbc 31b1 d3ba dea3 b6bc 1357 593d
-0.014082286 -0.066634804 0.070646845 0.13109034 -0.15389845 0.08708954 -0.016670752 0.035446133
-0.04012876 -0.047245488 0.07625361 0.10280465 0.019514693 -0.11709727 -0.0775233 -0.06681755
-0.0566197 0.013244148 -0.1622724 0.050130073 -0.066133 -0.026212826 0.06066716 -0.10797276
0.17319648 0.049915306 0.05106324 -0.05720358 -0.019150615 -0.001615083 -0.022294935 0.053061556

cnn.6.weight f4 [32]
00000000: 99ad 703f 2c29 8a3f cfb3 803f ace0 863f
00000010: 2826 8b3f ce1f 803f bad2 893f 1354 7f3f
00000020: a798 7e3f a8b9 7a3f 8c79 7e3f 5855 823f
00000030: b075 6f3f 238d 833f b3b3 883f 2068 743f
00000040: ae26 5e3f ce8d 813f 7753 813f c652 843f
00000050: 99a1 843f d64e 853f 416d 873f 1cfe 813f
00000060: fb55 7a3f 3e91 853f 7010 863f e691 823f
00000070: 791b 873f f777 7b3f a6cd 7b3f 5bd8 863f
0.9401489 1.0793815 1.0054873 1.0537314 1.0871019 1.0009706 1.0767434 0.9973766
0.9945168 0.9793954 0.99404216 1.0182295 0.9353895 1.0277447 1.067984 0.9547138
0.8677777 1.01214 1.0103596 1.033776 1.0361816 1.0414684 1.0580217 1.0155673
0.97787446 1.0434949 1.0473766 1.0200775 1.0555259 0.98229927 0.9836067 1.0534776

cnn.6.bias f4 [32]
00000000: 119d d1bb 6d90 853d 1ca6 253d 052f be3c
00000010: 8fa6 963d 1281 18bc 383c ce3c f461 1a3d
00000020: a668 39bd e882 a4bd 7d2b 043d e017 023d
00000030: 841e a1bd cc5b 313d b347 c63c 6e7d 463b
00000040: 906c debd 13db 4c3d 406d 8ebd 1ac7 4a3d
00000050: 9491 59bc 391d e43d 735e aa3c 10db a23d
00000060: bb9e 01bd 764a c13c 46db 2b3d b7e0 8d3d
00000070: d5bc 10bd 0fd6 543c 580a 90bd 9a82 9c3c
-0.0063968976 0.06521688 0.040441617 0.02321578 0.07355987 -0.0093081165 0.025175199 0.03769107
-0.045265816 -0.08032781 0.032268036 0.03176105 -0.078671485 0.043300435 0.02420411 0.0030287164
-0.108605504 0.050013613 -0.069544315 0.049506284 -0.013279337 0.11138386 0.02079699 0.07951939
-0.031645518 0.023595076 0.041957162 0.069276266 -0.035336334 0.012990489 -0.07033223 0.019105244

cnn.6.running_mean f4 [32]
00000000: 854b 76bf 5457 61c0 de0c 173f c895 34c0
00000010: 36e5 1bc0 afc2 bcbd adde 62c0 acd8 4ec0
00000020: 53e3 f33e 56a4 7140 6a18 59c0 f076 fabe
00000030: 73ff 87bf 40f1 32c0 7202 35c0 7f78 21c0
00000040: 54f5 4dc0 7729 c5bf e900 8e3f c13e 61c0
00000050: 9cce 3abd 5577 15c0 eda6 443f cbb2 2abf
00000060: aeaf 103f d68e a8bf 3cd2 45c0 3c0f 51bf
00000070: 612e 823f 6697 d8bf ab5e b43f d26a 42bf
-0.96208984 -3.520955 0.5900401 -2.821642 -2.435865 -0.092168204 -3.544841 -3.2319746
0.47634372 3.7756553 -3.392115 -0.48918867 -1.0624832 -2.7959747 -2.8282743 -2.5229795
-3.2180986 -1.5403279 1.1094028 -3.5194552 -0.045607194 -2.3354084 0.7681721 -0.66679066
0.56518066 -1.316859 -3.0909567 -0.8166387 1.0170404 -1.6921203 1.409139 -0.75944245

cnn.6.running_var f4 [32]
00000000: 00ad 5541 6074 6b40 5ebe df40 f6c5 4b40
00000010: 2ed8 1e40 a7c1 2941 5fc1 8640 be5d 9140
00000020: 5105 d540 e327 b440 f2b7 d640 2322 b640
00000030: 7fe0 4741 49c8 1740 d8f9 9340 e3bb 2340
00000040: 6069 7140 22b3 9f40 f071 8940 e8b2 8140
00000050: 9fff 6241 159c 0740 be2f df40 9e64 a13f
00000060: dc4b fb40 d412 5341 0e4d 4540 d476 cb40
00000070: 2139 1741 0907 5340 0b55 9140 ce0b 4741
13.354736 3.678978 6.991988 3.1839576 2.4819446 10.609778 4.211105 4.542693
6.656899 5.629869 6.7099543 5.691667 12.492309 2.3715994 4.6242485 2.5583427
3.7720566 4.990617 4.2951584 4.053089 14.1874075 2.1189015 6.974578 1.2608831
7.85301 13.192097 3.082828 6.3582554 9.4514475 3.2973044 4.541631 12.440382

lstm.weight_ih_l0 f4 [256, 32]
00000000: e312 4abd 678c 8dbd 2d37 c5bc 6d04 3e3e
00000010: 94cb 8bbd 2b0f 82be a02f dfbd 984f 8f3d
00000020: 3fea 27be 6a4b 71be 27f0 87be 6247 503d
00000030: bddc 01be fed0 d3bd e570 ac3d d665 44bd
00000040: 7c65 843c 3b9f f53d da2a 65be 8158 133b
00000050: abc5 b5be ee59 d2bc 0acf 8bbe 959f e73d
00000060: dd44 44be 34e5 36be 6091 1bbe b8d2 143d
00000070: 5d89 85be c423 05bd 5aa0 97bd c637 0fbe
00000080: 6db8 43bd 7c39 3abe 8795 d53c 43b8 15bd
00000090: 02a2 39bd 7a61 0bbe 4af0 ee3c 0823 00be
000000a0: f14e 4dbe 5533 f9bd 91d3 3b3d a769 793d
000000b0: 4d4f 293d b1e0 163a e020 0abe aee7 6bbd
000000c0: 895c 9a3c 3999 c3bd 4bf2 40bd aa6b 77ba
000000d0: c248 8fbc fdba 8fbd 80a8 f4bd ffb9 0bbe
000000e0: 84f6 ddbd c4ad bebc fcfb 36be 95b8 80bb
000000f0: a97c 15bd 2dcb 09be 9003 a8bd beb7 3dbd
00000100: a0c9 5bbe 2495 fbbd dcad 4fbb a09b 84bd
00000110: 639a 0ebd c61f 30be 379e 60bd d8de 51bd
00000120: eacc 7f3a 2790 30be 87c8 27be 3587 04be
00000130: 6f63 deba 11ff 233d 0e82 4d3d 0f8d cfbd
00000140: afda dbbd 6f1c 32bd fead debc d887 80bd
00000150: efc6 06be a171 593c 9d34 45bd 3fe3 cd3b
00000160: 7aec 63be 503a ba3c 6185 4dbe 2623 6fbd
00000170: 118b bcbd 5bcb 6a3d ed6c 863c 3f5a c7bd
00000180: 9b4c b1bd 354b 18bd a6d4 d4bd 8aef 753d
00000190: 5935 54be 865a 1bbe f437 42be 1f5e 373d
000001a0: 9568 66bd 0492 1a3d 5c36 8cbd f29e cc3d
000001b0: 68f4 08bd 688a 893d e469 4dbd b27b 073d
000001c0: ece8 aebb edf3 2cbe 5cc8 fabd bc72 1f3d
000001d0: d622 e6bc d311 85bc 47d8 0fba f382 f3bd
000001e0: 6354 103d 1b8c 91bd 0e31 23bd 4535 0cbe
000001f0: 2159 2dbd 8189 c3bd 272a 23be a025 fbbd
00000200: 69d1 c4bc d26b 44bd 8b0d d9bd 4b03 3fbe
00000210: f1d4 b5bb 57f4 ecbd b275 5d3d 4db0 3f3c
00000220: 5bed a2bd b0a0 1b3c 4c4c bcba 295f 3dbe
00000230: 1469 5cbd e10a d03c c807 8fbd 1cff f8bd
00000240: 9be2 d4bd 387d 153d d35c e0bc 9199 87bd
00000250: 424f 08be 2626 7abd 2c86 adbd 5bf7 39be
00000260: 76b4 42bd 8cd2 993b fba3 67bd 3ebc 0ebc
00000270: 91f5 35be bbfc a8bc 0f16 2c3d 4f43 a13c
00000280: abb7 aebd 9825 77be dd77 533c f609 9cbd
00000290: b1e9 a7bd 780e 1e3d 9bc2 0bbe fcb9 85bc
000002a0: 5cee 53be ede4 75bd 8030 55bd 01eb c2bd
000002b0: 6fe3 37be 3716 1abb 7046 3ebe db5d 493d
000002c0: d6a7 9cbd 7293 c7bd 5cba 06be 71c6 263d
000002d0: aa55 34be e8f7 21bd 83af ad3c 864c 76bc
000002e0: 0289 b8bd de38 17be f367 24bd fb68 00bb
000002f0: 9004 bebd aa63 e4bd 898e c6bd 4d61 4abe
00000300: 9462 05be de27 82bc 2c94 1abe 9874 75bd
00000310: d948 21be 4e67 44bd 8514 26bd 60fb 563c
00000320: 53d7 a0bd b3f5 ac3c a0b3 a33d 9983 6d3d
00000330: f494 703d 0e09 1ebe a2ee acbd eceb d4bc
00000340: 8337 03be e966 203d 4b0f e7bd cd45 273c
00000350: 24aa e23c b1f0 8cbc a9c1 e6bd 71f1 45bd
00000360: 15fc 60bd 329a 70bc 5ff3 52bd c991 26bd
00000370: 0ad6 42bc 3875 2ebe 18d2 e8bd 3e09 bb3d
00000380: 04a0 ee3d 8e9b bfbd 0ae2 a53c 981b 3abe
00000390: 303e 86bd 6eb6 4c3d 0175 1bbe 0bf1 c2bd
000003a0: 7f3c fabd 9d7d 24bd 549c aa3d c2c5 d53d
000003b0: 0bc4 343e 1d57 1dbd 6adb 30be 533b c13d
000003c0: e05c 0e3d 1a04 eabd 2fd6 853c f3a8 a8bb
000003d0: f07d da37 0739 92bc 9426 073e c493 583d
000003e0: b00b 8b3d dbda 423e 85d1 9ebd d239 ef3c
000003f0: 1cf8 273e d67b 97bd 6276 bf3d dd0a 9c3d
-0.049334418 -0.06911545 -0.024074161 0.18556376 -0.06825939 -0.25402197 -0.108977556 0.06997603
-0.16397952 -0.23563924 -0.2655041 0.050849326 -0.12681861 -0.103425965 0.084199704 -0.04794868
0.016161673 0.119932614 -0.22379628 0.0022483172 -0.3550237 -0.025677647 -0.27306396 0.11309735
-0.19166894 -0.17860872 -0.15192175 0.03633377 -0.26081362 -0.032504812 -0.074036315 -0.1398612
-0.047783304 -0.18185991 0.026072277 -0.03655268 -0.04532052 -0.13611403 0.029167313 -0.12513363
-0.20049645 -0.12167994 0.045856062 0.060891774 0.041335393 0.00057555275 -0.13489103 -0.057593994
0.018842952 -0.09550709 -0.04710607 -0.00094383454 -0.017490748 -0.07018087 -0.11946201 -0.1364517
-0.10838035 -0.023276217 -0.17869562 -0.003928254 -0.03649584 -0.13456412 -0.082038045 -0.04631781
-0.21463633 -0.12284306 -0.0031689322 -0.064749956 -0.034815203 -0.1719962 -0.054838385 -0.05123791
0.00097580126 -0.1724249 -0.16385089 -0.12942202 -0.0016966889 0.040038172 0.050172858 -0.10134327
-0.1073507 -0.043484148 -0.027182575 -0.0627591 -0.13161825 0.01327172 -0.04814588 0.0062831934
-0.22258177 0.022732884 -0.20070411 -0.05838313 -0.09206212 0.05732284 0.016409362 -0.0973401
-0.086571895 -0.037181098 -0.10392122 0.060042895 -0.20723476 -0.1517125 -0.18966657 0.044767495
-0.05625208 0.037736908 -0.06846306 0.09991254 -0.03343621 0.06715852 -0.050149813 0.03307695
-0.005337825 -0.16889925 -0.12245247 0.03892778 -0.028092783 -0.01624385 -0.0005487245 -0.11890211
0.035236727 -0.07106801 -0.039841704 -0.13692196 -0.042321328 -0.09547711 -0.15934049 -0.12263036
-0.024025636 -0.047954388 -0.10598286 -0.186536 -0.0055490662 -0.115700416 0.05406732 0.011699748
-0.07955428 0.00949876 -0.0014366 -0.18493332 -0.053811148 0.025395812 -0.06983906 -0.12158033
-0.10394784 0.03649637 -0.027388012 -0.06621087 -0.13311484 -0.061071537 -0.08472857 -0.18160765
-0.047535382 0.0046942886 -0.05655287 -0.008711873 -0.17769457 -0.020628324 0.042013224 0.019685416
-0.08531126 -0.24135435 0.012906996 -0.076190874 -0.0819887 0.038588017 -0.13648455 -0.016324036
-0.20696396 -0.060032774 -0.052048206 -0.0951748 -0.17957853 -0.0023511776 -0.18581557 0.049161773
-0.076492 -0.0974492 -0.13157028 0.040716592 -0.17610803 -0.039543062 0.021201855 -0.015032893
-0.09010507 -0.14767787 -0.040138196 -0.0019593823 -0.09278214 -0.11151822 -0.09695155 -0.1976368
-0.13025886 -0.01588815 -0.15095586 -0.059925646 -0.15750445 -0.04795008 -0.040546913 0.013121456
-0.0785357 0.021113252 0.07993245 0.05798683 0.058735803 -0.15433142 -0.08443953 -0.025991403
-0.12814145 0.039160643 -0.11282214 0.010209513 0.02766902 -0.017204614 -0.112674065 -0.04832596
-0.054927904 -0.0146852005 -0.051501628 -0.040666375 -0.011891851 -0.17036903 -0.11368197 0.09132622
0.11651614 -0.093558416 0.020249385 -0.18174589 -0.0655483 0.049978666 -0.15181352 -0.095186315
-0.1221857 -0.040158857 0.083305985 0.1043811 0.1765291 -0.038413156 -0.172712 0.09435143
0.03475654 -0.114265636 0.016337482 -0.0051470934 2.604627e-05 -0.017849458 0.1319831 0.052875295
0.067893386 0.19028799 -0.077548064 0.029202376 0.1640324 -0.07396667 0.093487516 0.076192595

lstm.weight_hh_l0 f4 [256, 64]
00000000: 0ae6 11be 2ffa 32bb e5f3 f43d 47bc 08be
00000010: cea9 90bd ab0a 2cbc f4a6 22bc d9d7 3d3e
00000020: a44e 3abd a1fe c5bd 40b2 52bd f820 56bc
00000030: 745d 233e bd79 89bd 75f7 96bd 5842 0e3e
00000040: f8a7 9abd 1bd7 803d 64ce d1bd 6841 bb3c
00000050: e218 e6bc 3a0b dc3d 93f9 e5ba fd2b c43c
00000060: 5b66 a9bb c8ea 05bd 600f b3bc 445e c1bc
00000070: 2883 ba3c fe07 1dbd 45f1 9cbd ef53 ca3d
00000080: db9e 41be cd66 a23c e55b 0cbd add7 843d
00000090: 9056 053e 58ad 1e3e 3b8f ac3d 9c02 e53d
000000a0: dda3 873c 7e99 4d3d a71c 74bc fd93 e03c
000000b0: 7120 063e b858 da3d 7bb7 233e 0ae2 e03d
000000c0: c28b fb3b 7ec6 c63d 575e 12b9 5e14 12be
000000d0: 25ca c83c 01a4 3dbd ce54 1c3c 69a6 9cbd
000000e0: 1b9b 34bc 7851 cdbd 47f4 db3d 992a ca3c
000000f0: 4ece 81bd 4bb1 11be 4d6c 153b 825f 92bd
00000100: 6c28 273d aebc 82bc 3502 a03d 6584 72bd
00000110: b832 f13d 2ce1 aebd 2131 b2bd 47ed 013e
00000120: b341 533b e61e a23d 39de 043e 7470 4f3b
00000130: e482 153d 3217 2e3d ec8f 8abd 07e4 a63d
00000140: 24dd 193c f84a 9b3c 1e93 ef3d df5a a63c
00000150: bfb6 0ebe 8db4 b7bd 8a63 dc3d 5893 bd3d
00000160: af4d 80bd 0f1c 983d 6c52 09be 81e5 02bd
00000170: f471 c93d f66e 853d 194f c43d 56b3 0cbe
00000180: 6830 2ebd 17c4 1f3e 7415 a1bd 362b f03b
00000190: 1a1f 7c3d c77f 95bd 19a7 d33d 17c7 b5bd
000001a0: d71d e43d c1c5 323e 387e b43b ecd5 1abb
000001b0: 7fc5 0cbe 32d0 1ebd 5c2c 5b3d 2aa0 c53d
000001c0: e84e 8abd 4e74 2fbc 2759 9abd 98f2 b9bd
000001d0: 6647 e13d ef58 a03d d9cf c6bd b281 833c
000001e0: b51e 30bd 89c2 d03b 296f e33d 4f40 ac3b
000001f0: a4eb d83a e316 ec3d 068d f7bd 2abf 163d
00000200: bc24 23bd 3513 193d a024 75bd 7e38 86bd
00000210: e38f 14bc 7002 893d a422 be3d 7102 003e
00000220: 1f4b b73d 21c5 c03d fa26 88bd 073d 2a3d
00000230: b92d ff3d 3b4c 9abc 7422 5dbe 201d d1bd
00000240: 5308 aa3d 8fae 80bd 7266 bebd 6d0c 2ebe
00000250: 30e4 f6bd aa7b 8b3d 2880 8cbc fd74 0abc
00000260: c23b b0bd 03ef de3d 9bdb 6b3c 13c3 babb
00000270: 209f 15bc b9d9 b63d 569d d93c 31a6 633c
00000280: da78 d0bd 2a5d bd3d 2915 28be 3da9 183d
00000290: cb0d 99bd 473b 703d 545a c73b ac8d 29be
000002a0: 729c 083e aeb1 143e 8b47 c03d 6ece 81bc
000002b0: 4179 a13d 70ea 953d 00c7 adbd 0797 86bc
000002c0: 5716 43bc 7604 ee3d aab0 a5bd fec9 2cbd
000002d0: ba40 a7bd 45b6 7e3d a40c 91bc 02bb f2ba
000002e0: c943 38bd 79b1 5ebe 112d 973d cc08 bc3d
000002f0: 78a7 213e 15d2 0cbc 48b7 d9bd 9f5c e13d
00000300: 4d45 c03c ce35 023d c5ce 983c d021 933d
00000310: 0e87 183e e733 3b3d 0123 34bc e818 9b3d
00000320: 1a43 c5bd 8e8e adbd f14c 6dbd 1e91 d53d
00000330: c81a 9e3d cde0 e03d 4d7a a83d 2d4f 0cbd
00000340: a474 0d3e 61b0 0e3d 48c0 033e 36a5 113c
00000350: 4ddc 15bc cfbc 853d f2d3 9e3c b65c 7bbd
00000360: 4130 863d 3eea babd e88e 52bd d979 b23d
00000370: 537d 603c 9d1d 9e3c 5b83 2b3c ed58 ab3d
00000380: edc3 cabd 4d46 853c 9eaa 713d 6e46 a33d
00000390: 9f49 50bc aa70 5d3c e92e ad3d 1e2e a8bd
000003a0: 6a2e 2abb 1916 4cbd d575 1cbc 674e f738
000003b0: 0ec1 623d c32b 68bd de96 b7bd dc4c 2e3d
000003c0: b5e1 8ebd 0cc5 8b3d b35e 293e 6dc0 8abd
000003d0: fab5 d8bc fb1f e0bd 04e3 cebd 5905 9bbd
000003e0: c306 b93d c1cd a5bd 0fa0 7e3d bd7c 94bd
000003f0: 4d19 923d a301 eebc 172f ef3d d1c8 56bc
-0.14247909 -0.0027309766 0.11960582 -0.13353072 -0.07063638 -0.01050059 -0.0099275 0.1853937
-0.045485154 -0.09667707 -0.051439524 -0.013069384 0.15953618 -0.06712673 -0.073714174 0.13892496
-0.07551569 0.06291028 -0.10244444 0.022858337 -0.028088037 0.10744329 -0.0017545692 0.023946756
-0.0051696724 -0.032694608 -0.021857917 -0.02360452 0.022767618 -0.0383377 -0.07663206 0.0987929
-0.18908255 0.01982441 -0.034267325 0.064864494 0.13021302 0.15495813 0.084257565 0.11182138
0.016557628 0.05019521 -0.014899409 0.027414316 0.13098313 0.10661453 0.15987961 0.109806135
0.0076765725 0.09705828 -0.0001395879 -0.14265582 0.024510453 -0.046298984 0.009541703 -0.07648928
-0.011023308 -0.100253046 0.107399516 0.024678515 -0.063381776 -0.14227788 0.0022800148 -0.07147123
0.040810034 -0.01595911 0.07812921 -0.059208293 0.11777252 -0.08539042 -0.08700777 0.1268817
0.0032235205 0.0791605 0.12975396 0.003165272 0.03650178 0.04250259 -0.06765732 0.081489615
0.009391103 0.018956646 0.11697982 0.020307003 -0.139369 -0.08969984 0.10761173 0.09256619
-0.06264817 0.07427227 -0.13410348 -0.031957153 0.09836188 0.06515305 0.09585399 -0.13740286
-0.042526633 0.15602146 -0.0786542 0.00732937 0.0615531 -0.07299762 0.10334606 -0.08875864
0.11138504 0.1745825 0.0055082105 -0.0023626043 -0.13747214 -0.03877277 0.0535091 0.096496895
-0.067533314 -0.010708882 -0.07536536 -0.09079474 0.10999946 0.07829463 -0.097076125 0.016053054
-0.042998035 0.0063708466 0.111051865 0.0052566896 0.0016549719 0.11527803 -0.12087445 0.036803402
-0.039829955 0.037371833 -0.05984938 -0.06553744 -0.009067508 0.06689918 0.09283951 0.12500931
0.08949875 0.09412599 -0.06648059 0.041562106 0.12459893 -0.018835178 -0.21595174 -0.10210633
0.08302369 -0.062832944 -0.09296884 -0.16996928 -0.12055242 0.068106964 -0.017150953 -0.008450744
-0.08605148 0.108854316 0.01439562 -0.005699524 -0.009132177 0.08928246 0.026564281 0.013894604
-0.101793006 0.09246285 -0.16414322 0.037270773 -0.07473334 0.05865028 0.006083766 -0.1655795
0.13340929 0.14520904 0.09388646 -0.015845504 0.078844555 0.07320106 -0.08485222 -0.016429437
-0.011907182 0.116219446 -0.080903366 -0.042184822 -0.081666425 0.062185545 -0.017706223 -0.0018518867
-0.04498652 -0.21747388 0.073816426 0.09181365 0.1578654 -0.008595009 -0.10630661 0.11003994
0.023470545 0.031789593 0.018653283 0.071841836 0.1489527 0.045703795 -0.010994674 0.0757311
-0.09631939 -0.08474456 -0.057934705 0.104280695 0.07719952 0.10980377 0.08226452 -0.034255195
0.13814026 0.034836177 0.12866318 0.008889487 -0.009146762 0.06530153 0.019388173 -0.061367713
0.065521725 -0.091267094 -0.051405817 0.08714647 0.013701755 0.01930123 0.010468329 0.083665706
-0.09900651 0.016268874 0.059000604 0.07972418 -0.012712865 0.013515631 0.08456213 -0.08211921
-0.0025967606 -0.04982576 -0.009549578 0.000117924814 0.055359893 -0.05668236 -0.089643225 0.042553768
-0.06976644 0.06824693 0.16540031 -0.067749836 -0.02645396 -0.109436 -0.101018935 -0.07569379
0.09034493 -0.08095885 0.062164363 -0.072503544 0.07133732 -0.029053515 0.116789035 -0.013109402

lstm.bias_ih_l0 f4 [256]
00000000: 7dd7 cabd 441f f9bc 8143 13be 0937 1ebe
00000010: 556f b4bc 8908 59be f752 26be 7c45 903d
00000020: 117f a5ba 5165 4cbe c82b 0cbc a6ac 93bb
00000030: 7792 02be 57f8 0c3d 3efc 34bd 1246 b4bd
00000040: 7d6c 01be 8093 36bb a77c 4fbe a0f5 8ebd
00000050: 117f 113d 4d2a 06bd fb28 58bc b199 003d
00000060: f805 e6bc 8a2d 1f3d 120d b7bd 4ac4 a73c
00000070: 9c3e 5b3c 2b4e 7abe ce14 38be 59da 4fbd
00000080: 6c4f 2fbd b0e9 e7bd f1fd a6bb 3fd8 bbbd
00000090: 9093 9ebd 484b 00be ac80 30be ea3f 09be
000000a0: 722a b73c 55be 4ebd 1bb3 8c3c cce4 00bd
000000b0: fb91 07bd 9a73 96bd 45c7 d63b 5b5a 27be
000000c0: a24d 06be 4267 96bc 6223 59bd b18a ecbd
000000d0: d008 4fbd daca 763c 300c 8cbd fd6c 69bd
000000e0: d65d 843c d9dd cebd e346 0e3c 8665 4abe
000000f0: 76af 06be e41e 33be 0043 6ebe 3347 81bc
00000100: 766c aa3d 9864 53be f6f5 77bd 3a8b a3bd
00000110: fb1e 41be 260b 1cbe 2d84 69bd e980 3e3d
00000120: 7111 f4bd c9a2 44be b857 56bd 4b59 34be
00000130: 30de 4ebe b485 9fbd d691 7fbc 6aba 0dbe
00000140: 2a60 4abe b7c4 0abe 00c9 f5bd f86d 92bd
00000150: 4f1d d8bd 5da5 52be 3bf9 d83b b2f9 043c
00000160: 6350 03bd f9ef 81bd eba9 cbbd db9d a9bd
00000170: 7c95 b7bd fc81 34be 0441 40bd c9bd 373c
00000180: de42 00be bb78 83bd c045 753d 031a dc3c
00000190: f290 74bb 9a42 563d 9938 e7bd 7e08 53bd
000001a0: 2942 d2bd a5f5 9abd 8f6e 3b3d aad7 eabc
000001b0: 95f1 1fbd 2545 783d ece0 30bd 5e1d 5e3d
000001c0: 4f5f e53c a804 c8bd 6850 083c b3e0 debd
000001d0: 1b99 e8b9 21fb e2bd 59fa 58be 106f 253d
000001e0: 8fdc 21be 00aa 05be 2dc2 12bd 1579 17be
000001f0: eb06 823d eff1 34be a2a0 dabd 0920 dbbd
00000200: 3639 a83c f5bc 803d f983 85bd 276d d53b
00000210: e2b6 58bd bbe9 25bd 256a 86bd f206 3f3d
00000220: 0418 ddbd 0738 d03b babc a83d 5bb7 b1bd
00000230: 4914 aabd b25d b6bd 3fb2 3c3d 225b 96b9
00000240: e011 68bd eb8b 973d 18c6 a13d 32b5 473d
00000250: 61d9 113e bceb 9bbd c047 be3d 5ac2 1fbc
00000260: 3ec0 bf3d e262 aebd 4459 a7bc b662 00bd
00000270: 944c 9cbd f7aa f5bd 7fdd b6bd e31e 92bd
00000280: 087a b5bd ee02 213e 8c3c 563c 9320 efbd
00000290: c9b2 f6bc 65f1 f43d e7d1 38b9 d08a d3bd
000002a0: e831 023d 9bb9 bcbc fa26 07be 4f91 68bd
000002b0: 7981 f63d d567 d73d 5942 e43d d987 0b3e
000002c0: c7b7 a73d f7d0 a53d 3673 d03c 4734 e63c
000002d0: bfd2 863c f957 cd3c 6101 953d de78 703d
000002e0: b1da fcbb 8c84 cf3c 291c 0b3d 8b0c 73bd
000002f0: 13db 88bd d7cf f0bc 769e 6d3d 21fd 6fbd
00000300: 9624 b2bd 40ca 05be bd2e 6bbc bd73 21bd
00000310: 8f77 54be 4153 d8bd 3fd7 2abe 4df4 1cbe
00000320: 4f3c 08bc 1175 08be 72fd 49bc 201c c5bd
00000330: 22ea 2dbe dd98 263d c2c6 12be c28e f6bd
00000340: 847e 0fbd a875 033d 2b15 253d ee75 a1bd
00000350: d9f4 2bbd 73e1 16be 12ae 0ebe 3aff ddbd
00000360: 6ad5 8bbd 6b28 0fbe 0020 e6bd 1269 913d
00000370: cedc 33be a5c8 2dbd 5a51 d5bc 470f 1a3d
00000380: 06d0 023b 8afb 59bd cfc8 623d dc1e 9e3c
00000390: b902 b5bd c063 9a3d 4558 1dbd 8c6c 3fbe
000003a0: 84fb 29be a95f cdbc da2f 38be a89f 01be
000003b0: 6b1c 23be 222f 32be 8c2b ccbd ed04 44bd
000003c0: c92d a7bc cedd 84be 5b1a b5bd fc88 e73c
000003d0: e470 abbd c926 01be e44e a0bd 379f 2abe
000003e0: 6dbc d3bd 9d96 07be 8c6c 7abd ba9c 42be
000003f0: 665d 5f3d 57dc 4dbe 713a 4dbe a282 01be
-0.099043824 -0.030410416 -0.1438122 -0.15450682 -0.022025743 -0.21194662 -0.16242586 0.07044503
-0.001262637 -0.19960524 -0.00855536 -0.0045066653 -0.12751184 0.034416523 -0.04418587 -0.08802427
-0.12639041 -0.0027858913 -0.20262395 -0.06980443 0.03552157 -0.032755185 -0.013193364 0.03139657
-0.028079018 0.03886179 -0.0893804 0.02047934 0.013381626 -0.24443881 -0.17976686 -0.050745342
-0.042800352 -0.11323869 -0.00509619 -0.09172105 -0.07742989 -0.12528718 -0.17236584 -0.13403288
0.022359107 -0.050474484 0.017175248 -0.031468198 -0.033098202 -0.07346268 0.0065545165 -0.16343062
-0.13115552 -0.018359784 -0.05301226 -0.11549891 -0.050545514 0.015063012 -0.06838262 -0.056988705
0.016158026 -0.10100908 0.008683893 -0.1976529 -0.1315287 -0.17492253 -0.23267746 -0.01578102
0.083214685 -0.20643842 -0.0605373 -0.0798554 -0.18859474 -0.15238628 -0.05701082 0.046509657
-0.11917389 -0.19202723 -0.05232975 -0.17612188 -0.20201945 -0.07789174 -0.015598735 -0.13840643
-0.19763246 -0.13551603 -0.12001228 -0.07149881 -0.10552465 -0.20570894 0.0066215075 0.008116173
-0.032059085 -0.06344599 -0.09944519 -0.08282062 -0.08964059 -0.1762771 -0.046937004 0.011214682
-0.12525508 -0.06419512 0.059880972 0.026867872 -0.003731784 0.05230961 -0.11290092 -0.05152177
-0.10266525 -0.07566384 0.045759734 -0.02866729 -0.03904875 0.060612816 -0.043183252 0.054227225
0.027999548 -0.09766513 0.008319952 -0.10882702 -0.0004436456 -0.11083055 -0.2118925 0.04038912
-0.15806793 -0.13053131 -0.03582971 -0.14792283 0.06348976 -0.17670415 -0.106751695 -0.106994696
0.020535093 0.06286041 -0.065193124 0.006513256 -0.052908786 -0.040506106 -0.06563214 0.046637483
-0.10795596 0.006354335 0.08239122 -0.086775504 -0.0830465 -0.0890459 0.046068426 -0.0002867813
-0.056657672 0.07399734 0.078991115 0.048756786 0.1424308 -0.07613322 0.09291029 -0.009750927
0.09362839 -0.08514954 -0.020428307 -0.031344138 -0.076317936 -0.119954996 -0.08928966 -0.071347974
-0.08861166 0.15723774 0.013075959 -0.11676135 -0.030114548 0.11960105 -0.00017625802 -0.10329211
0.031785876 -0.023037722 -0.13198462 -0.056779202 0.12036414 0.10517851 0.11145467 0.1362604
0.081893496 0.080964975 0.025445562 0.0281011 0.016457913 0.025066363 0.07275654 0.058709018
-0.0077164997 0.025331758 0.033962402 -0.059338134 -0.0668241 -0.02939598 0.05801245 -0.058591012
-0.086983845 -0.13065434 -0.014354405 -0.039417017 -0.20748733 -0.105627544 -0.16683672 -0.15327568
-0.00831516 -0.13325907 -0.0123284925 -0.09624505 -0.16983846 0.040673126 -0.14333633 -0.12038948
-0.035032764 0.032094628 0.04030339 -0.078838214 -0.04198155 -0.1473444 -0.1393359 -0.10839696
-0.06827815 -0.13980262 -0.11236572 0.07100119 -0.17564699 -0.042427678 -0.026039768 0.037612226
0.0019960417 -0.053218402 0.055367287 0.019301824 -0.0883841 0.07538557 -0.03841426 -0.18693751
-0.16599852 -0.025070028 -0.17987004 -0.1265856 -0.1592881 -0.17400792 -0.099692434 -0.04785626
-0.020407574 -0.25950474 -0.088429175 0.028263561 -0.083711416 -0.12612452 -0.07827547 -0.16662298
-0.10338674 -0.13241048 -0.061138675 -0.19005099 0.05453243 -0.20103584 -0.20041825 -0.12647489

lstm.bias_hh_l0 f4 [256]
00000000: c5ad 883d 38f7 0dbe cd45 bebd f987 cbbd
00000010: dd29 1ebe 48e3 0ebe 0599 06be 3a69 a0bd
00000020: 4623 33bd edb3 8ebd 8fdb 15be c82e b3bd
00000030: 9fa9 6839 bef5 67bd eaad 833c 5f1c df3c
00000040: 9f69 0bbe a05c 02be 1546 2cbe 9f23 eabd
00000050: 6a0d e73a 9c80 aebc ce37 123d 42ef c53d
00000060: 3cf6 babc da33 1fbc a42a 3abe 1349 ddbd
00000070: d7a5 2bbe 3b09 fdbd de49 82bd 3135 f5bd
00000080: 1adc ecbd df71 963c 349a 933d 3641 58be
00000090: d2ee fcbd f108 38be 39ee 8bbd a270 463d
000000a0: 7c98 eebc 129a 7c3c aa59 33bd d20f 25bd
000000b0: 8607 11be 98eb 19bb c5dd c3bd d3b5 43be
000000c0: ab6e e2bd 8ecc 31be 1841 13be 1972 0f3d
000000d0: 1fba 35bc fbe6 20be 2d2d 41bd 7137 8cbc
000000e0: 3df8 11be 28f4 b2bd cdec b5bd 9307 9cbc
000000f0: 9a61 1bbe 1663 1ebe 27a0 d1bd 286e 77bd
00000100: 080f c7bd c057 3fbe 538d 06be 8875 3dbe
00000110: 2f20 3fbe a91a 28bd cfcf 02be 8f62 003d
00000120: 953a f5bd 674c e6bd 7b37 343d 60ca 37bd
00000130: c967 8f3b 8608 73bc 77bc db3c aeeb e5bd
00000140: 92e1 4cbd 8caa 313d 962f 473d a053 62bd
00000150: b419 41bd fed6 cdbd d927 f5bc 1be7 0dbc
00000160: 9494 23be e5fa 36be e7fd 5cbe a58e 0abe
00000170: bf80 623d a417 3fbe 6672 03be 0348 02be
00000180: 1f90 10be 1d2c febd 764b a5bd cf8e d7bd
00000190: a604 8d3c 0aca 713d 17a6 a7bd b8c8 86bd
000001a0: 4b45 a4bd bfda 9ebd 4c60 83bd 0786 25bd
000001b0: 7c0c c4bd b0fb 6ebc 3324 a0bd d4cb 383c
000001c0: 3dac 19bc da72 edbd c1a3 02be 5713 16be
000001d0: f183 e9bd 774f 2abc 8701 453c 64be 32be
000001e0: cd97 cebc f29b e1bd 2916 ccbd accc 00bd
000001f0: 359b 08be 0694 2fbd 3fd4 58be dbdc f0bd
00000200: 54eb 733b 5b98 0bbd 536d 2f3d f681 313d
00000210: b3aa 683d 7342 073e 8112 d3bd efbb 873d
00000220: da98 133d 6e1b 7e39 c024 ac3d 4441 613d
00000230: ea01 143d b8dc 863d 619b 78bd 9658 9cbd
00000240: 5092 163d 797a 153d dfd8 09be 44df 573d
00000250: 3080 903d 766e b93d 044e 9fbd 6752 aa3d
00000260: 83fa b23d 76dd b4bd b996 40bd d525 e83d
00000270: 8e41 943c 938d 613d 969a 483d a9fa 883d
00000280: d758 fdbd 148c 523d 7d74 b4bc f104 c03d
00000290: 8ca5 0d3d f53e b9bd edd2 bfbd 07a2 7a3d
000002a0: 97ce 793d 3f11 6f3d ec1f 613d 7bf3 d1bc
000002b0: 235b e93d a99b 72bd a77b 323e bc35 5fbd
000002c0: 87fd a63d 474f 953d 0765 ac3d 6d86 233d
000002d0: b1bd ad3d 7340 e1bd 3508 c53d 5545 aebc
000002e0: 44ec ef3c 7bde 703d d6ec cd3b e01d e0bc
000002f0: 949d 963c 56eb ca3d b23d d73c 63b2 3abd
00000300: 83aa 0abc f881 42bd 77ce 90bc fd23 acbd
00000310: b36b cdbd ed27 64be e67a 95bd d85a 56bc
00000320: 5d8d 1dbd 8fda 2bbe 12d5 cbbc 33d4 0fbe
00000330: 0379 29be 26b7 633c a048 85bd 8808 61be
00000340: 1b0a b1bd 093d 003c b2f0 1abe 3c0d 16bd
00000350: 96eb cfbd 84bb aa3c 0dca 833c 10f1 e9bd
00000360: 5afb 14be 7c3b c53b 31d1 3ebe 1f90 5dbd
00000370: 22cb 83bd c25a 01be 8ebf 61be 1703 5ebd
00000380: 624a 62bd 8a94 4b3d 1d93 3ebd 0f3c babd
00000390: c4f1 f9bc f02f 11be a9b0 b83c c0be 33be
000003a0: 1f8f f93c bbd3 14be 97e3 abbc 105d bdbd
000003b0: 27c4 f23b 8d18 f5bd 11f9 6c3d cecb 48be
000003c0: b55f 90bd b755 64be 251b 59bc e4e2 d9bd
000003d0: fdbc 2a3d c51b b7bd f5f9 06be b6cc 73bd
000003e0: 70db 38be b97b bebb f585 38be 926d c5bd
000003f0: 697f b43d cfa8 71be e71b 6dbe 5138 02be
0.06673769 -0.13863838 -0.09290657 -0.09938044 -0.15445657 -0.13953888 -0.1314431 -0.078325704
-0.04373481 -0.06967912 -0.14634536 -0.08749157 0.00022188433 -0.056630842 0.01607414 0.027235208
-0.1361451 -0.12730646 -0.16823609 -0.114325754 0.0017627899 -0.02130156 0.03569775 0.096647754
-0.022822492 -0.009716952 -0.18180329 -0.108049534 -0.16762482 -0.12355276 -0.06361745 -0.11973036
-0.115654185 0.018364845 0.07207146 -0.21118626 -0.12350239 -0.17972161 -0.06832547 0.04844726
-0.029125445 0.015417593 -0.043786682 -0.04029829 -0.14163026 -0.0023486372 -0.095637836 -0.19112329
-0.110562645 -0.17363188 -0.143803 0.03502092 -0.011091738 -0.15713112 -0.047162224 -0.01711628
-0.14254852 -0.08737975 -0.08883057 -0.01904658 -0.15173951 -0.15467486 -0.10235625 -0.060407788
-0.09719664 -0.18685818 -0.13139848 -0.18501866 -0.18664621 -0.04104105 -0.12774585 0.031343993
-0.11974064 -0.11245041 0.043998223 -0.044870734 0.004376386 -0.014833575 0.026823265 -0.11226593
-0.050019808 0.043375537 0.048629366 -0.055255532 -0.047143653 -0.10050772 -0.029926227 -0.008661057
-0.15974647 -0.17869146 -0.21581231 -0.13530977 0.055298563 -0.18661362 -0.12836608 -0.12722783
-0.14117478 -0.12410758 -0.08071034 -0.105252855 0.01721413 0.05903057 -0.08185976 -0.06581253
-0.08021029 -0.07756566 -0.064148515 -0.04041102 -0.09572694 -0.014586374 -0.078194045 0.011279065
-0.009379444 -0.11594172 -0.1275778 -0.14655815 -0.11402119 -0.010394922 0.01202429 -0.17455441
-0.025218869 -0.11016072 -0.09965164 -0.03144519 -0.13340457 -0.042865776 -0.21174715 -0.11760875
0.0037219124 -0.034080844 0.04282887 0.04333683 0.056803416 0.13208942 -0.10306264 0.06627642
0.036034442 0.00024233546 0.08405447 0.054993883 0.036134638 0.065850675 -0.060695056 -0.07634084
0.03676063 0.036493752 -0.13461636 0.052703157 0.070557 0.09054272 -0.07778552 0.08316498
0.087391876 -0.08831303 -0.04701874 0.11335341 0.018097665 0.055066656 0.04897555 0.06688435
-0.123704605 0.05140312 -0.022028202 0.093759425 0.034581706 -0.09045211 -0.09366403 0.061189678
0.060988035 0.058366057 0.054962084 -0.025628796 0.11394336 -0.05923048 0.17429982 -0.054494604
0.08153825 0.072905116 0.08417707 0.03992312 0.084834464 -0.10998621 0.09620706 -0.021273294
0.029287465 0.058805924 0.0062843366 -0.027357996 0.018385686 0.09908168 0.026274536 -0.04558028
-0.008463505 -0.04748723 -0.017676575 -0.08405302 -0.100303076 -0.22280855 -0.07298832 -0.013083182
-0.038464893 -0.16782592 -0.024881873 -0.14045791 -0.16550069 0.013898646 -0.06507993 -0.2197591
-0.086445056 0.007827052 -0.1513088 -0.036633715 -0.10152356 0.020841368 0.016087556 -0.11422932
-0.14549008 0.006019054 -0.18634488 -0.054092523 -0.06435229 -0.12632278 -0.22045729 -0.054202165
-0.05524672 0.049702205 -0.046527017 -0.090934865 -0.03051079 -0.14178443 0.022545176 -0.17553234
0.030463753 -0.14533894 -0.020982547 -0.09246266 0.007408637 -0.11967573 0.057854716 -0.19608995
-0.07049505 -0.22298323 -0.013251101 -0.10638979 0.04168414 -0.089408435 -0.13181289 -0.0595214
-0.18052459 -0.0058130887 -0.1801985 -0.096400395 0.08813364 -0.23599552 -0.23155175 -0.12716796

lstm.weight_ih_l0_reverse f4 [256, 32]
00000000: 0eb4 f73d 4fa8 3cbe 54fa 76bd e58d 92be
00000010: cd60 18be 8d2e 61bd 5ce5 86bd 93fd 08be
00000020: cca7 053d d8fc 3fbd 29d7 30be 63ca 42be
00000030: 2fa4 293d e3a7 c7bd 6aa2 1fbe e85a 4cbe
00000040: da40 0bbe af27 1ebe 6f73 d33d ef14 23be
00000050: 18bd 8c3a 595e 98be 2bdf 523d 068a e5bd
00000060: 9bac c53d fcb1 04be 931d 4fbe 3d8d fcbd
00000070: 54f4 14bd bf9e 71be 9733 063e f38f c83d
00000080: c0d0 05be 8943 5bbe bcb6 82bd c738 babc
00000090: 2c45 86bd b2b8 6abd cd0d 52bc 19e6 a9bd
000000a0: 2f58 c0bd 1561 023d eef9 173d 5c5b 13be
000000b0: b91b acbd 8db7 8ebd f976 8abc 9e36 e9bd
000000c0: 0af2 47bd be21 083d a594 283c c192 50be
000000d0: 81af 1c3c 56b3 ec3b de27 8d3d 3367 40be
000000e0: 12d8 25bd bf28 8bbd f978 0ebe 7370 25bd
000000f0: 95b4 19bd 1821 3fbe 7f5b d23b 39f9 e3bd
00000100: 6ffa 05bd 629f 6bbe 891d a9bc 0867 07be
00000110: 2da4 87be 02b2 77be eabe d1bd ccec 2cbe
00000120: de92 59bd b0dd 98bd b581 77bd 922b 93bd
00000130: d5a8 2b3d cce6 42be 7add 463d bda6 a03d
00000140: a9c1 97bd 4b2a c13d 90b0 68be e12b 21be
00000150: a294 5dbe a4c1 fd3d 3fd0 edbc 0208 843c
00000160: 0044 5abd 3195 53bd d406 babd bb36 8cbd
00000170: 425c 52be 2ed8 7a3d 5c4d d2bb cb01 62be
00000180: 9b2b eebd 388f 5cbd 2285 24bc aa84 ba3d
00000190: aef2 cdbd ce43 fabd 6276 74be 5c71 c33c
000001a0: b21c 37be 6f5f 78be 6dae 84be 0065 0f3d
000001b0: 6ed0 04be 02fc d0bd 9df1 bfbc 870c 5bbd
000001c0: bdde f9bc c6a0 41bd 5f0e 5cbe 8476 6fbd
000001d0: 288b 28be 1d51 dd3b 4fae 9fbe e892 923d
000001e0: a7b9 4fbd bacd 39be a850 2c3d 6c2d 03be
000001f0: 3664 06be 3d65 6c3d b73c 1dbc 8943 58be
00000200: fed7 123e 73db 0cbe 57ab acbd 394c d43c
00000210: db95 933b 565a e5bc 6673 fabd 71c1 093d
00000220: 9265 873d fb74 f13c 8192 4a3c 5c44 9abd
00000230: a91f 623e 8a80 28bd a205 753d bd96 95bc
00000240: 4b9f bcbd f3ab a6bd a572 733e 44f9 aebd
00000250: 81e2 973e b5de cebd 31f2 d53d 335f ffbd
00000260: bcd1 0c3e e11d bc3d ba25 12be 00d9 5dbe
00000270: a726 1fbd 005a debd 26a5 a03d d1de d13d
00000280: 7598 01be 0796 4dbd a0b9 a9bd c537 38be
00000290: 0e4e edbd 302f edbd 532f 08be afa6 03be
000002a0: bb98 36be 6279 5e3d 1764 d93b a42f 883d
000002b0: 3083 0bbd 065e b2bd 5af2 283d bb34 72bc
000002c0: 92a4 abbd 6d1a 6d3d c0f7 43bd 7d77 90bd
000002d0: 7718 2fbe 28bb 723d c7fb a2bd 53fa c3bc
000002e0: 5e8b 26be 33d6 97bd e513 05be 209a 4a3d
000002f0: f730 24bd 9866 0b3c 2633 c4bd eed3 ec3c
00000300: 4fc5 26bd 7789 4dbe ee18 84bd 33f1 59bd
00000310: 5a41 23be 0971 11be 54be 8a3d 6aa0 07be
00000320: 8182 9fbd 3b36 973c 05b3 2cbe 04cd 8bbd
00000330: 7d72 2b3d 02e1 17be 4baa 383d caec 423d
00000340: 8ac9 903c a9d7 36be 38ce 02be fd95 623d
00000350: 42b1 13bd 7a6f 56bd b249 f0bd f62c a6bd
00000360: afc3 0d3d f794 873b 9bdc 5abe f5c3 a2bd
00000370: 9904 8bbc b966 02be de3d b53b 078f 8ebd
00000380: b6ff 1bbe 3be2 01be 5b05 96bd 2f2e e8bc
00000390: a381 e9bd 97d3 28be 5250 a7bd 01ca cabd
000003a0: 3553 4e3c f280 d23c 6703 2dbe ee82 30be
000003b0: bca6 72bc 2ce5 55be d256 9dbd d7fd 1cbe
000003c0: efab babd c6f8 cbbd 5a22 49be d732 c8bc
000003d0: 8586 1cbb 0767 47be f8a8 b9bd 5413 36bc
000003e0: 3a38 24bc 136b 683c fb69 14be 71b9 04be
000003f0: 458e 46be d3bc b2bd a9ef 4f3c 62c4 cb3c
0.120948896 -0.1842358 -0.060297325 -0.28623882 -0.14880677 -0.054976035 -0.065867156 -0.13377981
0.032630727 -0.04687199 -0.17269577 -0.19022517 0.041416343 -0.09748819 -0.155893 -0.19956553
-0.13598958 -0.15444826 0.103247516 -0.15925954 0.0010737507 -0.29759482 0.05148236 -0.112079665
0.096520625 -0.1295852 -0.20226125 -0.123316266 -0.036365822 -0.23595713 0.13105617 0.09793081
-0.13067913 -0.21412481 -0.0638251 -0.022732152 -0.06556162 -0.057305045 -0.012820673 -0.08295841
-0.0939182 0.031830866 0.037103586 -0.1439032 -0.08403725 -0.06968603 -0.016902434 -0.113873705
-0.04881481 0.033235304 0.010289346 -0.20368482 0.009563328 0.007223527 0.0689237 -0.18789367
-0.040489264 -0.06794881 -0.13913335 -0.040390443 -0.037525732 -0.18664968 0.0064195986 -0.1113152
-0.032709535 -0.23010018 -0.020643966 -0.13222897 -0.26492444 -0.24188998 -0.10241492 -0.16887206
-0.05311858 -0.074641585 -0.060426433 -0.07186045 0.041909058 -0.19033355 0.04855106 0.07844303
-0.074099846 0.09431895 -0.22723603 -0.15739395 -0.2163873 0.1239045 -0.029029964 0.0161171
-0.053287506 -0.051655952 -0.090833336 -0.068463765 -0.20543006 0.06124132 -0.0064179134 -0.22070996
-0.11629411 -0.05384752 -0.010041507 0.09107335 -0.10056053 -0.12219964 -0.23873284 0.023857765
-0.1788204 -0.24255155 -0.25914326 0.03500843 -0.12970135 -0.10204317 -0.02343064 -0.053478744
-0.030501718 -0.047272466 -0.21489857 -0.058462635 -0.16459334 0.006754054 -0.31187674 0.071569264
-0.05071416 -0.18144885 0.042069107 -0.12810296 -0.13124165 0.057713736 -0.009596995 -0.21119513
0.14340207 -0.13755588 -0.08431118 0.025915252 0.004503948 -0.027997177 -0.12229042 0.033631746
0.0661117 0.029474726 0.012364031 -0.0753257 0.2208239 -0.04113821 0.059819825 -0.018260354
-0.0921007 -0.081382655 0.23774202 -0.085436374 0.29664996 -0.10101072 0.10446585 -0.1246933
0.13751882 0.091853864 -0.14272204 -0.2166481 -0.03885522 -0.1085701 0.078439996 0.10247577
-0.12655814 -0.050191905 -0.08287358 -0.17990024 -0.115871534 -0.11581266 -0.13299303 -0.12856553
-0.178317 0.05431498 0.006634246 0.06649712 -0.034060657 -0.0870934 0.04124675 -0.01478308
-0.08380999 0.05788653 -0.047843695 -0.070540406 -0.17099176 0.059260517 -0.07958179 -0.023923075
-0.16264102 -0.07413902 -0.1299587 0.04946339 -0.04008576 0.008508347 -0.09580068 0.02890965
-0.040715512 -0.2007197 -0.064500675 -0.05320854 -0.15942898 -0.14203276 0.067745835 -0.13244787
-0.077885635 0.018458476 -0.16865166 -0.06826213 0.04185723 -0.14831927 0.04508428 0.0475891
0.017674226 -0.17855705 -0.12773979 0.05531882 -0.036057718 -0.052352406 -0.11732806 -0.08114044
0.034610447 0.004137631 -0.21373217 -0.07947532 -0.016969966 -0.12734498 0.005531057 -0.06960874
-0.15234265 -0.12683956 -0.0732524 -0.028342335 -0.11401679 -0.16486965 -0.08169617 -0.099018104
0.01259308 0.025696252 -0.16895829 -0.17237446 -0.01481026 -0.20888203 -0.07682575 -0.15331207
-0.09114825 -0.09959559 -0.1964201 -0.024438305 -0.002388389 -0.19472896 -0.09065431 -0.011113007
-0.010023171 0.014185685 -0.14493553 -0.12961365 -0.19390209 -0.087274216 0.012691417 0.024873916
