backend/cnn_lstm_checkpoints/cnn_lstm_epoch_4.pth (torch, 788573 bytes, 64 tensors)

cnn.0.weight f4 [16, 1, 3, 3]
000000 44 f2 52 3e bc a9 44 3d 52 e8 07 be 46 5c 17 3d
       0.2060023 0.048013434 -0.13272217 0.036953233
000010 5e ce 6b 3e 3e 0d c5 bc 75 f8 51 3d 22 35 9a bd
       0.23027942 -0.024054166 0.051262338 -0.075296655
000020 f0 cf 95 3e 09 ea 82 3e bc 99 8d be dc d8 a6 3d
       0.29260206 0.2556918 -0.27656353 0.081468314
000030 da 69 17 3e 26 32 af be 96 45 87 be e8 b3 9e 3e
       0.14786473 -0.34217948 -0.26420277 0.30996633
000040 d2 5b 46 3e 07 94 72 3d 77 87 2c 3e 09 c7 61 be
       0.19370964 0.0592232 0.1684855 -0.22048582
000050 e1 6d fb 3d ec 0e 56 be 77 54 be be 8e 1d bf be
       0.12276817 -0.2090413 -0.37173817 -0.37327236
000060 57 82 0d 3e 55 38 51 be 73 fa 48 bc 3c 4b e2 bc
       0.13819252 -0.20431645 -0.012266743 -0.027623765
000070 e4 c7 da bd 9d 9e a3 3d 5e 60 17 bd 5d f1 2d be
       -0.10682657 0.079892375 -0.036957137 -0.16986604
000080 47 6f 1e be df c8 2a be 69 a2 84 be 41 39 3d be
       -0.15472136 -0.16678189 -0.2590516 -0.18478872
000090 b4 e1 85 3e 27 32 00 3e 5d 2a 27 3e 08 46 09 3e
       0.2614876 0.12519132 0.16324754 0.13405621
0000a0 3b cb 0f 3e 92 f8 b0 3d 97 9b 6a be 4d 2c 70 be
       0.1404237 0.08641161 -0.22910915 -0.234544
0000b0 99 6f a7 3e 23 7d a7 be 5f b0 12 3e d9 98 e0 3d
       0.3270233 -0.3271266 0.14325093 0.109666534
0000c0 af 98 3b 3e 0d 73 c5 3d 7b ae f4 bd 3a 2f 91 be
       0.18319963 0.09641085 -0.11947342 -0.28356344
0000d0 96 8d 7e be 45 9e 39 be f9 6d 66 bd 6c 5f 8e 3e
       -0.24858698 -0.18126781 -0.05625722 0.27807176
0000e0 18 99 8b 3e 3a 87 5d be 3f 9e 94 3e 87 79 88 be
       0.2726524 -0.21633616 0.29026982 -0.26655218
0000f0 75 2b 99 3d 39 93 8b 3d a1 4b 7c 3e 1e 0a 14 be
       0.07478992 0.0681519 0.24638225 -0.14456984
000100 02 09 3d 3e a2 34 ad bd 48 30 34 be 78 d2 ad be
       0.18460467 -0.084573045 -0.17596543 -0.33949637
000110 eb c7 22 3e 8a c5 6f 3e c5 a5 90 3e 88 e2 b0 be
       0.15896575 0.23415199 0.28251472 -0.3454783
000120 d1 17 15 be cf d2 e5 bd 4f 38 da bd 95 f1 ab 3d
       -0.14559866 -0.11221849 -0.10655271 0.083956875
000130 74 8b a9 3d b5 46 16 be c2 ed 91 be f8 01 ed 3d
       0.08278552 -0.1467541 -0.28501707 0.11572641
000140 5e 0a 1c 3e 30 e7 00 3e 5b ca 1c bb 28 bf 99 bd
       0.1523833 0.12588191 -0.0023924324 -0.07507163
000150 3a c4 19 3e 63 ea 5e 3e cb 81 57 3e c9 28 76 bd
       0.1501626 0.21769099 0.21045606 -0.06009749
000160 18 aa ac 3e 6f 45 b4 3e 8e b2 83 be 86 52 99 be
       0.3372352 0.35209224 -0.25722164 -0.29945773
000170 26 9b a4 3b ef ea 36 be a2 99 51 3d a6 ff c3 bd
       0.005023378 -0.17863058 0.051171906 -0.095702454
000180 85 70 44 3e eb 2f f0 3c 9a b9 37 3e b6 b7 14 be
       0.19183548 0.029319724 0.17941895 -0.14523205
000190 cc b5 74 3e bb 85 b6 3e 8b b9 8e 3e 72 96 be 3d
       0.23897475 0.35648903 0.27875933 0.09306039
0001a0 40 04 3c be 90 ca 2c 3d df ec 5b bd b7 e1 ee 3b
       -0.18360996 0.042185366 -0.053692695 0.007290091
0001b0 86 81 8c bb 78 49 b4 3d 9f 00 59 3e e3 a9 fc bd
       -0.0042879013 0.088030756 0.21191643 -0.12337091
0001c0 00 8b 85 be 23 01 b7 be 81 03 69 be 4b 2c 46 be
       -0.2608261 -0.35743055 -0.22755243 -0.19352834
0001d0 c6 11 54 3c 84 d6 77 3e 49 52 60 3e 7f fe 9e 3e
       0.012943691 0.24202925 0.2190639 0.3105354
0001e0 c4 f4 7a 3e 8d f6 27 be 33 28 63 3e 3a fe 72 bd
       0.24507433 -0.16402645 0.22183304 -0.05932448
0001f0 e7 4a 8f bc e5 7a 69 3d 76 11 b6 3e c8 a8 4b be
       -0.01749177 0.057001967 0.35560197 -0.19888604
000200 fd 11 b1 3e 84 63 0d be 3a 17 81 3e 4f 08 52 3e
       0.34584036 -0.13807493 0.25213033 0.20510982
000210 98 6f 01 3e 2f fa 2f be 4a e1 88 bd 20 1e 11 3d
       0.12640226 -0.17185281 -0.066835955 0.03542912
000220 ac ff 51 3e 91 01 a9 be 3a 34 0c be 8b e6 ba be
       0.20507687 -0.33009008 -0.13691798 -0.36504015
000230 6a 67 1a be f5 bf ef 3d 84 c3 79 bd 9f 39 0d 3e
       -0.15078512 0.11706535 -0.060977474 0.13791512

cnn.0.bias f4 [16]
000000 b5 b5 d9 bd 85 3f 1b 3d c4 09 35 3d 7d 23 26 3e
       -0.10630361 0.037902374 0.044198766 0.16224475
000010 c0 9d 14 bd d8 ec bb bd 04 bc f2 bd 1b 97 93 be
       -0.036283255 -0.09176034 -0.118522674 -0.28826222
000020 c2 2a c8 bc d8 20 1b 3e 00 78 9d 3e 75 ce 7d be
       -0.024434451 0.15149248 0.30755615 -0.24785788
000030 bf 41 32 bc 0d 89 51 be fe 37 a9 3e 13 e2 6b bd
       -0.010879933 -0.20462437 0.3305053 -0.057588648

cnn.1.weight f4 [16]
000000 58 2c 85 3f 03 4c 8a 3f 3b ba 73 3f 7b de 81 3f
       1.0404158 1.0804447 0.9520604 1.0146021
000010 7b 46 7c 3f 13 14 7f 3f 2c 54 7b 3f 09 f7 70 3f
       0.98545045 0.99640006 0.9817531 0.94126946
000020 ad a5 88 3f cf e0 75 3f f8 4f 81 3f 54 0e 65 3f
       1.067556 0.96046156 1.010253 0.8947499
000030 a2 fb 77 3f 5f a2 88 3f 96 75 6b 3f 63 d9 84 3f
       0.96868336 1.0674552 0.91976297 1.0378841

cnn.1.bias f4 [16]
000000 1b ab 2f 3d 70 bd c7 3d 84 16 85 bd 6a 0d aa bc
       0.04288779 0.09752929 -0.06498435 -0.02075835
000010 ca 42 2f bd d6 19 b3 3c 3b 9b b6 bb d6 7b 04 bd
       -0.042788304 0.021862905 -0.005572704 -0.03234466
000020 99 5a 8d 3d 8d 11 bd ba 7f ae 0b 3d f8 c9 f1 bd
       0.06902046 -0.0014424786 0.03410196 -0.118061006
000030 70 8e 4d bd 84 f5 59 3d f6 d3 d8 bd db 73 7d 3c
       -0.050184667 0.053212658 -0.10587303 0.015469517

cnn.1.running_mean f4 [16]
000000 ea 0e db bd 26 d1 11 3d c6 89 34 3d 2f 58 26 3e
       -0.10696204 0.03559985 0.044076703 0.16244577
000010 e5 e3 12 bd 35 14 b6 bd 1a cf f5 bd e0 b1 94 be
       -0.03586187 -0.08890573 -0.12002392 -0.29041958
000020 56 ea c5 bc ea f9 1a 3e 36 40 9d 3e bd 0f 7d be
       -0.024159592 0.15134397 0.30713052 -0.24713035
000030 5f 9d 3c bc b4 7f 4e be f2 e4 aa 3e c9 7c 76 bd
       -0.01151213 -0.20165902 0.33377796 -0.0601776

cnn.1.running_var f4 [16]
000000 d1 71 b6 3e 22 70 b7 3d b3 67 65 3f 12 0a 74 3f
       0.3563371 0.089569345 0.8961136 0.95327866
000010 94 59 0f 3f db e0 c0 3e df d3 d7 3e ae 24 94 3d
       0.5599606 0.3767155 0.42153832 0.072335586
000020 2c c4 00 3e 76 f2 b7 3f 02 87 4f 3e e1 5d be 3e
       0.12574834 1.4370868 0.20266345 0.37181
000030 50 be 39 3f 7d a7 80 3f 10 05 ed 3e c1 95 9f 3e
       0.7255602 1.0051113 0.46292925 0.3116894

cnn.5.weight f4 [32, 16, 3, 3]
000000 dd 0b ed 3d 0e 7f d7 3d a0 79 e6 3d cc c9 3d bc
       0.11574528 0.10522281 0.11253667 -0.011583757
000010 5b 17 85 3c f1 75 80 3d 0c cc fa 3d 27 71 ba 3c
       0.016246488 0.062724955 0.1224595 0.022759033
000020 2c 37 25 3d bb 6a 5f bd 8d 37 b3 3d dd 32 84 3d
       0.04033582 -0.054545145 0.0875083 0.06455014
000030 cf 74 b6 3d 74 a3 c0 ba cd 39 5e bd f4 28 cf 3d
       0.08908998 -0.001469715 -0.054254342 0.10115233
000040 ac 46 91 3d d4 b6 16 3d b7 cc 16 bd 99 29 b0 bd
       0.07093558 0.036795452 -0.036816325 -0.08601684
000050 76 ad 74 ba a8 9a 23 3d a7 72 66 bc 72 8f 40 3c
       -0.0009333709 0.039942414 -0.014065421 0.01175295
000060 73 2b 32 3c 44 47 4c 3d cd 57 84 3d ef 18 0a 3a
       0.010874617 0.04987265 0.06462059 0.00052679976
000070 17 a1 b6 bd 99 c9 b3 bd 46 05 59 bd c8 2e 4d 3c
       -0.08917444 -0.08778686 -0.052983545 0.012523361
000080 e4 af 74 3d a2 b4 43 bb 3b 76 c4 bd 16 18 46 bd
       0.059738055 -0.0029862304 -0.09592863 -0.048362814
000090 e6 fa 14 3d 5e 09 0a bc 4f 2b 88 3d a9 ef 23 3d
       0.036372088 -0.008425085 0.066488855 0.04002348
0000a0 83 c8 66 3d 12 73 2c 3d 5c 6e 58 3c c1 98 73 3d
       0.056343567 0.042101927 0.0132099055 0.05947185
0000b0 be 5d 40 3d 6a 1b ff 3b 84 28 3c 3b c8 e9 6e 3c
       0.0469644 0.0077852504 0.0028710673 0.014582105
0000c0 6f 3e dd 3c b6 4e a8 bd 81 17 fc bb c7 6c ec 3c
       0.02700731 -0.08218138 -0.0076932316 0.028860463
0000d0 34 01 15 3d ed 94 39 3d 30 f3 5e bc 81 00 c4 3b
       0.0363781 0.045308042 -0.013607785 0.0059815054
0000e0 ef 4e 72 bd 3f cf 5c bd 79 ef 7b 3d 56 cd 72 bc
       -0.05915731 -0.053908583 0.061507676 -0.014819464
0000f0 02 23 b4 3d d6 1d 9c 3d d9 73 91 bd c2 5d 6a 3d
       0.0879574 0.07622878 -0.07102174 0.05721832
000100 7d 43 d5 3d 45 08 75 3d 65 b9 c1 3b 68 19 3a 3d
       0.10413263 0.05982234 0.0059119933 0.045434386
000110 65 d2 59 3d 0f c9 4e 3d 72 5c d0 3d d0 93 be 3d
       0.053179163 0.050484713 0.101738825 0.09305537
000120 d7 1d 99 3d e6 f6 6e 3d 22 9b a4 3d 0f c6 b2 3d
       0.074763946 0.05834093 0.08037402 0.08729183
000130 89 ae 5d 3d 5d 37 eb 3d d6 ee 4d 3d 3a f6 b8 3c
       0.054121528 0.11485169 0.0502766 0.022578347
000140 0e d7 a8 3d 50 50 c1 bc 95 ca 16 3d 0f e7 19 bc
       0.082441434 -0.023597866 0.03681429 -0.009393468
000150 56 77 a9 bc 70 67 50 3d b5 a1 fb 3d 2b 2e dd 3d
       -0.020686787 0.050879896 0.122867025 0.107998215
000160 92 47 42 bc 6d eb 6e bb 6a 5e 42 bd 8b a4 13 3c
       -0.011857884 -0.0036456243 -0.04745332 0.009011398
000170 a3 27 1b bd da 5d bf 3d bc b5 83 3d 1f 22 a3 3d
       -0.037879597 0.09344073 0.064311475 0.079654925
000180 a6 43 d6 3b 79 b4 ed 3d 18 cb ab 3c d9 f4 a2 3c
       0.006538826 0.11606688 0.020970866 0.019892143
000190 51 c5 fc 3b 28 87 28 bb 68 ea 95 3d f8 cd 33 3d
       0.0077139516 -0.0025715325 0.073201 0.0438976
0001a0 12 67 16 bd 06 6d ec 3c 4d 30 92 bc 83 5e b6 3d
       -0.03671939 0.02886058 -0.017845297 0.089047454
0001b0 34 a4 c9 3c d1 39 06 3e 67 cb 29 3d 41 07 04 3e
       0.024614431 0.13107993 0.041453745 0.12893392
0001c0 f8 6c cc 3d 1d 37 a6 3c 5e cc 90 3c 74 b0 86 3d
       0.09981722 0.020289952 0.017675575 0.065766245
0001d0 77 3a ac 3d 55 bd 31 bd 3d 1c c0 bc 63 2b 99 3d
       0.08409589 -0.04339345 -0.023450965 0.074789785
0001e0 2a 5d 10 bd 13 99 bf 3c 6f 8d 5f 3c ef f1 45 bd
       -0.0352451 0.023388421 0.01364456 -0.04832643
0001f0 b3 b7 ee 3c c4 e1 30 3d 83 98 34 bd 51 31 f0 bd
       0.029140329 0.043184057 -0.04409076 -0.11728156
000200 d3 63 e2 bd 34 7a 92 bd 42 d9 8b bc 6e 8e fa bb
       -0.11054196 -0.07152215 -0.01707137 -0.0076463735
000210 c9 a8 d6 bc a4 7b 10 bd 34 74 50 ba 0d 5c 76 3d
       -0.02620353 -0.035274163 -0.0007951886 0.06014638
000220 1c 55 0d bd 55 a1 99 3d 88 ea 48 3c 7a c8 f4 3a
       -0.034504995 0.07501475 0.012262948 0.0018675469
000230 46 b4 39 bc 55 b7 6c bc 68 ff 72 3d 66 dc 15 bd
       -0.011334484 -0.014448007 0.059325606 -0.03658714
000240 2b 78 54 bc af d7 ae bb 33 d4 89 bc 15 ad bd bc
       -0.012968103 -0.00533577 -0.016824817 -0.023153821
000250 ee 98 89 bd a9 6c 94 bd 96 86 0b 3c d6 77 a3 3c
       -0.06718622 -0.07247288 0.0085159745 0.019954603
000260 82 62 d0 bc db 2f b0 bd 14 63 6f 3d 0c 66 44 bd
       -0.025437597 -0.08602878 0.058444098 -0.047948882
000270 11 27 ad bd e4 08 97 3c ac 46 6f 3d 5c 9b 6e bd
       -0.08454717 0.018436857 0.058417007 -0.05825363
000280 44 67 a3 bd 34 53 6e bc fb 6a be bc b4 b3 35 bc
       -0.07978681 -0.014546204 -0.023244372 -0.011090208
000290 e0 05 c6 bd 66 9d 50 bd 30 ca 6b bd 35 c7 11 bd
       -0.09669089 -0.050931357 -0.057565868 -0.03559037
0002a0 69 69 ca bd 40 84 ea bc 9a 27 ab ba f2 ec 62 3b
       -0.09883387 -0.028627515 -0.0013058067 0.0034626094
0002b0 23 df db bd 87 1a 7e bd 5b 75 03 3c 6f b1 c1 bd
       -0.10735919 -0.062037017 0.008023585 -0.09457671
0002c0 1d 49 a4 bd cb 95 be bc c9 32 9b bd 64 0b e3 bc
       -0.08021758 -0.023264786 -0.07578046 -0.027715392
0002d0 7f 30 06 3c 42 27 a9 3d bb 72 8a bc bc 45 cd bc
       0.008190273 0.08259441 -0.01690041 -0.025057666
0002e0 88 71 85 3d 05 dc a3 bd 1a 0a 24 3b 3c 31 83 bd
       0.06515795 -0.0800095 0.0025030435 -0.06405875
0002f0 1e 35 d1 3c 6c fd 34 bd ef 86 4f bd 6b ad 94 bc
       0.025538024 -0.044186994 -0.050665792 -0.018149098
000300 76 50 0b 3c 44 1d a4 bd c1 eb 39 bc 3d 75 4b 3d
       0.00850307 -0.080133945 -0.011347712 0.049672354
000310 c7 78 90 3c c0 1a 40 3d f1 72 28 3d b8 b7 c3 3c
       0.017635716 0.04690051 0.04112524 0.023891315
000320 32 6a 29 3d 46 08 56 3d 2f e9 3f 3c 22 12 6f 3d
       0.04136104 0.052253984 0.01171331 0.058366902
000330 fe 52 3b 3d 0d ab eb 3c 0a 87 95 3d de f7 88 3d
       0.045733444 0.028768087 0.07301147 0.06687902
000340 e6 8f 9c bc 34 c2 8c 3d 48 9f ef bb ba 1e 1b 3d
       -0.019111585 0.06872979 -0.007312689 0.0378711
000350 4c ac bb bd 53 cb 91 3b 36 90 f4 3c 6e a1 9f bb
       -0.091637224 0.004449287 0.029853921 -0.004871539
000360 30 84 34 bd 42 8a 01 be 12 ab e9 bd ee fe 8b 3b
       -0.044071376 -0.12650397 -0.11409582 0.0042723333
000370 09 5a 16 be bf f0 ed bd 70 65 ff bd a6 ac e4 bd
       -0.14682783 -0.11618184 -0.124705195 -0.111657426
000380 88 ce d3 bd d9 79 13 bc 5f b0 e2 3c aa ac 66 3d
       -0.10342127 -0.009001219 0.02767199 0.05631701
000390 13 84 2c bd f5 75 91 3d 3e b7 4a bd 6c c9 99 bd
       -0.042118143 0.07102577 -0.04949116 -0.07509121
0003a0 2e c4 7e 3d 6d bb bf 3c 95 90 9a bd 27 98 b6 bc
       0.06219881 0.023404801 -0.07547108 -0.022289349
0003b0 08 de a6 3c 9d d3 fe bb 14 35 07 bc d4 2a 8c 3d
       0.020369545 -0.007776691 -0.008252401 0.06844106
0003c0 92 54 f9 3c ec e2 7f bd e6 cd f9 bc 85 04 c3 bc
       0.030435834 -0.06247227 -0.030493688 -0.023805866
0003d0 74 97 84 3c b0 0a 6c bd 3e a2 4a 3d 3e 25 da 3c
       0.0161855 -0.05762738 0.049471132 0.026629087
0003e0 e2 39 4c 3d 82 51 88 3d ac 25 85 bd 3a 60 09 3c
       0.04985989 0.066561714 -0.06501326 0.008384759
0003f0 06 0d 80 bd 44 7b f2 bc ff fd d5 bd 1d f2 9b bc
       -0.06252484 -0.029599793 -0.104488365 -0.019036347

cnn.5.bias f4 [32]
000000 4e ac 3b bc c7 86 84 bd 26 13 3c 3d 9e b7 ca 3d
       -0.011454655 -0.06471019 0.0459167 0.098983034
000010 31 de 80 bd 88 19 d6 3d b6 17 fa bb 62 bf 05 3d
       -0.0629238 0.104540884 -0.007632221 0.03265322
000020 bd c4 77 bd 7b 5c 8e bd 33 de 9b 3d ad e0 82 3d
       -0.06049036 -0.06951233 0.076107405 0.0639051
000030 57 23 a1 3c 9f 7d 61 bd c7 bd c2 bc fe 47 7e bd
       0.019670172 -0.055051442 -0.023772134 -0.062080376
000040 6f 1d 65 bd fd 81 91 bc a2 b5 bf bd a7 db 81 ba
       -0.055936273 -0.017762179 -0.093608156 -0.000990738
000050 4f a6 3f bc 24 7f 27 3c 10 48 44 3d 46 99 7f bd
       -0.011697366 0.010223184 0.047920287 -0.062402032
000060 f4 4a dc 3d 7a 5a 86 3d 5c ab 7f 3d fc af 0d bd
       0.10756484 0.06560226 0.06241928 -0.03459166
000070 9d 37 37 bd 88 f9 90 bb 37 1d 7a bd 81 f9 ae 3c
       -0.04473077 -0.0044242777 -0.061063018 0.021359207

cnn.6.weight f4 [32]
000000 ee 2b 74 3f 38 5e 82 3f 1e cf 7f 3f 80 ad 7b 3f
       0.9537953 1.0185003 0.9992541 0.98311615
000010 08 5b 81 3f c9 b2 73 3f 89 9f 80 3f 6f ab 7a 3f
       1.0105906 0.9519468 1.0048686 0.97917837
000020 2f 62 71 3f bb 93 7f 3f 2f 1e 7b 3f 1e 13 80 3f
       0.9429044 0.99834794 0.9809293 1.0005834
000030 30 80 76 3f 35 d4 86 3f ef ad 7b 3f 1b 07 6c 3f
       0.9628935 1.053351 0.98312277 0.9219834
000040 10 18 6c 3f 90 39 75 3f 23 59 7c 3f 23 64 7b 3f
       0.92224216 0.9579096 0.9857351 0.9819967
000050 5b 08 77 3f ae 24 7e 3f e5 86 72 3f 65 f3 75 3f
       0.96497124 0.9927472 0.9473708 0.96074516
000060 dd cf 7d 3f 5e c9 7b 3f 2a 3a 81 3f d1 e8 7a 3f
       0.991453 0.98354137 1.0095875 0.980115
000070 0b eb 7b 3f 91 4c 7c 3f 9d 09 78 3f 98 e7 82 3f
       0.9840552 0.9855433 0.9688967 1.0226927

cnn.6.bias f4 [32]
000000 76 bf f0 bc ab 7e bf 3c e0 4f 3e 38 ab 08 56 bc
       -0.02938817 0.02337583 4.537392e-05 -0.01306359
000010 bb 90 41 3c c5 a3 4b bd bc de 2b 3c 3b dc 5f bc
       0.011814292 -0.04971673 0.010490116 -0.013663347
000020 d1 c1 87 bd 86 3c 51 3b e5 bd 92 bc 02 6e 11 bd
       -0.066287644 0.0031926944 -0.017912814 -0.035505302
000030 63 c0 df bc 6a 39 93 3d 9d 78 41 bc 26 c1 71 bd
       -0.027313417 0.07188685 -0.011808542 -0.05902209
000040 54 36 90 bd 12 65 f1 bc 7b 48 cc bc 2d 20 0c bc
       -0.07041612 -0.02946714 -0.024936905 -0.008552593
000050 b7 67 15 bd 75 fa da 3a 19 a5 13 bd ed 3f da bc
       -0.036475863 0.0016706722 -0.03604612 -0.02664181
000060 0d 6e 1f bb 58 be 14 bd c9 0b 13 3c 83 8a 9a bc
       -0.002432707 -0.03631434 0.008974978 -0.018864876
000070 6f 40 09 bd 49 dc 45 bc ac bf 08 bd da c8 60 3c
       -0.033508714 -0.012076446 -0.033385918 0.013719762

cnn.6.running_mean f4 [32]
000000 a8 5b e8 3f a0 f7 8f bf de bc 99 3f 69 32 86 bf
       1.8152971 -1.1247444 1.2010763 -1.0484134
000010 b8 b9 82 bf e9 82 18 bf 14 89 fb bf 07 7f a3 bf
       -1.0212927 -0.59574753 -1.9651208 -1.2773141
000020 87 d6 66 bf 84 39 5d be 52 01 9b bf 1e 99 ce 3e
       -0.9017109 -0.21603972 -1.2109778 0.40351194
000030 a9 e5 29 3e d0 15 1d c0 0b 02 dc bf 9e 3f d1 be
       0.16591515 -2.4544563 -1.7188123 -0.4086885
000040 5d 58 ee bf 0a 2a 68 be eb 9d c2 bd 06 52 be bf
       -1.8620716 -0.22672287 -0.09502777 -1.4868782
000050 49 f0 81 bf 64 22 73 3f 54 3c 79 bf 23 c5 c5 3f
       -1.0151454 0.9497435 -0.9735768 1.5450786
000060 1e e3 7f 3f cc 9d fd be 5d f2 4f bf 25 23 85 3f
       0.9995593 -0.49534452 -0.8122919 1.040135
000070 69 de 94 be f2 8b e3 3e 92 82 9d bd ab ee 8e 3e
       -0.29075935 0.44442707 -0.0769092 0.27916464

cnn.6.running_var f4 [32]
000000 dd 74 27 3f 60 98 4a 40 f2 99 b0 3f 4b ce 91 3f
       0.65412694 3.1655502 1.379698 1.1391081
000010 1f c5 da 3f 20 65 16 40 b9 19 12 40 a5 ab 23 3f
       1.7091407 2.3499222 2.28282 0.63933784
000020 51 02 bd 3f 0a f8 32 40 ad db f3 3f 12 06 ab 3f
       1.4766332 2.796389 1.9051415 1.3361228
000030 04 6d 91 40 43 27 fc 3f 34 e2 08 3f aa ae ba 3f
       4.5445576 1.9699482 0.5347016 1.4584553
000040 16 cf db 3f d4 68 a3 3f 2b d0 56 40 9d a3 7d 3f
       1.7172573 1.2766366 3.3564556 0.9907778
000050 71 a1 ab 40 b4 76 e9 3f cb 1b 1d 40 11 13 5f 3f
       5.363457 1.823935 2.4548213 0.8713847
000060 ca 61 99 3f 1f c5 de 3f b9 af 9a 3f 45 49 e4 3f
       1.1982968 1.7403907 1.2084876 1.783486
000070 e6 3e 45 40 9a a6 79 40 49 be e2 3f a6 ba c1 3f
       3.081964 3.9007936 1.771432 1.5135086

lstm.weight_ih_l0 f4 [256, 32]
000000 21 14 32 3d 1b 98 f7 bd 81 75 58 bd 4b 6e c3 3d
       0.043476228 -0.12089559 -0.052846435 0.09542521
000010 31 80 b9 bd 7c 55 c4 bd 4f 45 f6 bd dd 14 1f 3d
       -0.09057654 -0.09586617 -0.12024938 0.038838256
000020 51 ed 04 bd fd f0 6b be cc 81 39 be fe 1e ae bc
       -0.032452885 -0.23041148 -0.1811592 -0.021255013
000030 c1 6a 76 bd 87 3c b7 bd 17 76 9c 3c ad 8f 61 bd
       -0.060160402 -0.089470915 0.019099278 -0.05506866
000040 1f e7 dd 3b 3c 2e 1b 3d 74 5b c0 bd 92 3f 00 bd
       0.0067719365 0.03788589 -0.09392443 -0.031310625
000050 dc 2d 50 be c4 7a 82 bd d9 81 ee bd 05 b5 ab bb
       -0.20329994 -0.06371072 -0.1164586 -0.005240085
000060 63 9d ea bd 7b de d1 bb 94 7c f5 bd 33 9b 5f bd
       -0.114558004 -0.0064046956 -0.11986652 -0.05459137
000070 3c 84 03 be fe 12 bd bd 0c 54 ce 3c f8 98 ca 3c
       -0.12843412 -0.09232138 0.025186561 0.024731144
000080 76 df cb bb 7a 40 26 be 12 26 96 3d a6 87 5e bc
       -0.006221707 -0.16235533 0.0733148 -0.013582146
000090 5e 6b 38 bd eb 18 ef bd 0f 63 26 3d 67 06 98 bd
       -0.04502427 -0.116746746 0.040621813 -0.07423096
0000a0 99 bd 13 be b0 cd ac bd eb 74 94 3d 11 9b db 3d
       -0.14427795 -0.08437669 0.07248863 0.10722936
0000b0 6a c0 8f 3d c9 c1 12 3d e2 96 ff bd 10 ff f2 bc
       0.07019122 0.03582934 -0.124799505 -0.029662639
0000c0 8c 94 99 3c 8d 77 81 bd ed 28 fe bc 62 86 39 3b
       0.01874759 -0.063216306 -0.031025374 0.0028308858
0000d0 d6 ab 54 3b 6d 10 df bc 88 0a d9 bd 62 e0 eb bd
       0.0032451055 -0.027229512 -0.10597712 -0.11517407
0000e0 2c 06 b2 bd 5f 4d 48 3c 99 64 14 be 3d 1d 17 3d
       -0.086925834 0.012225478 -0.144915 0.03689312
0000f0 18 50 9e 3c d4 bd cf bd 20 5b 7a bd 0b a6 b6 bb
       0.019325301 -0.10143629 -0.06112206 -0.005573993
000100 71 bb 14 be c7 c1 cd bd 38 b5 2d b9 a8 c7 92 bc
       -0.14524628 -0.10046726 -0.00016566075 -0.01791747
000110 7e d3 a5 3c b3 af 1d be f9 7a 29 bd 62 5b 93 ba
       0.020242449 -0.15399055 -0.04137704 -0.0011242444
000120 1b 1a 88 3d 88 a3 19 be 74 c5 c0 bd b7 07 f3 bd
       0.06645604 -0.15003788 -0.09412661 -0.11866706
000130 97 2e 1c 3d c9 94 4f 3d 18 ee 91 3d e2 4c a2 bd
       0.03813037 0.050679002 0.07125491 -0.079248205
000140 bc c2 b8 bd 22 0c 75 bc ad 69 b4 3b 14 59 17 bd
       -0.09021518 -0.014956506 0.0055057616 -0.036950186
000150 39 57 99 bd 8f 14 6a 3d 79 85 39 bd 62 76 59 3a
       -0.074873395 0.057148512 -0.045293305 0.00082955335
000160 49 b2 33 be ca c9 8b 3c ef 25 2d be 70 0b 6d bd
       -0.17548479 0.017063994 -0.16909002 -0.057872236
000170 93 1d 46 bd 7d d5 a1 3d 77 5f 34 3d bd 34 90 bd
       -0.048368048 0.07902048 0.044036355 -0.07041309
000180 91 70 76 bd 87 6f 06 ba 22 d9 99 bd 51 78 be 3d
       -0.060165945 -0.0005128313 -0.07512118 0.09300292
000190 70 df 07 be 4f c0 e5 bd 4a 0c 07 be 07 ae 89 3d
       -0.13268828 -0.112183206 -0.13188282 0.06722646
0001a0 36 ff 05 bd c3 75 7f 3d e5 fd dd bc 9c 24 e8 3d
       -0.03271409 0.062368166 -0.027098605 0.11335108
0001b0 28 c9 89 bc 34 f2 9a 3d a1 93 0d ba 84 ae 70 3d
       -0.016819552 0.07565728 -0.00054007216 0.05876018
0001c0 3a a9 89 3c 4e ba c9 bd 82 e3 b7 bd 1c ef 68 3d
       0.016804326 -0.09849988 -0.089789405 0.056868657
0001d0 22 61 ac bb f3 31 e2 3b 23 ce df 3a 10 02 b1 bd
       -0.0052606026 0.006902927 0.0017074983 -0.086429715
0001e0 a4 89 3f 3c 09 db 3a bd 59 77 f3 bc b1 f4 cf bd
       0.011690531 -0.045619044 -0.029719995 -0.10154093
0001f0 42 c4 27 bc 92 a9 88 bd 05 b3 07 be df 9f cc bd
       -0.010239663 -0.06672968 -0.13251884 -0.099914305
000200 cc ab 86 3c c9 c8 1c bc a0 d2 90 bd 7a dc 18 be
       0.016439341 -0.009569355 -0.070714235 -0.14927855
000210 85 31 36 3d 85 c6 4e bd a0 bd c1 3d 6d 39 88 3d
       0.04448082 -0.05048229 0.09459996 0.06651578
000220 a7 d4 38 bd df 55 6e 3d a7 fe 51 3d f9 1a 2f be
       -0.045124676 0.05818736 0.051268246 -0.17100133
000230 c5 ed 12 bc a1 f0 76 3d 06 e2 f0 bc 43 08 af bd
       -0.0089678215 0.060288075 -0.029404651 -0.08546498
000240 b2 d1 2a bd f2 10 98 3d 0b 0b 27 3c 37 64 eb bc
       -0.041703887 0.07425107 0.010195504 -0.02873431
000250 05 e8 8f bd 63 67 a1 bb 8a 20 48 bd c6 f5 07 be
       -0.07026676 -0.0049256547 -0.048859157 -0.13277349
000260 b9 28 9b 3b aa 58 52 3d 0c 81 99 3b 35 b4 3f 3c
       0.004735079 0.051354088 0.004684573 0.01170068
000270 b4 b9 0a be f3 07 bd 3c 4a 18 98 3d 73 5b 0b 3d
       -0.13547403 0.02307508 0.07426508 0.03402276
000280 85 de 58 bd 0f 90 28 be 49 61 5e 3d 62 7a c6 bc
       -0.052946586 -0.16461204 0.054291997 -0.024228279
000290 52 0c a7 bd d1 cb 91 3d 82 c6 d1 bd 85 c6 30 bd
       -0.08156647 0.07118953 -0.102429405 -0.043158073
0002a0 84 ac 1c be 4f be 4d bd 58 cd b8 3b e7 a7 ab bd
       -0.15300184 -0.05023032 0.0056397133 -0.08381634
0002b0 6c 9b 04 be 4b 04 4a 3c ea a2 23 be 25 c2 71 3d
       -0.12949914 0.012330125 -0.15980116 0.05902304
0002c0 ab 14 a5 bd 9b b0 91 bd 9f 0c 85 bd c8 77 08 3d
       -0.08060583 -0.07113763 -0.06496548 0.033317357
0002d0 9c 0e ca bd 57 6c 8c bc c5 49 5c 3d 35 6c 1b 3c
       -0.09866068 -0.017141504 0.05378129 0.009486248
0002e0 54 b6 53 bd 79 cb 04 be 4b 90 b8 3b 2d 44 fe 3c
       -0.051687554 -0.12968244 0.0056324354 0.031038368
0002f0 76 cc a8 bd 2e af ef bc 0a c0 68 bd 20 40 31 be
       -0.08242123 -0.029258337 -0.056823768 -0.17309618
000300 1a e7 16 be b2 cc 17 3c 5d a2 21 be 77 b0 f0 bc
       -0.14736596 0.009265112 -0.15784593 -0.02938102
000310 88 cb 01 be b4 31 50 bd fa 39 58 bd 8b f5 40 3d
       -0.12675297 -0.05082865 -0.052789666 0.047109168
000320 d7 f2 c4 bd 71 f9 e6 bb 2f d9 a1 3d 8b dc bc 3d
       -0.096166305 -0.0070487787 0.079027526 0.09221753
000330 e4 02 8b 3d 47 37 00 be 4c 82 33 bd e5 63 8e 3c
       0.06787661 -0.12521087 -0.043825433 0.017381618
000340 a2 cf f8 bd e7 5f f6 3c 5b bd ee bd 7a f7 04 3d
       -0.12148978 0.030075027 -0.116572104 0.032462575
000350 ad b3 5e 3d 89 13 04 3c a1 0a 1b be 49 21 de bc
       0.05437057 0.008061298 -0.15140773 -0.027115481
000360 cb c6 6c bd f0 1c b5 bc 5b 34 55 ba 43 81 0f bd
       -0.05780677 -0.022108525 -0.0008133107 -0.035035383
000370 7f 1d b0 bc b2 05 2c be 15 8a d1 bd 33 29 8a 3d
       -0.02149844 -0.16799048 -0.10231415 0.067461394
000380 32 06 fc 3c 33 eb 24 bd 2a 01 a2 3d 81 a5 0a be
       0.030764673 -0.040263366 0.07910378 -0.13539697
000390 c1 20 bd 3c b8 39 b2 bc 0d 47 f8 bd 39 5f 1b bd
       0.023086907 -0.021756038 -0.12122927 -0.03793261
0003a0 04 b9 04 be 37 07 d8 bd a6 c7 17 3d 11 5a d0 3d
       -0.12961203 -0.10548251 0.037055634 0.10173429
0003b0 ca be d2 3d 09 e5 2a 3c cd 96 25 be e6 07 e0 3d
       0.102902964 0.010430583 -0.16170807 0.109390065
0003c0 4e 91 19 3c 00 e0 a4 bd a7 c7 83 bd 63 d5 21 bc
       0.009373022 -0.08050537 -0.06434565 -0.0098775355
0003d0 4b 5c 86 bd 4b cb 91 3d 35 7e b3 3d bf ef dd 3d
       -0.06560572 0.07118853 0.087643065 0.108367436
0003e0 fe 85 06 3d f5 80 8b 3d 6d b7 3e bd 37 24 fb 3d
       0.03284263 0.06811706 -0.046561647 0.12262767
0003f0 dd ef c7 3d 90 4d 20 3d eb 74 da 3c 06 47 f3 bc
       0.09762547 0.03913647 0.026667079 -0.029696953

lstm.weight_hh_l0 f4 [256, 64]
000000 a0 0e f7 bd 24 44 14 3d 88 74 ec 3d d6 65 09 be
       -0.12063336 0.036197796 0.11545664 -0.13417754
000010 ad 8f 64 bd d7 e8 33 bc 4e c3 90 bd 25 7c 39 3d
       -0.055801082 -0.010980806 -0.070685014 0.04528441
000020 13 44 d4 3b 78 6a e5 bd bf c5 43 3c f4 7b c7 bc
       0.0064778416 -0.11201948 0.011949002 -0.024351098
000030 de 9a 1f 3e 6d 0f 99 bc 4d bb a8 bd 40 8f 0d 3e
       0.15586421 -0.018684113 -0.0823885 0.13824177
000040 44 6f c6 bd fc f8 3a 3d 45 68 31 bd 92 62 80 3d
       -0.09689191 0.045647606 -0.04331233 0.06268801
000050 a1 30 48 bd 38 cc a9 3d e3 ba 12 3d 81 8c f8 3c
       -0.0488745 0.08290905 0.03582276 0.030340435
000060 9a 96 83 bd 93 e3 19 3d e2 6c 04 bc f9 1e a1 bd
       -0.06425209 0.037570547 -0.0080826 -0.07867236
000070 f1 9a 1b bc 07 bd be bc 64 ef 94 bd cb db b2 3d
       -0.00949739 -0.023283495 -0.07272223 0.087333284
000080 ca 53 00 be 09 f8 64 bc 43 c5 96 bd e5 26 cd 3d
       -0.12531963 -0.013975152 -0.073618434 0.10017184
000090 9e 4c ec 3d 0f fe e4 3d 92 be 5b 3d db 6f 04 3e
       0.11538051 0.1118127 0.05364854 0.12933294
0000a0 e1 3a 96 3c c0 bc b2 3d d5 07 0c bd 92 fe 30 bd
       0.018338623 0.087274075 -0.034187157 -0.043211527
0000b0 a8 92 c0 3d 67 65 6d 3d 58 1c f2 3d 2e 30 d2 3d
       0.094029725 0.057958033 0.118218124 0.10263096
0000c0 82 4d c4 3d a6 46 8a 3d 4b 9c 16 bb 46 f2 de bd
       0.09585096 0.06751756 -0.0022981341 -0.10886054
0000d0 4c 99 37 3d 58 e4 06 3c 19 c6 0a bd 4a 44 1f bd
       0.04482393 0.008233152 -0.033880327 -0.038883485
0000e0 eb 82 0a bc 33 c9 0e be f7 fc 03 3e a0 87 39 bd
       -0.008454065 -0.13943939 0.12889467 -0.045295358
0000f0 f7 ed 35 bd ed 35 ec bd 78 b5 9d bd cd bc a4 bd
       -0.044416394 -0.11533723 -0.07700628 -0.080438234
000100 cc 1c c3 3b cd cc 37 bd 04 19 b1 3d f4 0f 91 bd
       0.0059543606 -0.044873048 0.086473495 -0.07083121
000110 52 21 fb 3d c3 30 c3 bd 91 0e cd bd bb 93 be 3d
       0.12262215 -0.09530785 -0.10012544 0.09305521
000120 31 90 cd 3a 97 3c ab 3d c3 d1 c7 3d 68 63 63 3b
       0.0015683231 0.08361166 0.09756806 0.0034696702
000130 03 7d 12 3d a2 5a 1f 3d a2 de 4c bd 83 97 89 3d
       0.03576375 0.038904794 -0.050017007 0.06718352
000140 7e 97 f6 3b 2a 37 dc 3c 81 ca dc 3d f3 db 7d 3c
       0.0075253835 0.026881773 0.10780812 0.0154943345
000150 e1 5f da bd 6b 48 d4 bd 79 19 e1 3d c9 e5 9d 3d
       -0.10662819 -0.10365375 0.10991187 0.07709844
000160 9e be 75 bd ed 16 ce 3d 54 53 00 be 73 d1 b1 bc
       -0.05999624 0.100629665 -0.12531787 -0.021706318
000170 1e b1 b8 3d 9d 45 9b 3d 7a c9 c0 3d aa 18 16 be
       0.090181574 0.07581637 0.094134286 -0.14657846
000180 ec f0 a2 bc 19 4b 0b 3e 40 7a ad bd 58 07 75 3c
       -0.019890271 0.13602866 -0.08470583 0.014955364
000190 89 f9 8d 3d 7e 55 86 bd ad 13 b8 3d 59 2d 86 bd
       0.06932361 -0.06559275 0.08988128 -0.06551618
0001a0 16 4b d7 3d 84 ad 17 3e e7 bb 52 3c ca dc 30 bc
       0.105123684 0.14812285 0.012862182 -0.010794828
0001b0 e8 98 fb bd af 5a 9c bd 8f bb 3a 3d 8e 32 c8 3d
       -0.12285024 -0.07634484 0.045589026 0.097752675
0001c0 38 04 94 bd 6c be a6 b9 5a f7 bc bd 54 3b b2 bd
       -0.07227367 -0.00031803863 -0.09226866 -0.08702722
0001d0 ad c3 ec 3d f2 9e ad 3d 21 54 ab bd c9 1f 73 3c
       0.1156076 0.08477582 -0.08365656 0.014839121
0001e0 6b b8 99 bc 42 4c f7 3c 47 85 00 3e 49 69 a1 bb
       -0.018764695 0.03018773 0.12550841 -0.004925881
0001f0 e4 47 26 bc a7 8a d9 3d 07 03 04 be 62 76 04 3d
       -0.010148976 0.10622149 -0.1289178 0.03233946
000200 a6 df b3 bd 56 b2 b2 bc 2d 41 d8 bc 9b 9c 2c bd
       -0.08782892 -0.021813553 -0.026398266 -0.042141538
000210 71 af 4f bd e7 d9 95 3d 8f 9c 81 3d cf 19 96 3d
       -0.050704423 0.07316952 0.06328689 0.07329141
000220 db 82 bd 3d d8 b4 b7 3d 9e cc cf bd f4 83 59 3d
       0.09253474 0.0897004 -0.101464495 0.053104356
000230 d6 3c dc 3d a8 68 57 bd 75 16 1c be 07 e0 00 be
       0.10753791 -0.052590042 -0.15242942 -0.1258546
000240 a4 2b f6 3d c2 3d 1a bd 37 32 9a bd 9e f2 25 be
       0.120200425 -0.037656553 -0.07529109 -0.16205832
000250 9a 7f 75 bd 41 2a 6c 3d 06 ba 1e 3c f6 2b 14 bd
       -0.059936143 0.057657484 0.009687906 -0.036174737
000260 09 17 b9 bd 5f 15 c6 3d 2a 5b f6 3c df 75 2d bd
       -0.09037597 0.09672045 0.030072767 -0.04234874
000270 79 08 77 bd a2 3b 18 3d 34 78 50 3d ee ee 3c 3d
       -0.060310815 0.037166245 0.050895885 0.0461263
000280 37 68 58 bd ea 0f 6b 3d f7 ce 1b be 1e 74 a1 3d
       -0.052833762 0.057388224 -0.1521567 0.07883476
000290 f0 47 a8 bd 08 a3 d1 3c 5f 65 0a bc 85 d2 0c be
       -0.08216846 0.025590435 -0.00844702 -0.13752182
0002a0 34 c1 9e 3d 2f 32 f0 3d 32 57 8c 3d 45 32 1a bc
       0.07751694 0.11728322 0.06852569 -0.009411399
0002b0 23 e2 ad 3c 31 e5 40 3d 3e 5f fc bd cd 4d 92 bd
       0.021225994 0.047093574 -0.123228535 -0.071437456
0002c0 25 a1 16 3d be dc 78 3d f2 83 45 bd 12 dc 75 bd
       0.036774773 0.06075739 -0.048221536 -0.06002433
0002d0 74 4b 95 bd 11 f1 a6 3d b4 e0 10 bd 00 a9 a4 bb
       -0.07289782 0.081514485 -0.035370544 -0.005025029
0002e0 35 48 df bd b7 59 33 be fd e4 9c 3d 19 af ba 3d
       -0.10902444 -0.17514692 0.076608635 0.091154285
0002f0 e7 d0 07 3e 85 9c 6c bd e6 60 e9 bd e4 99 cc 3d
       0.13263284 -0.057766456 -0.11395435 0.0999029
000300 1d 5b 7f bb 71 93 a2 3c 84 14 38 3b a3 7e 66 3d
       -0.003896422 0.019845696 0.00280884 0.056273114
000310 17 8a 08 3e 6e 0c a2 3d f8 01 19 bc 34 74 c6 3c
       0.13333927 0.07912527 -0.009338848 0.024225332
000320 d8 0e c7 bd 35 83 b6 bd 44 2b 9f bd 60 cc f6 3d
       -0.09719628 -0.089117445 -0.07771924 0.120507
000330 8e 0b a0 3d 13 6a f4 3d 66 7f bc 3d e2 27 45 bd
       0.07814704 0.119342946 0.09203987 -0.04813374
000340 c8 59 e3 3d 3c af 0b 3d d5 e9 e4 3d 32 85 02 3c
       0.11101109 0.034102663 0.111774124 0.007966327
000350 ed 6e 2a 3d dc 45 91 3d ec 69 02 3c 35 9b 32 bd
       0.041609693 0.07093403 0.007959824 -0.04360505
000360 fe ec 8d 3d 4c 8b 5d bd c6 45 85 bd 15 d5 9e 3d
       0.06929968 -0.054087922 -0.06507449 0.07755486
000370 43 e2 88 3b 02 e6 01 3c 65 65 0d 3c 36 1d ad 3d
       0.004177363 0.007928373 0.008630131 0.08452837
000380 5b e0 76 bd 21 1b 05 bc 17 8c 78 3d 3a 4b 9b 3d
       -0.060272556 -0.008124144 0.060680475 0.07582708
000390 8b 62 37 ba cb 04 af 3c 71 e0 6c 3d 9f b4 96 bd
       -0.000699558 0.02136459 0.05783123 -0.073586695
0003a0 98 c2 77 bc 69 8d 7a bd c0 12 4a bb bf 60 ba bc
       -0.015122078 -0.061170015 -0.003083393 -0.02275121
0003b0 c9 94 1c 3d da cb 9b bd 08 b6 f4 bd 2d 5e a3 3c
       0.03822783 -0.07607241 -0.11948782 0.019942367
0003c0 ad 74 7a bd fc dc 40 3d ab 31 1b 3e 61 3d 98 bd
       -0.061146427 0.047085747 0.15155666 -0.07433582
0003d0 22 e4 68 bb f4 9a ee bd 61 5a bf bd f9 d4 ae bd
       -0.0035536368 -0.11650649 -0.0934341 -0.08536715
0003e0 55 12 d2 3d e6 4f 6e bd 5f 28 88 3d 33 69 6b bd
       0.10257403 -0.058181666 0.06648325 -0.057473373
0003f0 d9 00 86 3c 65 cd a7 bc 1e 7d a5 3d 8b bf ae bc
       0.016357826 -0.020483682 0.08080505 -0.02133157

lstm.bias_ih_l0 f4 [256]
000000 8e 30 dd bd 33 66 f5 3b 7e 26 eb bd 2f 09 e7 bd
       -0.10800277 0.0074889897 -0.11481951 -0.112810485
000010 1f cd 0c 3d 31 1b 33 be b9 11 20 be 80 99 b3 3d
       0.034375306 -0.17490841 -0.1563176 0.08769512
000020 de cd 07 3d 78 0a 19 be 64 21 20 bc 20 60 1a 3d
       0.033155315 -0.149454 -0.009773586 0.03768933
000030 2c 6a 82 bd 06 0c 85 3d 17 6a be 3c 18 61 11 bd
       -0.06367907 0.06496434 0.023243947 -0.035492986
000040 e4 36 83 bd cb 19 37 3d 04 20 31 be ef 6e af 3a
       -0.06406954 0.044702332 -0.17297369 0.0013384501
000050 32 5c 28 3d f6 ff bf 3c e8 5c 10 3d 30 db 88 3d
       0.04110355 0.023437481 0.035244852 0.06682432
000060 ce 7d fd bb 60 73 aa 3d 08 29 51 bd 7f ac 6b 3d
       -0.0077359444 0.08322787 -0.05106452 0.057537552
000070 29 fe 3e 3d ce 8c 39 be 41 60 f7 bd c5 a9 ec bc
       0.046629105 -0.18120119 -0.12078906 -0.028889546
000080 82 bb fd 3c 8f 12 88 bd 13 a2 1b 3d be 27 05 bd
       0.0309732 -0.06644165 0.037996363 -0.032508604
000090 fa 86 b0 bb f1 07 bb bd 67 25 00 be a2 bc e3 bd
       -0.005387184 -0.09132374 -0.12514268 -0.11119963
0000a0 fd 7a 86 3d f5 63 bc 3b fe 27 36 3d e9 7f ee 3c
       0.06566427 0.0057492205 0.044471733 0.029113727
0000b0 ae 49 2f bc 89 ab b6 bd ad 8e 47 3d 28 87 04 be
       -0.010698719 -0.089194365 0.04872005 -0.12942183
0000c0 c3 94 97 bd c5 cd 65 3d 2f 17 80 bb c0 4e 9c bd
       -0.07401421 0.05610444 -0.0039090137 -0.07632208
0000d0 e2 f0 71 bb 5d ec 05 3d f3 9d 2b bc c6 a9 f7 ba
       -0.003691726 0.032696117 -0.01047467 -0.0018895201
0000e0 fd 1d 42 3d 6a 87 4c bd 8b 17 93 3d 99 3b f4 bd
       0.04739188 -0.04993383 0.07182225 -0.1192543
0000f0 de fe c4 bd ee 2a 08 be 03 5f 3d be f8 d7 c9 3c
       -0.096189246 -0.13297626 -0.18493275 0.024639115
000100 5f b9 8d 3d 93 22 26 be 6e 2a 46 bd 22 8d 35 bd
       0.06920122 -0.16224127 -0.048380308 -0.044324048
000110 8e c0 13 be 90 a7 02 be f4 e5 24 bd d4 b3 84 3d
       -0.14428923 -0.12759233 -0.040258363 0.06479612
000120 0e af b2 bd 21 7d 27 be 6a 3c 9c bd f1 63 13 be
       -0.08724795 -0.16356327 -0.076287106 -0.14393593
000130 b6 d7 21 be 8e 0d 28 bd a2 9c 22 3d 27 28 9d bd
       -0.15804943 -0.04102855 0.039700158 -0.07673674
000140 de 13 07 be b1 c1 df bd b6 06 e2 bd e9 65 ec bc
       -0.13191172 -0.109256156 -0.11036436 -0.028857188
000150 7f 6a d2 bd 2b 1f 2e be 49 3b 1f 3d 82 e2 31 3d
       -0.10274219 -0.17004077 0.038874898 0.043428905
000160 b3 18 f9 3b e9 2b 91 bc 8b 09 9f bd f3 58 5d bd
       0.0076018213 -0.017721133 -0.07765492 -0.054039907
000170 fd f9 85 bd 9a f6 09 be c7 6c 32 bc a4 cd ed 3c
       -0.06541822 -0.13472977 -0.010890192 0.029028721
000180 c3 8f ad bd 9d 87 1f bd 80 a3 e1 3d 29 17 86 3d
       -0.08474686 -0.03894769 0.11017513 0.06547386
000190 1e ea 5f 3d ce 1e 92 3d 42 4a 9c bd aa bd 37 bd
       0.05466663 0.07134782 -0.07631351 -0.044858612
0001a0 cf bd 98 bd 52 7e 0a bd 07 c2 74 3d cc 42 5a 3c
       -0.07458078 -0.033811875 0.05975535 0.01332159
0001b0 e9 b7 ea bb 08 dd 9f 3d 11 51 a0 bd d1 18 a6 3d
       -0.007163037 0.0780583 -0.07827962 0.08110202
0001c0 bf 30 aa 3d 76 e3 44 bd cd 65 1e 3d fb 8d 96 bd
       0.08310079 -0.048068486 0.038671304 -0.073512994
0001d0 9c 40 03 3d 7b f7 d0 bd 8a 61 16 be 4c 21 a2 3d
       0.03204404 -0.10203453 -0.14685646 0.07916507
0001e0 3a 6a ff bd 70 49 b1 bd bf ba 37 3b d0 79 c4 bd
       -0.12471433 -0.08656585 0.0028034893 -0.095935464
0001f0 08 16 8c 3d a1 c9 21 be b5 51 95 bd 19 27 97 bd
       0.068401396 -0.15799572 -0.07290975 -0.07380504
000200 5b f7 39 3d c2 d7 91 3d b8 6c 7c bd c0 88 da 3c
       0.045401912 0.07121231 -0.06162712 0.026676536
000210 66 09 8d bd 3d e3 41 bd 44 d9 93 bd de cf 13 3d
       -0.06886558 -0.047335852 -0.072191745 0.03608691
000220 d7 4f c1 bd d6 48 00 39 8b 0b c6 3d 4a 75 c9 bd
       -0.09439056 0.00012234165 0.096701704 -0.09836824
000230 3b da b7 bd dd 74 94 bd ec ec 30 3d 89 82 29 3c
       -0.08977171 -0.072488524 0.043194696 0.010346063
000240 e6 3d 6c bd 03 9b 8b 3d a4 a0 bf 3d 05 a9 86 3d
       -0.05767622 0.068166755 0.09356812 0.06575207
000250 bf f8 e9 3d 6e bd 9d bd e1 7e b4 3d 30 54 85 bc
       0.11424398 -0.077021465 0.08813263 -0.016275495
000260 59 65 75 3d fb 34 55 bd 9e 58 55 bc f4 04 42 bd
       0.059911106 -0.05205248 -0.013021616 -0.047368005
000270 da 73 cc bd 9c e3 00 be d5 78 b4 bd fa 1c 69 bd
       -0.099830344 -0.12586826 -0.088121094 -0.0569124
000280 99 18 98 bd f1 db f9 3d 1b dd 08 3d 7b 51 ec bd
       -0.07426567 0.122001536 0.033413988 -0.11538979
000290 76 05 15 bd 6c 61 e4 3d b2 9d a0 bb c8 e2 98 bd
       -0.03638216 0.11151394 -0.0049016112 -0.0746513
0002a0 cf 6d 83 3c bc c7 a6 bc 3b 5c 04 be e8 b2 a8 bd
       0.016043572 -0.020358913 -0.12925808 -0.08237249
0002b0 90 fb e7 3d 32 f6 a4 3d e1 38 a5 3d 1b 52 15 3e
       0.113272786 0.080547705 0.080674894 0.14582102
0002c0 62 b4 cc 3d 15 fd 91 3d 60 6c b5 3c e9 3f 02 3d
       0.09995343 0.0712835 0.022146404 0.03179923
0002d0 8e 6f b6 3c 11 8b a4 3c af 35 a0 3d 16 ee 4f 3d
       0.02226999 0.020085843 0.07822739 0.050764166
0002e0 2f 53 54 bc a5 6f 74 3d 44 0b 14 3d 1c d2 9f bd
       -0.012959286 0.059676785 0.036143556 -0.07803747
0002f0 ad 90 6f bd 9d 9c fc bc c2 f5 38 3d 92 0e 7a bd
       -0.058487583 -0.030836398 0.045156248 -0.06104905
000300 99 05 a5 bd a2 31 b8 bd 9d 88 21 3c 36 1c fc bb
       -0.08057708 -0.08993842 0.009859231 -0.0076937927
000310 f4 c7 1e be 90 31 8f bd 0f d0 1e be 75 85 f7 bd
       -0.15505964 -0.06991875 -0.15509056 -0.12086002
000320 81 99 0a 3d 39 70 b5 bd f1 ae 26 bd a2 7c 5c bd
       0.0338378 -0.088592954 -0.04069418 -0.053829797
000330 fc f9 e8 bd d7 4b 94 3d bb da c4 bd a5 a7 7e bd
       -0.11375806 0.07241028 -0.09612032 -0.062171597
000340 8e a0 d6 3c 36 30 93 3d 3f 29 8d 3d 71 0e a9 bc
       0.026199605 0.0718693 0.06892633 -0.020636769
000350 78 46 a3 bc cc 84 c8 bd 8f c1 bb bd 9c 17 95 bd
       -0.019931063 -0.09790954 -0.09167778 -0.07279894
000360 43 ee 63 bd 69 31 f3 bd aa 73 98 bd 15 3a da 3d
       -0.055647146 -0.118746586 -0.07443936 0.106556095
000370 3c 4c 12 be bc 92 c1 3c a7 37 f3 3c ca 4b 5f 3d
       -0.14286894 0.023629539 0.029689623 0.054515637
000380 2c 82 3a 3d 6f 2d a1 bc 02 d4 d6 3d 6a 9d 95 3d
       0.045534298 -0.019674985 0.10489656 0.07305415
000390 62 2d 10 bc 59 69 c7 3d 7a 60 94 bb 5a 89 2c be
       -0.008799883 0.0973689 -0.0045281025 -0.1684927
0003a0 de 26 07 be ee 4d 01 3d 16 67 27 be bd 20 eb bd
       -0.1319842 0.03156846 -0.16347918 -0.11480854
0003b0 a7 73 09 be 7a a9 14 be 1e 52 10 be a6 df 69 bc
       -0.13423024 -0.14517775 -0.14093825 -0.014274513
0003c0 89 f5 e3 3c c3 64 3d be 91 dd 29 bd 96 13 88 3d
       0.027827041 -0.18495469 -0.041471068 0.06644361
0003d0 05 17 15 bd 79 2e dd bd d2 f8 8e bc 18 6a e4 bd
       -0.036398906 -0.107998796 -0.017452631 -0.11153048
0003e0 fa 2c 8f bd 13 77 ac bd dd 4b 92 bc 3e e8 da bd
       -0.069910005 -0.08421149 -0.01785844 -0.10688828
0003f0 be 19 a6 3d d9 90 24 be d9 39 23 be 35 e5 b6 bd
       0.08110379 -0.1607088 -0.15940036 -0.089304365

lstm.bias_hh_l0 f4 [256]
000000 3f a9 6c 3d 2a 50 ce bd 30 e5 82 bd d0 45 6c bd
       0.057778593 -0.10073884 -0.0639137 -0.057683766
000010 5a d1 c8 bd e4 eb d1 bd cd 57 00 be 8f 2a 7a bd
       -0.09805556 -0.10250071 -0.12533493 -0.061075743
000020 bf a5 18 bc 2a f9 9f bc f6 1a 17 be c3 87 39 bd
       -0.009316861 -0.01952799 -0.14756379 -0.045295488
000030 21 2f 83 3d 10 ac d5 bc 12 04 ab 3d a1 5c a3 3d
       0.064054735 -0.026083022 0.08350386 0.07976652
000040 31 31 97 bd b0 77 a3 bd 72 e9 0d be 89 e0 30 bd
       -0.073824294 -0.07981813 -0.13858584 -0.043182883
000050 65 ac f0 3b 09 ea 0e 3d 7d 4f ac 3d cc 3e 07 3e
       0.00734477 0.034891162 0.08413599 0.13207549
000060 9a 7e 22 bb 29 ec 0d 3d 61 ee 12 be ca 63 91 bd
       -0.0024794699 0.034649048 -0.14348747 -0.070991114
000070 2c 9a 09 be 25 0d 77 bd 13 0a 98 bb 90 72 c8 bd
       -0.13437718 -0.06031527 -0.004639873 -0.09787476
000080 43 8b 2b bd 99 73 85 3d 2d db eb 3d 10 9f 1b be
       -0.041880857 0.06516189 0.11516414 -0.15197396
000090 64 c7 52 bd ab 41 15 be a1 de ac bc 86 fb 91 3d
       -0.051459685 -0.14575832 -0.021102251 0.071280524
0000a0 7a 52 68 3c b5 b8 92 3d 8e 16 87 bc e5 29 a6 3c
       0.01417982 0.07164136 -0.016490247 0.020283649
0000b0 71 2f f4 bd 53 1d 94 bc d9 05 5b bd ac e2 20 be
       -0.11923111 -0.01808039 -0.053472374 -0.15711468
0000c0 69 d0 5a bd a2 18 cb bd 1f f2 c1 bd 00 f5 97 3d
       -0.05342141 -0.09916808 -0.09470009 0.07419777
0000d0 31 7b 12 3d 81 d8 0e be e3 0e 30 3c f7 93 1b 3d
       0.035762016 -0.13949777 0.010745737 0.037982907
0000e0 ea f8 e3 bd 06 b4 14 bd ba 78 d2 bc fb 1a 73 3d
       -0.11131461 -0.036304496 -0.025692333 0.059351902
0000f0 0a 63 ee bd 30 de e6 bd 65 b0 5f bd 0f bd a3 bc
       -0.11639984 -0.11272848 -0.054611582 -0.019987611
000100 1d c2 e3 bd bb 15 12 be cc 34 f4 bd 36 13 19 be
       -0.111210085 -0.14266102 -0.11924133 -0.14948735
000110 c1 c1 11 be 38 19 85 bc 7b 50 e3 bd 67 49 4b 3d
       -0.14234067 -0.016247377 -0.11099335 0.04963055
000120 34 d8 b3 bd 0c 01 ac bd a9 2c a4 3c 72 d3 4f bc
       -0.08781472 -0.08398637 0.020040827 -0.01268469
000130 db 06 46 3d 65 77 b4 3c b7 2f a8 3d f4 3d 4f bd
       0.04834638 0.022029588 0.08212226 -0.050596192
000140 44 9f 80 3c eb 9c 8e 3d 2e b4 6e 3d eb aa 4e bc
       0.015700944 0.069635235 0.0582773 -0.012613992
000150 3a b4 35 bd 96 ca 84 bd a2 83 18 3b c4 54 da 3c
       -0.04436133 -0.06483953 0.0023271819 0.026651748
000160 77 ef f5 bd 69 28 08 be dd ad 46 be e5 2b da bd
       -0.12008565 -0.13296665 -0.19402261 -0.106529035
000170 ce db a2 3d 43 8c 14 be e1 11 bd bd 6d 14 e0 bd
       0.07952081 -0.1450663 -0.09231926 -0.10941396
000180 53 2a ce bd 39 77 ca bd 02 2b f9 bc 29 7e 88 bd
       -0.100666665 -0.09886021 -0.030416016 -0.06664688
000190 cb da 9a 3d 8e e2 9f 3d 76 6f 39 bd 6a 46 72 bd
       0.07561263 0.07806884 -0.045272313 -0.059149183
0001a0 f5 81 55 bd 90 48 12 bd 43 6d 4d bd f0 d0 ce 3a
       -0.05212589 -0.035713732 -0.05015303 0.0015778821
0001b0 38 bf 82 bd fa 5d 3b 3b d3 04 e8 bd 3d 47 1c 3d
       -0.06384128 0.002858995 -0.11329045 0.038153876
0001c0 ec 46 3b 3d ee df 87 bd c1 1e c7 bd 09 d4 e3 bd
       0.045721933 -0.06634508 -0.09722663 -0.11124427
0001d0 fa fa a6 bd f7 90 d1 ba e7 d1 9d 3d 87 09 0b be
       -0.08153339 -0.0015988637 0.07706051 -0.13577853
0001e0 08 49 05 3c 59 91 87 bd 7e ee 79 bd c5 48 a8 3c
       0.008135088 -0.0661952 -0.06101846 0.020542512
0001f0 b3 93 03 be 76 e5 c5 bc cd 2c 36 be e8 e3 ac bd
       -0.12849312 -0.024157267 -0.17790528 -0.08441907
000200 d3 32 ea 3c b7 c5 d2 bc b7 08 3e 3d 74 0c 82 3d
       0.028588688 -0.025729043 0.04639503 0.063500315
000210 c1 4e 27 3d 23 44 00 3e 99 81 e0 bd b9 40 64 3d
       0.04084659 0.12525992 -0.10962219 0.055725787
000220 10 29 4b 3d f8 44 c4 bb 91 73 c9 3d 69 c5 31 3d
       0.049599707 -0.005989667 0.09836496 0.043401156
000230 4a ec f0 3c 83 c5 a8 3d 57 30 82 bd f9 91 86 bd
       0.029409546 0.08240797 -0.06356876 -0.06570811
000240 49 66 12 3d 3f 31 fb 3c 2a d7 f5 bd 0f be 8e 3d
       0.035742078 0.03066313 -0.1200393 0.069698445
000250 3f 8c 2d 3d c4 9c b7 3d df 16 a9 bd 8f f5 9c 3d
       0.042370077 0.089654475 -0.082563154 0.07664024
000260 d3 d9 5b 3d 13 2a 62 bd 58 40 22 bd c8 54 c7 3d
       0.05367453 -0.055215906 -0.039612144 0.097329676
000270 90 6d b1 bb 23 55 49 3d f2 63 4d 3d 05 8b a6 3d
       -0.005414672 0.04915346 0.050144143 0.081319846
000280 7b f7 df bd 93 71 84 3c 69 8a dd ba 09 d4 c2 3d
       -0.10935875 0.016167438 -0.0016902211 0.09513099
000290 e5 f2 e7 3c ee ce c9 bd 5d 80 c9 bd 0e f9 b7 3d
       0.028314063 -0.09853922 -0.098389365 0.0898305
0002a0 7c 53 39 3d 10 0a 7a 3d b9 4a 6c 3d 61 ce 51 bd
       0.045245633 0.061044753 0.05768845 -0.05122221
0002b0 3a d5 da 3d 6e bf ab bd d3 f6 12 3e 74 0c 38 bd
       0.10685201 -0.08386122 0.14351968 -0.04493375
0002c0 22 fa cb 3d 6a 7b 81 3d 33 a3 a5 3d 3e ac 32 3d
       0.099598184 0.063223675 0.080877684 0.043621294
0002d0 d5 a4 b9 3d c2 73 eb bd 83 3c d0 3d c2 5a ef bc
       0.09064642 -0.114966884 0.10167792 -0.029218081
0002e0 6b f9 c4 3c cc c5 be 3d e8 b2 0a 3c 7a a6 3c bd
       0.024044713 0.093150705 0.008465506 -0.046057202
0002f0 86 e8 da 3c 30 f8 c7 3d 75 d8 5b 3c f6 c3 44 bd
       0.026722204 0.09764135 0.013418307 -0.048038445
000300 3c c9 06 bb a5 e0 dd bb ad 34 d6 3b ce 57 56 bd
       -0.0020566722 -0.0067711645 0.006537041 -0.05232983
000310 86 19 44 bd 10 97 3f be f7 d8 7a bd c0 5e 9e 3c
       -0.047875904 -0.1870997 -0.06124207 0.01933229
000320 0e b3 71 3b 38 3b fc bd 25 1a 5a bd 97 ca c8 bd
       0.0036880407 -0.123159826 -0.05324759 -0.09804266
000330 a2 17 e0 bd b0 ec 3a 3d 53 57 92 bc 2d 6b 25 be
       -0.109420076 0.04563588 -0.017863905 -0.16154166
000340 e6 8a ce bc 24 fa 42 3d ba 42 fb bd c3 ae b0 3c
       -0.025212716 0.047601834 -0.122685865 0.021567708
000350 d6 c2 a2 bd fa ec 8f 3d 15 8d 82 3d 72 09 a1 bd
       -0.07947318 0.070276216 0.063745655 -0.0786313
000360 4b 0c 08 be ad cc dd 3c fd fa 17 be 35 dc 97 bc
       -0.1328594 0.027075136 -0.14841838 -0.01853762
000370 05 54 01 bd 10 d9 76 bd 72 ae 28 be a3 c6 18 bd
       -0.031574268 -0.0602656 -0.16472796 -0.03729881
000380 bc d4 3f bc ac 7c aa 3d dc c4 44 3b e1 4c 18 bd
       -0.011708435 0.083245605 0.0030024564 -0.037182692
000390 4d 01 49 3d 43 5a f5 bd 79 24 67 3d 8f db 20 be
       0.049073506 -0.11980107 0.056431267 -0.15708755
0003a0 f5 0c 84 3d 91 a8 b5 bd f6 75 96 bb 79 3e a5 bd
       0.06447784 -0.08870042 -0.0045916988 -0.08068556
0003b0 11 fb 04 3d 7d 0d ba bd 05 0f 88 3c 9d 68 26 be
       0.032465998 -0.09084604 0.016608724 -0.16250844
0003c0 a3 5b b6 bc df fe 17 be 5a 10 0a 3d 8a b1 8b bd
       -0.022260493 -0.1484332 0.033707 -0.06820972
0003d0 d9 43 b6 3d b1 fc 91 bd 40 63 91 bd 4c 1e 91 bb
       0.0889966 -0.07128275 -0.070990086 -0.0044286605
0003e0 ce 93 16 be e0 9c 2d 3d 62 34 0c be b3 e0 58 bc
       -0.1470482 0.042385936 -0.13691857 -0.013237166
0003f0 7e ea ea 3d 51 5d 48 be 4f 1b 43 be 93 50 b8 bd
       0.11470507 -0.19566847 -0.19053386 -0.08999743
