backend/cnn_lstm_checkpoints/cnn_lstm_epoch_2.pth (torch, 788573 bytes, 64 tensors)

cnn.0.weight f4 [16, 1, 3, 3]
0	0x3e6b0630	0.22951579
1	0x3d99ff61	0.07519413
2	0xbdf26feb	-0.11837753
3	0xbc55ff7e	-0.013061402
4	0x3e3f4483	0.18678479
5	0xbd59eada	-0.053202488
6	0x3d86ef43	0.06588604
7	0xbd796d17	-0.06089505
8	0x3e96665b	0.29374966
9	0x3e962962	0.29328448
10	0xbe67b94f	-0.22629283
11	0x3e0df40b	0.13862626
12	0x3e10f5db	0.14156286
13	0xbea6aa4b	-0.32551798
14	0xbe6c06b9	-0.2304944
15	0x3e9fdb6d	0.31222096
16	0x3e5b3715	0.21407731
17	0x3dcb3704	0.09922603
18	0x3e2e86aa	0.17043558
19	0xbe54915f	-0.2075858
20	0x3e15f006	0.14642343
21	0xbe5f7c1f	-0.21824692
22	0xbeb86fca	-0.36022788
23	0xbeafef33	-0.34362182
24	0x3e0fa476	0.1402758
25	0xbe3a0f6d	-0.18169947
26	0x3caecb70	0.021337241
27	0xbc917f33	-0.017760849
28	0xbda64be0	-0.08119941
29	0x3dfaba10	0.1224252
30	0x3bae568d	0.0053203763
31	0xbdc4fcae	-0.09618507
32	0xbdb1ca48	-0.0868116
33	0xbe73a3db	-0.23792975
34	0xbe9f384e	-0.31097645
35	0xbe215522	-0.15755132
36	0x3e7b4006	0.24536142
37	0x3dc7030b	0.09717377
38	0x3e008f28	0.1255461
39	0x3dd0b4dd	0.10190747
40	0x3dbd2496	0.09235494
41	0x3ce8fb7d	0.028440231
42	0xbe8b9b28	-0.27266812
43	0xbe92c07c	-0.2866248
44	0x3e888af1	0.26668504
45	0xbe9e649a	-0.30936128
46	0x3e0a87c3	0.13528351
47	0x3dd1e575	0.102488436
48	0x3e3927df	0.18081616
49	0x3d840819	0.06446857
50	0xbe1400cc	-0.14453429
51	0xbe831a42	-0.2560597
52	0xbe9f38fb	-0.3109816
53	0xbe5e2f94	-0.21697837
54	0xbd8ede8f	-0.069760434
55	0x3e841ab5	0.25801626
56	0x3e7c442b	0.24635379
57	0xbe66bf7b	-0.22533982
58	0x3e94c161	0.29053786
59	0xbe87c10e	-0.26514477
60	0x3d99a354	0.075018555
61	0x3d9f45a0	0.07776952
62	0x3e84bb5f	0.25924203
63	0xbe06efa1	-0.13177349
64	0x3e424135	0.18970187
65	0xbdb23a6f	-0.087025516
66	0xbe24e6fa	-0.16103736
67	0xbea85b0f	-0.32881972
68	0x3e22e159	0.15906276
69	0x3e769860	0.24081564
70	0x3e923591	0.28556493
71	0xbeb2c3dd	-0.34915057
72	0xbd9f54ed	-0.0777987
73	0xbd39a1cb	-0.045320313
74	0xbd2a35ca	-0.041555203
75	0x3e2bc5b8	0.16774642
76	0x3e23526f	0.15949415
77	0xbd980c0c	-0.07424173
78	0xbe5ecf31	-0.21758725
79	0x3e29806e	0.16552898
80	0x3e45f2f5	0.19330962
81	0x3e2b93ef	0.16755651
82	0x3ccde464	0.02513332
83	0xbd3da478	-0.046299428
84	0x3e777697	0.24166332
85	0x3e86a8ea	0.26300746
86	0x3e68df18	0.22741354
87	0xbce81ded	-0.028334582
88	0x3e88a115	0.26685396
89	0x3e81a662	0.25322253
90	0xbe3418bf	-0.17587565
91	0xbe5ddf71	-0.21667267
92	0x3dafa852	0.085770264
93	0xbdc3649c	-0.09540674
94	0x3e0e83cc	0.13917464
95	0xbbdee1f2	-0.006801837
96	0x3e8e62c5	0.2780973
97	0x3df2b55e	0.11850999
98	0x3e89f541	0.26944926
99	0xbe28d4a7	-0.1648737
100	0x3e69e88f	0.2284262
101	0x3eaf4034	0.3422867
102	0x3e83152e	0.25602096
103	0x3d936bd3	0.071983
104	0xbe53d49b	-0.20686571
105	0x3b9e9679	0.004839715
106	0xbdb90356	-0.090338394
107	0xbccf2e7a	-0.025290716
108	0x3cc9f7d3	0.024654305
109	0x3df502db	0.11963435
110	0x3e7f3cc9	0.24925531
111	0xbdc59316	-0.09647195
112	0xbe745eef	-0.2386434
113	0xbea68cdf	-0.3252935
114	0xbe4e5034	-0.20147783
115	0xbe2bc551	-0.16774489
116	0x3d6332ec	0.055468485
117	0x3e6c3106	0.23065576
118	0x3e469ec4	0.19396502
119	0x3ea292cf	0.3175263
120	0x3e5320c3	0.20617966
121	0xbe527734	-0.20553285
122	0x3e363f74	0.17797643
123	0xbdd1db0f	-0.1024686
124	0xbd78a62d	-0.060705353
125	0x3c6c397f	0.014418005
126	0x3ea84950	0.32868433
127	0xbe683ca9	-0.2267939
128	0x3eae9ad4	0.341025
129	0xbe249438	-0.16072166
130	0x3e6d4040	0.2316904
131	0x3e495fbf	0.1966543
132	0x3dd06310	0.10175145
133	0xbe4b8ade	-0.19877192
134	0xbdbbc938	-0.09169239
135	0x3d4cfd52	0.050046273
136	0x3e6abf9d	0.22924657
137	0xbe9a26a1	-0.30107597
138	0xbe0737ef	-0.1320493
139	0xbeb3eea9	-0.3514302
140	0xbe0399be	-0.12851617
141	0x3e0a5c4b	0.1351177
142	0xbd08a766	-0.03336277
143	0x3e2fb1db	0.1715769

cnn.0.bias f4 [16]
0	0xbdec2478	-0.11530393
1	0x3d8940b3	0.067017935
2	0x3c92e1f7	0.017930014
3	0x3e1256c2	0.14290908
4	0xbc753927	-0.014967239
5	0xbdc4a8e9	-0.096025296
6	0xbdef14a9	-0.116738625
7	0xbe9bb40a	-0.30410796
8	0xbd4ba786	-0.04972031
9	0x3e053ca7	0.13011418
10	0x3e99f62b	0.30070624
11	0xbe68a807	-0.22720347
12	0x36bcd52c	5.627653e-06
13	0xbe52d1fc	-0.20587915
14	0x3ea0d4e0	0.3141241
15	0xbcdda6e2	-0.027057115

cnn.1.weight f4 [16]
0	0x3f887ff3	1.0664047
1	0x3f83d49c	1.0299258
2	0x3f78cdee	0.97189224
3	0x3f81252c	1.0089469
4	0x3f7fd65b	0.99936455
5	0x3f809ede	1.0048482
6	0x3f7ac0a3	0.9795019
7	0x3f7391a8	0.9514413
8	0x3f81e300	1.01474
9	0x3f790f73	0.972892
10	0x3f84bb40	1.0369644
11	0x3f6e2b83	0.93035144
12	0x3f7cba7e	0.98722064
13	0x3f8085a8	1.0040789
14	0x3f7e2620	0.99276924
15	0x3f83a34c	1.0284209

cnn.1.bias f4 [16]
0	0x3d8f2e78	0.06991285
1	0x3cf0a2d2	0.029374514
2	0xbccbfe52	-0.024901543
3	0xba88f9e2	-0.0010450447
4	0xbc71d74a	-0.014760802
5	0x3cbb8f5d	0.02289551
6	0xbb6c8d6e	-0.003609504
7	0xbcb7ffed	-0.022460902
8	0x3c23fd7f	0.010009169
9	0xbcdf7ce4	-0.027281232
10	0x3cfc4110	0.030792743
11	0xbd8af898	-0.06785697
12	0xbcd8e996	-0.02647857
13	0xbba3882f	-0.0049905996
14	0xbd302334	-0.043002322
15	0x3cb7e620	0.0224486

cnn.1.running_mean f4 [16]
0	0xbdeec789	-0.11659152
1	0x3d797cb1	0.06090993
2	0x3c931e68	0.017958835
3	0x3e15ccd1	0.14628913
4	0xbc47a25e	-0.012184707
5	0xbdbe1133	-0.09280624
6	0xbdf4ed60	-0.11959338
7	0xbe9d6654	-0.30742133
8	0xbd4ecffc	-0.050491318
9	0x3e03ed32	0.12883452
10	0x3e98bdc8	0.29832292
11	0xbe68e0bd	-0.22741981
12	0x3ab16920	0.0013535358
13	0xbe51d0bc	-0.20489782
14	0x3ea2271b	0.3167046
15	0xbd019896	-0.031639658

cnn.1.running_var f4 [16]
0	0x3ea1bc98	0.31589198
1	0x3e48f801	0.19625856
2	0x3f2a9461	0.6663266
3	0x3f2c7174	0.67360616
4	0x3e407de6	0.18798026
5	0x3f084c5b	0.5324151
6	0x3ec062b7	0.37575313
7	0x3d4a62ec	0.049410746
8	0x3d86870f	0.06568729
9	0x3fd9372d	1.6969963
10	0x3e54427a	0.20728484
11	0x3e35f8f9	0.17770757
12	0x3ebd91e8	0.3702538
13	0x3f0c3339	0.5476566
14	0x3e89358f	0.26798674
15	0x3e20247a	0.15638915

cnn.5.weight f4 [32, 16, 3, 3]
0	0x3e029f4d	0.12756081
1	0x3deda42b	0.11603578
2	0x3e04def1	0.1297567
3	0xbba7e1cd	-0.005123353
4	0x3c99d7de	0.018779691
5	0x3d827cf8	0.06371492
6	0x3de06590	0.109568715
7	0x3c99e4ce	0.01878586
8	0x3d34d496	0.04414805
9	0xbdc320ce	-0.095277414
10	0x3d3212d5	0.04347499
11	0x3cb08294	0.02154664
12	0x3cf73508	0.030176654
13	0xbd224750	-0.03961879
14	0xbdbead3c	-0.093103856
15	0x3d3adfd4	0.045623615
16	0x3ca87eca	0.02056827
17	0xbaf3cc09	-0.0018600236
18	0xbd507b77	-0.050898995
19	0xbdca755a	-0.09885664
20	0xbc7f9e6e	-0.015601737
21	0x3cb5d67b	0.022196999
22	0xbca8615f	-0.020554243
23	0x3c9a9165	0.018868158
24	0xbc37e3ab	-0.011223714
25	0x3cbdf343	0.023187285
26	0x3d25eb41	0.04050756
27	0x3bcd8e0b	0.0062730364
28	0xbd9da1c9	-0.07696874
29	0xbda5effd	-0.08102415
30	0xbd1e406e	-0.038635664
31	0x3ceb7453	0.028741991
32	0x3d9bf6da	0.076154426
33	0x3c6dffcb	0.014526318
34	0xbda15e5b	-0.07879325
35	0xbd32e11e	-0.04367172
36	0x3cc7a72e	0.02437171
37	0xbc625682	-0.01381457
38	0x3d950ca2	0.072778
39	0x3cf6ff7a	0.030151118
40	0x3d23a49f	0.039951917
41	0x3cebede9	0.028799968
42	0xbc249281	-0.010044695
43	0x3d320adb	0.043467384
44	0x3cf5dde3	0.03001303
45	0x3ac3859a	0.0014917136
46	0xbbf34848	-0.007424388
47	0xbb479198	-0.003045177
48	0x3d08144d	0.033222485
49	0xbda8c301	-0.08240319
50	0xbc50afdb	-0.01273724
51	0x3d19fe49	0.03759602
52	0x3d09776a	0.033561148
53	0x3d02d9c8	0.031945974
54	0x3b5300cf	0.0032196527
55	0x3cce7f2c	0.025207125
56	0xbcfe3d83	-0.03103519
57	0xbd1d7379	-0.0384402
58	0x3d9ae77f	0.075636856
59	0x3bc5b845	0.0060339295
60	0x3dbe6e9e	0.09298442
61	0x3dada8e0	0.08479476
62	0xbd62c4dd	-0.055363525
63	0x3c779217	0.015110514
64	0x3d61a049	0.0550845
65	0x38d017bc	9.922634e-05
66	0xbd100ac8	-0.03516653
67	0x3c8f1292	0.01746491
68	0x3d30ad88	0.043134242
69	0x3bea3819	0.0071478006
70	0x3d3f4c7f	0.04670381
71	0x3d384e96	0.04499682
72	0x3d308d03	0.04310323
73	0x3c023f2d	0.007949633
74	0x3ced8b85	0.028997192
75	0x3d2a92b2	0.041643806
76	0xbc9400fa	-0.018066872
77	0x3d181579	0.037129853
78	0x3ca3ac55	0.019979635
79	0xbc9b7fb2	-0.018981788
80	0x3d2e2c5c	0.042522773
81	0xbba3b9ac	-0.004996499
82	0x3d6e746e	0.058216505
83	0x3c8b6831	0.017017456
84	0xbc8ba37e	-0.017045733
85	0x3d652318	0.05594167
86	0x3e014d59	0.12627162
87	0x3db52c0c	0.08846292
88	0xbc8ba831	-0.017047973
89	0xba067240	-0.0005128719
90	0xbd145497	-0.036213484
91	0x3c1b0eb4	0.009463955
92	0xbd25f951	-0.04052097
93	0x3dac072d	0.08399806
94	0x3d50306d	0.050827432
95	0x3d875afe	0.06609152
96	0xbc274242	-0.010208668
97	0x3dca0190	0.09863579
98	0x3c062234	0.008186866
99	0x3cc02a24	0.023457594
100	0x3c718250	0.014740542
101	0x3b714911	0.0036817233
102	0x3d93c022	0.07214381
103	0x3d2eee28	0.042707592
104	0xbd197811	-0.03746802
105	0x3c4619f1	0.012091146
106	0xbd161ac3	-0.036646616
107	0x3d8bd6ae	0.06828056
108	0xbd61d465	-0.055134196
109	0x3d6ca384	0.05777313
110	0xbd0328ba	-0.03202126
111	0x3d5273a6	0.051379822
112	0x3cc90676	0.024539214
113	0xbd3f859a	-0.04675827
114	0xbd61ffd2	-0.05517561
115	0xbc46d1cb	-0.0121349795
116	0xbb091eb4	-0.0020922842
117	0xbd0f4804	-0.03498079
118	0xbc285f65	-0.01027665
119	0x3dba312b	0.09091409
120	0xbcd8972e	-0.026439276
121	0x3cf9be5f	0.030486284
122	0x3cb2b581	0.021815063
123	0xbd4679d8	-0.048456043
124	0x3d05fff2	0.03271479
125	0x3d37ac3f	0.044842
126	0x3c96199c	0.018322758
127	0xbd40e5e0	-0.047094226
128	0xbd150b47	-0.036387708
129	0xbbb2a14e	-0.005451358
130	0x3d2da88e	0.042397074
131	0x3d55547a	0.052082516
132	0x3cb487fe	0.022037502
133	0x3c5990b7	0.013279132
134	0x3d36fa8a	0.044672526
135	0x3d11689e	0.03550016
136	0xbd8ca002	-0.068664566
137	0x3d3f8f3e	0.046767466
138	0xbba0d145	-0.0049077594
139	0xbc47d86a	-0.012197593
140	0xbca4542a	-0.020059664
141	0xbcee3447	-0.029077662
142	0x3d258fca	0.04042033
143	0xbd73454f	-0.05939227
144	0xbd14e2dc	-0.036349162
145	0xbce82ba4	-0.028341122
146	0xbd220b13	-0.039561342
147	0xbd599f23	-0.05313028
148	0xbdc81431	-0.09769476
149	0xbdd4c67e	-0.10389422
150	0xbca22193	-0.0197914
151	0xbc12cbb9	-0.008959704
152	0xbd55f442	-0.052234896
153	0xbd6a7186	-0.05723717
154	0x3d709ba4	0.05874218
155	0xbd38218c	-0.044953868
156	0xbda5fb2b	-0.08104547
157	0x3a04dd92	0.0005068417
158	0x3d27eddb	0.04099832
159	0xbcfcb4d9	-0.030847954
160	0xbd961354	-0.07327905
161	0xbbdc5512	-0.0067240084
162	0xbc3ca4aa	-0.011513868
163	0x393b1230	0.00017840485
164	0xbda50a1a	-0.08058567
165	0xbd0427c6	-0.032264493
166	0xbd2701a1	-0.040773038
167	0xbc2dbdc6	-0.010604328
168	0xbda32c49	-0.07967431
169	0xbc3d6295	-0.011559148
170	0x3cc02c9b	0.02345877
171	0x3b98edc8	0.0046670176
172	0xbdcb073c	-0.09913489
173	0xbd56a284	-0.05240108
174	0x3c9229f1	0.017842265
175	0xbd9f91c3	-0.07791474
176	0xbd6d2276	-0.057894193
177	0xbc6ac1b7	-0.014328412
178	0xbd7d0658	-0.061773628
179	0xbc1168b4	-0.008875061
180	0xbbebf977	-0.0072013694
181	0x3d89ca3f	0.067280285
182	0xbd0ad10d	-0.033890773
183	0xbcf2485e	-0.029575523
184	0x3d6dbec2	0.05804325
185	0xbdb5c74f	-0.08875906
186	0xbc86a6ab	-0.016436895
187	0xbdab1b9f	-0.08354878
188	0x3bcc95e3	0.006243454
189	0xbd143958	-0.0361875
190	0xbd0f8a41	-0.03504396
191	0xbae5bf08	-0.0017528245
192	0x3c81d2b5	0.015847543
193	0xbd8769b2	-0.06611957
194	0x3bd38ab1	0.0064557423
195	0x3d51fdee	0.051267557
196	0x3cbabdcf	0.022795586
197	0x3d5fc93f	0.054635283
198	0x3cf2bf36	0.029632192
199	0x3c212221	0.009834797
200	0x3ccf81e6	0.025330495
201	0x3d3557bb	0.04427312
202	0x3ad5a9fc	0.001630127
203	0x3d3dc0a9	0.046326313
204	0x3d1b666b	0.03793947
205	0x3c96aba0	0.018392384
206	0x3d810461	0.06299663
207	0x3d952846	0.07283072
208	0xbc3fc95b	-0.011705722
209	0x3d855fad	0.06512389
210	0x3b29abbb	0.0025889713
211	0x3d3426de	0.04398238
212	0xbda77bdf	-0.081779234
213	0x3cc7ad02	0.024374489
214	0x3d565f0f	0.05233675
215	0x3c8afa9c	0.016965203
216	0x3b81e06b	0.0039635203
217	0xbd8cf0e5	-0.068818845
218	0xbd4e007e	-0.050293438
219	0x3ccac264	0.024750896
220	0xbde72caf	-0.112878196
221	0xbda0bd16	-0.07848565
222	0xbdb97dc8	-0.09057194
223	0xbd8f91e2	-0.07010247
224	0xbd66c26f	-0.05633777
225	0x3b73cce5	0.0037200984
226	0x3d1a0c0f	0.037609156
227	0x3d848b0b	0.06471833
228	0xbd36871d	-0.044562448
229	0x3d89af15	0.06722847
230	0xbd651af0	-0.055933893
231	0xbdb1d647	-0.08683448
232	0x3d47e991	0.04880673
233	0x3c53c9a2	0.012926491
234	0xbdb0d0ef	-0.08633601
235	0xbd0e1421	-0.034687165
236	0x3c27a901	0.010233165
237	0xbd0e34c9	-0.03471831
238	0xbd2460d0	-0.04013139
239	0x3d0e6e30	0.03477305
240	0x3cbbba02	0.022915844
241	0xbd9ca268	-0.07648164
242	0xbd386223	-0.045015465
243	0xbcbc3410	-0.022974044
244	0x3c58ebbc	0.013239797
245	0xbd7206b6	-0.05908843
246	0x3d6f0fc2	0.058364637
247	0x3cf623c0	0.030046344
248	0x3d563c35	0.05230351
249	0x3d866ee6	0.06564121
250	0xbd981617	-0.07426088
251	0xbadeb34a	-0.0016990688
252	0xbd95b0aa	-0.073090866
253	0xbd0d9f69	-0.034575853
254	0xbdd6ce0d	-0.1048852
255	0xbc83ffcd	-0.016113186

cnn.5.bias f4 [32]
0	0xbce26178	-0.027634367
1	0xbd8735d7	-0.06602066
2	0x3c98e660	0.018664539
3	0x3d5266cc	0.051367566
4	0xbdbdb1b9	-0.092624135
5	0x3da48e94	0.08035007
6	0x3bdf4bd7	0.0068144607
7	0x3c1f01ab	0.0097049875
8	0xbd69afa3	-0.057052266
9	0xbd5cbc0a	-0.053890266
10	0x3d9884f0	0.07447231
11	0x3d434e1f	0.047681924
12	0x3ccb0686	0.024783384
13	0xbd774dd0	-0.060376942
14	0xbc7dd96c	-0.015493732
15	0xbd8b730c	-0.06809053
16	0xbd544d29	-0.0518314
17	0xbb664eef	-0.0035142263
18	0xbd845984	-0.06462386
19	0xbc37b02b	-0.011211435
20	0xbbe07d12	-0.006850847
21	0xbbbdb5d9	-0.0057895
22	0x3d9561b4	0.07294026
23	0xbd544e19	-0.051832292
24	0x3dbef88d	0.09324751
25	0x3d9bca09	0.076068945
26	0x3d66d1e2	0.056352504
27	0xbbe0445e	-0.0068440875
28	0xbd2d53a7	-0.042316105
29	0xbc220480	-0.009888768
30	0xbd4e9ea9	-0.05044428
31	0x3c98c15f	0.018646894

cnn.6.weight f4 [32]
0	0x3f776d74	0.9665139
1	0x3f8095b4	1.0045686
2	0x3f7a29a8	0.9771981
3	0x3f7a1837	0.976932
4	0x3f7b2d7a	0.98116267
5	0x3f785bb7	0.97014946
6	0x3f7fc08a	0.99903166
7	0x3f803966	1.0017517
8	0x3f761370	0.9612341
9	0x3f7dd424	0.99151826
10	0x3f7c8706	0.9864353
11	0x3f7b0f75	0.9807046
12	0x3f72d5e4	0.9485762
13	0x3f80bd5e	1.005779
14	0x3f8120da	1.008815
15	0x3f795e32	0.97409356
16	0x3f74353b	0.95393723
17	0x3f7c53ee	0.98565567
18	0x3f7ec50d	0.99519426
19	0x3f7c5aea	0.98576224
20	0x3f786b5f	0.97038835
21	0x3f82be10	1.0214252
22	0x3f7a4a97	0.97770065
23	0x3f7a37ec	0.9774158
24	0x3f80594c	1.0027251
25	0x3f7a0fcc	0.97680354
26	0x3f7e44e4	0.9932387
27	0x3f79c692	0.9756862
28	0x3f7c445c	0.9854181
29	0x3f803bf8	1.0018301
30	0x3f7702ed	0.9648884
31	0x3f7dc878	0.99134016

cnn.6.bias f4 [32]
0	0xbd0b31ff	-0.033983227
1	0x3a991b85	0.0011681175
2	0xbcb0da0b	-0.021588346
3	0xbcac98ba	-0.02106892
4	0xbc72c7dc	-0.014818158
5	0xbd0be706	-0.034155868
6	0xbae62069	-0.0017557266
7	0x3bcc33be	0.006231754
8	0xbd0951ac	-0.033525154
9	0xbc475a9d	-0.0121676
10	0xbcab7181	-0.020928146
11	0xbcf36a45	-0.02971376
12	0xbd2d3d45	-0.04229476
13	0x3bb0e5a4	0.005398469
14	0x3c28c709	0.01030136
15	0xbc889790	-0.016673833
16	0xbd358f7f	-0.0443263
17	0xbc14cd3c	-0.009082135
18	0xbc533df2	-0.012893187
19	0xbc39b382	-0.011334302
20	0xbcc6f1de	-0.024285253
21	0x3cb4e7ad	0.022083128
22	0xbc6a0087	-0.014282352
23	0xbc7568d3	-0.014978605
24	0x3c3efe28	0.011657275
25	0xbccd2196	-0.02504043
26	0xbc3b350f	-0.011426224
27	0xbcd5651a	-0.026049186
28	0xbd1cebe4	-0.0383109
29	0xb7fe508c	-3.0316667e-05
30	0xbd103da5	-0.03521504
31	0xbba3c718	-0.004998099

cnn.6.running_mean f4 [32]
0	0x3f6b66cb	0.91953725
1	0xbf96fb8d	-1.1795517
2	0x3f00e443	0.503483
3	0xbf5002c8	-0.81254244
4	0xbf8ede26	-1.1161544
5	0xbf33a11c	-0.7016771
6	0xbf67a87e	-0.90491474
7	0xbf2c6752	-0.67345154
8	0xbf2d5089	-0.6770101
9	0x3e99f31a	0.30068284
10	0xbf0704e7	-0.52741855
11	0x3f2dc07c	0.6787183
12	0x3ee549d0	0.44782877
13	0xbf7d62f8	-0.9897914
14	0xbf303037	-0.6882357
15	0x3e9e10b8	0.3087213
16	0xbfa81607	-1.3131722
17	0x3e995f82	0.2995568
18	0x3c13bba2	0.009016903
19	0xbf99cb38	-1.2015142
20	0xbede199a	-0.43378907
21	0x3f58c65a	0.8467766
22	0xbed31f84	-0.41234982
23	0x3f9f28a1	1.2434274
24	0x3f59b100	0.85035706
25	0xbf07828f	-0.5293359
26	0xbf9dc6bb	-1.2326273
27	0x3c234bc4	0.009966794
28	0x3e24b91b	0.16086237
29	0x3f47c341	0.7803231
30	0x3dd95500	0.106119156
31	0xbdd5b368	-0.1043461

cnn.6.running_var f4 [32]
0	0x400889c9	2.1334097
1	0x3f046ceb	0.51728696
2	0x3f4bbb23	0.7958242
3	0x3e763bac	0.240462
4	0x3f80e12d	1.0068718
5	0x3fff9aac	1.9969077
6	0x3f4f37e7	0.80944675
7	0x3f2a40ed	0.6650532
8	0x3f66e9cb	0.9020049
9	0x3ff77824	1.9333539
10	0x3fac70fd	1.3471981
11	0x3f1c6049	0.6108442
12	0x3fb3b003	1.403809
13	0x3e7aeea8	0.24505103
14	0x3e652fd2	0.22381523
15	0x3f8a2eec	1.079557
16	0x3f9b61d6	1.2139232
17	0x3f399683	0.7249529
18	0x3fbeb91c	1.4900241
19	0x3fa1cfb3	1.264151
20	0x40439c35	3.0564091
21	0x40344a9d	2.817054
22	0x3fb89818	1.4421415
23	0x3f4456cb	0.76694936
24	0x3faa6464	1.3311887
25	0x3f2a4e1e	0.6652545
26	0x3f3da669	0.74082047
27	0x3e95a3f9	0.29226664
28	0x3fae84ed	1.3634316
29	0x3fabf541	1.343422
30	0x3f2529d5	0.64516956
31	0x3fc4c0db	1.5371355

lstm.weight_ih_l0 f4 [256, 32]
0	0x3c284e7a	0.0102726165
1	0xbe00eb65	-0.12589796
2	0xbda146b9	-0.078748174
3	0x3db0fb38	0.08641666
4	0xbdc6f57e	-0.09714793
5	0xbd88d394	-0.0668098
6	0xbd8a0fa2	-0.06741263
7	0x3d7a7fcb	0.06115703
8	0xbc4904fe	-0.012269257
9	0xbe24b511	-0.16084696
10	0xbe1d10fa	-0.15338507
11	0xbd9d726d	-0.076878406
12	0xbd7ccaca	-0.061716832
13	0xbd7094f7	-0.058735814
14	0x3c9ab646	0.018885743
15	0xbd4e40dd	-0.050354827
16	0x3d25bf9c	0.040465936
17	0x3ae5070e	0.0017473416
18	0xbd4c44ac	-0.049870178
19	0xbab81268	-0.0014043571
20	0xbe31b1b9	-0.17352952
21	0xbdeebc07	-0.11656957
22	0xbdd5572a	-0.10417016
23	0x3cc83463	0.024439042
24	0xbdf08deb	-0.11745819
25	0x3be828ed	0.007084957
26	0xbdcbe5c5	-0.099559344
27	0xbd6d8919	-0.057992075
28	0xbda3e0b6	-0.080018446
29	0xbde30c29	-0.11086304
30	0x3cb7716d	0.022392953
31	0x3d6817b6	0.056663238
32	0xbc046222	-0.008080037
33	0xbe0400bf	-0.1289091
34	0x3db955b2	0.09049548
35	0x3c859743	0.016307479
36	0xbcff3119	-0.031151341
37	0xbddfe1cd	-0.1093174
38	0x3d8687b7	0.06568854
39	0xbd5ab3f1	-0.05339426
40	0xbdfba621	-0.12287546
41	0xbd868208	-0.0656777
42	0x3dd7dfe6	0.10540752
43	0x3dcc5a5b	0.099781714
44	0x3db62f0a	0.08895691
45	0x3d8e966e	0.06962286
46	0xbdbc3e98	-0.09191626
47	0xbc1943b9	-0.009354525
48	0x3d184b7c	0.037181363
49	0xbd60d04a	-0.05488614
50	0xbc89d26c	-0.01682397
51	0x3d019a1a	0.031641103
52	0x3d45c2c6	0.048281454
53	0xbd04df79	-0.032439683
54	0xbdc493e6	-0.09598522
55	0xbd9de0d3	-0.077088974
56	0xbdbcd8e2	-0.092210546
57	0x3cbd9be1	0.023145618
58	0xbdeeeb36	-0.11665957
59	0x3d7b79a8	0.061395317
60	0x3d306f0a	0.043074645
61	0xbdc3f8cf	-0.09568941
62	0xbd4cffe6	-0.05004873
63	0x3cb5e63d	0.022204513
64	0xbe022139	-0.12707986
65	0xbdafb087	-0.08578592
66	0x3cc084a4	0.023500748
67	0x3c7098a4	0.01468483
68	0x3cffe045	0.03123487
69	0xbe142b1a	-0.14469567
70	0xbcae939a	-0.021310616
71	0x3cb2f4b6	0.021845203
72	0x3dad11dc	0.08450672
73	0xbe010bcd	-0.12602158
74	0xbdaec3d2	-0.085334435
75	0xbde6c2ed	-0.11267648
76	0x3d83293e	0.06404351
77	0x3da74170	0.08166778
78	0x3dac7f59	0.08422727
79	0xbd7290e9	-0.05922023
80	0xbda2776e	-0.07932936
81	0x3a052ba4	0.00050800503
82	0x3cd23524	0.025660105
83	0xbc35b35d	-0.011090127
84	0xbd6c9707	-0.05776122
85	0x3dab6a55	0.083698906
86	0xbd27560c	-0.040853545
87	0x3ca5358b	0.020167133
88	0xbe1881a2	-0.14893201
89	0x3d1983fb	0.037479382
90	0xbe185432	-0.14875868
91	0xbd0f53d5	-0.034992058
92	0xbcf76b6b	-0.030202588
93	0x3dccd3a1	0.100013025
94	0x3d66e599	0.056371305
95	0xbd3df5f3	-0.046377134
96	0xbd508070	-0.050903738
97	0x3caace9b	0.02085047
98	0xbd923af9	-0.071401544
99	0x3dd6ec84	0.104943305
100	0xbde65596	-0.11246793
101	0xbdd1c017	-0.10241716
102	0xbe055f0a	-0.13024536
103	0x3dadd3c4	0.08487657
104	0xbcd594ed	-0.02607199
105	0x3d9b28e3	0.07576158
106	0xbc2f97ce	-0.010717345
107	0x3dd7bd99	0.1053421
108	0xbcf07b45	-0.029355654
109	0x3d94d4d5	0.07267157
110	0x3b5e4de7	0.0033920945
111	0x3d8c0632	0.06837119
112	0x3cd48eac	0.025946938
113	0xbdca9cde	-0.09893201
114	0xbd97aba1	-0.074057825
115	0x3d90bb76	0.07067005
116	0x3c28e075	0.010307421
117	0x3c0d227a	0.008614177
118	0x3ca85c95	0.020551959
119	0xbdb05aaf	-0.086110465
120	0x3c89bbc3	0.016813165
121	0xbd24216f	-0.040070947
122	0xbc9bba12	-0.019009624
123	0xbdc2357b	-0.09482857
124	0x3c0d278c	0.008615386
125	0xbd80a51a	-0.062814906
126	0xbdfd90ad	-0.1238111
127	0xbd93734d	-0.07199726
128	0x3ccbf9f6	0.024899464
129	0x3cb92995	0.022602836
130	0xbd4980e5	-0.04919519
131	0xbe01c0f2	-0.12671259
132	0x3d8fe3b7	0.07025855
133	0xbd1bc265	-0.038027186
134	0x3dd2a62d	0.10285602
135	0x3dac3138	0.08407825
136	0xbcb1edb0	-0.021719784
137	0x3d8cc0ea	0.06872733
138	0x3d8a0823	0.06739833
139	0xbe175390	-0.1477797
140	0xbb4621ef	-0.0030232628
141	0x3db3c2b8	0.08777374
142	0xbd0b7c0f	-0.03405386
143	0xbd9d296f	-0.076739185
144	0xbce53280	-0.027978182
145	0x3dba01e1	0.090823896
146	0x3ce8dd32	0.028425787
147	0xbc1713db	-0.0092210425
148	0xbd773737	-0.06035539
149	0xba690a9b	-0.0008889825
150	0xbd05427c	-0.032534108
151	0xbdf494c2	-0.11942436
152	0x3bac2322	0.0052532116
153	0x3dae5ff8	0.08514398
154	0x3cb02811	0.02150348
155	0x3cc28565	0.023745248
156	0xbdf59863	-0.11991956
157	0x3d307f54	0.04309018
158	0x3d9fc473	0.078011416
159	0x3cd1668b	0.025561592
160	0xbd54484f	-0.05182677
161	0xbe1da2a1	-0.15394069
162	0x3d843261	0.064549215
163	0xbc85b112	-0.016319785
164	0xbd7187ee	-0.058967523
165	0x3dac469e	0.08411907
166	0xbd8ed85d	-0.06974862
167	0xbc93bc5c	-0.018034153
168	0xbe02674f	-0.12734722
169	0xbd42f090	-0.0475927
170	0x3d171021	0.036880616
171	0xbdc97a4d	-0.0983778
172	0xbe0ed2b6	-0.13947567
173	0x3cc5bf57	0.02413909
174	0xbe096c77	-0.13420282
175	0x3d944d37	0.0724129
176	0xbd71232e	-0.05887144
177	0xbd929aba	-0.07158418
178	0xbd1ef749	-0.03881005
179	0x3d5c978a	0.053855456
180	0xbdb9ef09	-0.090787955
181	0xbc79d943	-0.015249553
182	0x3d862ad9	0.06551141
183	0x3cc918be	0.02454793
184	0xbd650063	-0.055908572
185	0xbde7cdce	-0.11318551
186	0x3cfabb9e	0.030607041
187	0x3d33c1bb	0.043885928
188	0xbd83ce58	-0.06435841
189	0xbc5fe185	-0.013664608
190	0xbd729ada	-0.05922971
191	0xbe1e7214	-0.15473205
192	0xbddc6dec	-0.107631534
193	0x3cf95858	0.030437633
194	0xbdf98581	-0.12183667
195	0xbd274d3d	-0.040845145
196	0xbdfcf8e4	-0.123521596
197	0xbc641b18	-0.013922475
198	0xbcf7e5e7	-0.030260993
199	0x3d8459f2	0.06462468
200	0xbd80ac67	-0.06282883
201	0x3c98302f	0.018577663
202	0x3dbc45db	0.091930114
203	0x3ddf4bf9	0.109031625
204	0x3dc3d706	0.09562497
205	0xbdad35d5	-0.08457533
206	0xbcf42fba	-0.029807914
207	0x3cc88e9e	0.024482068
208	0xbdc46434	-0.09589425
209	0x3d19b52f	0.037526306
210	0xbdd240fe	-0.102663025
211	0x3d532975	0.05155321
212	0x3da06dd9	0.07833452
213	0x3d2e6bbb	0.04258321
214	0xbe07349b	-0.13203661
215	0xbc0e02ab	-0.008667628
216	0xbd5d7752	-0.05406887
217	0xba1fb610	-0.0006092498
218	0x3d49c529	0.049260292
219	0xbce741a9	-0.028229551
220	0xba1ea398	-0.0006051599
221	0xbe1f5ae7	-0.1556202
222	0xbd954d89	-0.07290179
223	0x3da2fd54	0.07958475
224	0x3cd9d511	0.026590856
225	0xbd08f48f	-0.033436354
226	0x3d60d648	0.054891855
227	0xbdcf8c70	-0.10134208
228	0x3ce14263	0.027497476
229	0xbce6c5fb	-0.028170576
230	0xbdde72a7	-0.10861712
231	0xbd08c273	-0.033388566
232	0xbde9503c	-0.113922566
233	0xbdce716d	-0.10080228
234	0x3d495f2b	0.049163025
235	0x3db60f5c	0.08889648
236	0x3d868145	0.06567625
237	0x3caf76ad	0.021418894
238	0xbe1396ff	-0.14413069
239	0x3de775f4	0.11301795
240	0x3cd659b3	0.026165819
241	0xbd9856c6	-0.07438426
242	0xbd80115c	-0.06253311
243	0x3bf85cf1	0.007579439
244	0xbdb26575	-0.08710758
245	0x3d8b913b	0.0681481
246	0x3dabd6f3	0.08390608
247	0x3e00b792	0.12570027
248	0x3c7e3d33	0.015517521
249	0x3dad54f2	0.08463468
250	0xbd101448	-0.03517559
251	0x3dc8530d	0.09781466
252	0x3dca2542	0.098703876
253	0x3d137f93	0.036010336
254	0xbc3d077e	-0.011537431
255	0xbd43643a	-0.047703005

lstm.weight_hh_l0 f4 [256, 64]
0	0xbdc8c57e	-0.09803294
1	0xbcc94cbb	-0.02457272
2	0x3dfc48e0	0.12318587
3	0xbdff7db5	-0.124751486
4	0xbd6d84fe	-0.05798816
5	0xbcf04654	-0.02933041
6	0xbd079d0b	-0.033108752
7	0x3d650966	0.055917166
8	0xbc423dce	-0.011855556
9	0xbdeaf3a4	-0.11472252
10	0x3c6375e8	0.0138830915
11	0xbcc62fc5	-0.0241927
12	0x3e0d8993	0.13822012
13	0xbd293bb5	-0.041316707
14	0xbdb85e43	-0.09002354
15	0x3e08cf97	0.13360439
16	0xbdbfc2d6	-0.09363334
17	0x3a422fb6	0.0007407622
18	0xbc55892e	-0.0130331945
19	0x3d54c813	0.05194862
20	0xbd8a7f50	-0.06762564
21	0x3dff5bea	0.12468703
22	0x3d0423fc	0.03226088
23	0x3c19fff8	0.009399407
24	0xbdab976b	-0.0837849
25	0x3c9806a4	0.018557854
26	0x3c8ca897	0.017170234
27	0xbcd9568b	-0.026530525
28	0xbc9fe79a	-0.019519616
29	0xbccf720a	-0.025322933
30	0xbdb4177e	-0.08793543
31	0x3dce056e	0.100596294
32	0xbdb3cd7f	-0.0877943
33	0xbc7e9b48	-0.015539952
34	0xbdb85915	-0.09001366
35	0x3de7df76	0.11321919
36	0x3ddbb8de	0.1072862
37	0x3dbadcd0	0.09124148
38	0x3d855b22	0.06511523
39	0x3dd27571	0.102763064
40	0x3d1f55d5	0.038900215
41	0x3d600b7c	0.054698452
42	0xbd6ba88c	-0.057533786
43	0xbd54423a	-0.05182097
44	0x3d49de05	0.049284
45	0x3d6da7ca	0.058021344
46	0x3dc977fd	0.09837339
47	0x3e07e7c0	0.13272
48	0x3da7af07	0.08187681
49	0x3cc11033	0.023567295
50	0xbdabb130	-0.08383405
51	0xbe170050	-0.14746213
52	0xbc740932	-0.01489477
53	0x3cce267a	0.025164831
54	0xbd85b16d	-0.06527982
55	0xbcef3e87	-0.02920462
56	0xbcb59d4a	-0.022169728
57	0xbe0cbe85	-0.13744552
58	0x3dd324b1	0.10309733
59	0xbd9ad1c3	-0.0755954
60	0xbd8d1813	-0.068893574
61	0xbdfeaf36	-0.124357626
62	0xbd85d592	-0.06534876
63	0xbdd87799	-0.105696864
64	0x3b399a31	0.0028320665
65	0xbd0bcdf0	-0.034131944
66	0x3dc00444	0.093758136
67	0xbd84cb9b	-0.06484147
68	0x3de34a02	0.110981
69	0xbdca1c1f	-0.09868645
70	0xbda0d2c1	-0.07852698
71	0x3daf691d	0.08564971
72	0xbb83d44c	-0.0040231105
73	0x3dac1fdf	0.084045164
74	0x3dc69959	0.096972175
75	0x3bb2e3ac	0.0054592695
76	0x3c8e544a	0.017374177
77	0x3d39ab6f	0.045329507
78	0xbd3b15ee	-0.04567521
79	0x3d3f40b7	0.046692576
80	0x3ba93538	0.005163815
81	0x3c5c3da8	0.013442434
82	0x3dee2602	0.11628343
83	0x3c9ba582	0.018999819
84	0xbdce37a8	-0.10069209
85	0xbdc01230	-0.09378469
86	0x3d8769e2	0.066119924
87	0x3d76adc2	0.060224302
88	0xbd4c374c	-0.049857423
89	0x3dcfd4b2	0.1014799
90	0xbdef48f0	-0.116838336
91	0xbc3c3cf7	-0.0114891445
92	0x3d89f4ac	0.067361206
93	0x3d98515f	0.07437395
94	0x3d98680c	0.0744172
95	0xbe0b3396	-0.13593897
96	0xbc5f2632	-0.013619946
97	0x3dd9c24c	0.10632762
98	0xbd94b2f0	-0.07260692
99	0x3c36b7d1	0.011152224
100	0x3da49047	0.08035331
101	0xbd83cbed	-0.0643538
102	0x3d9d4c69	0.0768059
103	0xbd8bbb71	-0.06822861
104	0x3dce63e9	0.1007765
105	0x3e01d774	0.12679845
106	0x3c177f7a	0.009246701
107	0x3c3ca8ec	0.0115148835
108	0xbde4b0d8	-0.11166543
109	0xbd9d0596	-0.07667081
110	0x3d626016	0.055267416
111	0x3de91b7a	0.11382194
112	0xbda21b87	-0.07915407
113	0xbb509202	-0.0031825309
114	0xbe00ea73	-0.12589435
115	0xbdc3015c	-0.09521744
116	0x3dbdf1a4	0.09274605
117	0x3d979d18	0.0740301
118	0xbda11482	-0.0786524
119	0x3c03e41e	0.008049993
120	0xbbb1cb33	-0.0054258346
121	0x3d7ce37b	0.06174038
122	0x3e04942b	0.12947147
123	0xbc880e3b	-0.016608348
124	0xbd076ce2	-0.033062823
125	0x3dd5feee	0.104490146
126	0xbdfda09c	-0.123841494
127	0x3d0062ba	0.031344153
128	0xbdd08898	-0.10182303
129	0xbccbc8f6	-0.0248761
130	0xbcd98a86	-0.026555311
131	0xbd02cff3	-0.031936597
132	0xbd532284	-0.05154659
133	0x3d84e488	0.064889014
134	0x3d98d0cb	0.07461699
135	0x3dae9b0d	0.08525667
136	0x3db285ee	0.08716951
137	0x3db9e9a7	0.09077769
138	0xbdbe8566	-0.093027875
139	0x3d4a105d	0.04933201
140	0x3dc124ce	0.09430848
141	0xbd491692	-0.04909379
142	0xbe1addd9	-0.1512369
143	0xbdee9723	-0.11649921
144	0x3e08e122	0.13367131
145	0xbd1f6e2e	-0.038923435
146	0xbd9fc34c	-0.07800922
147	0xbe1d6bee	-0.15373203
148	0xbd71e4a3	-0.059055936
149	0x3d62519a	0.055253603
150	0x3a09c64a	0.00052556826
151	0xbd1bc4a3	-0.038029324
152	0xbdaa14cc	-0.08304748
153	0x3dc880e0	0.09790206
154	0x3d1645f8	0.03668782
155	0xbd19d25e	-0.037554137
156	0xbd9f1a31	-0.077686675
157	0x3d38fe35	0.045164306
158	0x3d37f044	0.04490687
159	0x3d6253d8	0.05525574
160	0xbd647f8a	-0.055785693
161	0x3d1e529a	0.038652994
162	0xbe18b607	-0.14913188
163	0x3da4d5a5	0.08048562
164	0xbd9ba0b4	-0.07599011
165	0x3d110a17	0.035410013
166	0xbd015830	-0.031578243
167	0xbe082326	-0.13294658
168	0x3d8860c0	0.066590786
169	0x3de1030d	0.1098691
170	0x3d9d635f	0.07684969
171	0x3bc38923	0.0059672757
172	0x3d197e54	0.03747399
173	0x3d2247cc	0.039619252
174	0xbdd930a8	-0.106049836
175	0xbd62b837	-0.055351462
176	0x3d18d8c9	0.037316117
177	0x3d687411	0.056751315
178	0xbd931988	-0.07182604
179	0xbd912b9a	-0.070883945
180	0xbda4a2f5	-0.08038894
181	0x3d9b148a	0.07572277
182	0xbd095869	-0.03353158
183	0xbc55d17d	-0.013050434
184	0xbdd20a18	-0.102558315
185	0xbe16c7e5	-0.14724691
186	0x3da92cce	0.08260499
187	0x3db3c894	0.087784916
188	0x3dff87de	0.124770865
189	0xbd788ca4	-0.060681
190	0xbdd8fec2	-0.10595466
191	0x3dba6fd6	0.09103362
192	0x3c427b81	0.011870266
193	0x3a8b9355	0.0010648767
194	0x3bd62d15	0.006536136
195	0x3d8055cd	0.06266365
196	0x3e018c31	0.12651135
197	0x3dafb417	0.08579271
198	0xbb6891fc	-0.0035487404
199	0x3d1b2cac	0.0378844
200	0xbdd13bcb	-0.10216483
201	0xbdbe7bdf	-0.0930097
202	0xbd8c9d8a	-0.06865986
203	0x3df5b440	0.119972706
204	0x3d977105	0.07394604
205	0x3dfcb90e	0.12339984
206	0x3dc04623	0.093883775
207	0xbd87d70a	-0.06632812
208	0x3de28d25	0.110620774
209	0x3ca1cad2	0.019750033
210	0x3ddcee11	0.10787595
211	0x3c48e3f9	0.012261384
212	0x3d32b08a	0.043625392
213	0x3d93f94f	0.07225286
214	0x3c4d21ed	0.012520296
215	0xbd8f55b4	-0.069987684
216	0x3da6201e	0.081115946
217	0xbd91df4d	-0.07122669
218	0xbd515d0b	-0.051114123
219	0x3da72c70	0.08162773
220	0xbbbfefba	-0.005857435
221	0x3c54193a	0.012945468
222	0x3c10ee58	0.008845888
223	0x3dba7d20	0.09105897
224	0xbda4c7a7	-0.08045893
225	0xbc572ab6	-0.013132742
226	0x3d89e436	0.06732981
227	0x3da26243	0.07928898
228	0xbb6a6162	-0.003576361
229	0x3c2a62c4	0.010399524
230	0x3d9b952e	0.07596813
231	0xbd8248ad	-0.06361518
232	0xbcd34d74	-0.025793768
233	0xbd9d9e95	-0.07696263
234	0xbcb09228	-0.021554068
235	0xbc10ad1f	-0.008830338
236	0x3d36ca38	0.044626445
237	0xbd801cd1	-0.06255496
238	0xbde453c6	-0.11148791
239	0x3d00929a	0.03138981
240	0xbd6c36ae	-0.057669334
241	0x3d34ea6f	0.044168886
242	0x3e08345a	0.1330122
243	0xbd98f421	-0.07468439
244	0xbca1b0d2	-0.019737635
245	0xbde38c77	-0.11110776
246	0xbdb4a112	-0.08819784
247	0xbdb32087	-0.087464385
248	0x3de07b30	0.10960996
249	0xbd3997f6	-0.045310937
250	0x3d8fbefa	0.07018848
251	0xbd7880f2	-0.060669847
252	0x3cdfb2f7	0.027307017
253	0xbbcbfb29	-0.006225009
254	0x3db20de6	0.08694057
255	0xbce0c09c	-0.027435593

lstm.bias_ih_l0 f4 [256]
0	0xbdf297be	-0.11845349
1	0x3d053db1	0.032529537
2	0xbdb97b66	-0.090567395
3	0xbdcb8c2a	-0.099388435
4	0x3d512897	0.0510641
5	0xbe15068f	-0.14553283
6	0xbe028f62	-0.12750009
7	0x3db0014f	0.085939996
8	0x3d6d3f95	0.057921965
9	0xbde3967f	-0.11112689
10	0x3c014205	0.007889275
11	0x3d8ce853	0.0688025
12	0xbd60d5b4	-0.054891303
13	0x3da3311b	0.079683505
14	0x3d21f2f7	0.03953835
15	0xbc4ced7e	-0.012507794
16	0xbd524180	-0.051331997
17	0x3da832e3	0.08212831
18	0xbe20b6cb	-0.1569473
19	0x3c845e5f	0.01615828
20	0x3d662ca3	0.056194913
21	0x3d510a00	0.051034927
22	0x3d80b5dc	0.06284687
23	0x3d58fbc5	0.05297448
24	0x3a72fbf0	0.0009269109
25	0x3d85a65c	0.06525871
26	0xbbcf2a56	-0.0063221855
27	0x3d8d0d77	0.06887334
28	0x3d703348	0.058642656
29	0xbe279e26	-0.16368923
30	0xbdc5af02	-0.09652521
31	0xbc94ef57	-0.018180532
32	0x3ce81b07	0.0283332
33	0xbd3ca36f	-0.0460543
34	0x3d211bab	0.039333027
35	0xbc8bee91	-0.01708153
36	0x3c739f35	0.014869501
37	0xbda1d535	-0.07901994
38	0xbdf89a68	-0.12138826
39	0xbda6e688	-0.08149439
40	0x3dac1167	0.08401757
41	0x3c132dab	0.008983056
42	0x3d985f3e	0.07440041
43	0x3c096650	0.00838621
44	0x3c1ae837	0.009454778
45	0xbda8fe3c	-0.08251616
46	0x3d84c444	0.06482747
47	0xbdd9bd3f	-0.10631799
48	0xbd966a5f	-0.073445074
49	0x3d9b150e	0.07572375
50	0x3c45653f	0.012048065
51	0xbd6a2bde	-0.05717074
52	0x3bfa2669	0.0076339734
53	0x3d40e06a	0.047089018
54	0x3c401546	0.011723822
55	0x3c3333e4	0.010937665
56	0x3da19755	0.078901924
57	0xbd225b45	-0.039637823
58	0x3dc45062	0.09585644
59	0xbdc9bbe1	-0.09850288
60	0xbdc1b7e5	-0.09458903
61	0xbdd082e6	-0.10181217
62	0xbe17a23b	-0.1480798
63	0x3d1331a7	0.035936024
64	0x3d76c626	0.060247563
65	0xbe0d73af	-0.13813661
66	0xbcea6493	-0.02861241
67	0xbcfa0f19	-0.030524777
68	0xbe07353c	-0.13203901
69	0xbdd41186	-0.10354905
70	0xbc6be4c7	-0.0143978065
71	0x3d7740fd	0.060364712
72	0xbd933fb8	-0.07189888
73	0xbe0f607c	-0.1400165
74	0xbd761c7e	-0.060085766
75	0xbdf7aca6	-0.12093477
76	0xbe14008a	-0.1445333
77	0xbcc32b18	-0.02382426
78	0x3d514553	0.051091503
79	0xbd55b222	-0.052171834
80	0xbdf43aa4	-0.11925247
81	0xbda300c5	-0.07959131
82	0xbdc72837	-0.09724467
83	0xbc96cdca	-0.018408675
84	0xbdb69531	-0.08915175
85	0xbe19c922	-0.15018132
86	0x3d838607	0.06422048
87	0x3d3af2b1	0.045641605
88	0x3caf61a8	0.02140887
89	0xbce0be05	-0.027434358
90	0xbd40a5ce	-0.047033124
91	0xbd344ca4	-0.044018403
92	0xbd4bed2e	-0.04978674
93	0xbdfe98b2	-0.12431468
94	0x3b7004a6	0.0036623864
95	0x3d2494ed	0.04018109
96	0xbda853cf	-0.0821911
97	0xbc8679d5	-0.016415516
98	0x3dedf6cb	0.11619338
99	0x3d9a48fa	0.075334504
100	0x3d90488b	0.070450865
101	0x3d9c3a92	0.07628359
102	0xbd9742f7	-0.073858194
103	0xbcd00bbb	-0.025396219
104	0xbd65dc58	-0.05611834
105	0xbc9716ef	-0.018443553
106	0x3dad9968	0.084765255
107	0x3b973eef	0.0046156566
108	0x3c412440	0.011788428
109	0x3d9e71a8	0.07736522
110	0xbd7f1a72	-0.06228108
111	0x3dccce1b	0.10000249
112	0x3da876fc	0.082258195
113	0xbd0e699c	-0.034768686
114	0x3d60cccf	0.05488282
115	0xbd757727	-0.059928086
116	0x3d1ef70f	0.038809832
117	0xbdbb16ee	-0.09135233
118	0xbe02005f	-0.12695454
119	0x3db43fa4	0.08801201
120	0xbdd009bb	-0.10158106
121	0xbd8d3ac5	-0.06895975
122	0x3cb18b9b	0.021673014
123	0xbda43fe9	-0.080200024
124	0x3d9624b0	0.07331216
125	0xbe090255	-0.13379796
126	0xbd3fe862	-0.046852477
127	0xbd6db239	-0.058031294
128	0x3d1aa5cd	0.037755776
129	0x3d9285c6	0.071544215
130	0xbd8385b8	-0.06421989
131	0x3d564ca8	0.0523192
132	0xbd6567af	-0.056007084
133	0xbd35f80d	-0.044426013
134	0xbdb24744	-0.08704999
135	0x3d4f382d	0.050590683
136	0xbdb4c517	-0.088266544
137	0x3b78455f	0.0037883145
138	0x3dd29f7d	0.10284326
139	0xbddc7c1f	-0.10765862
140	0xbdc048c3	-0.09388878
141	0xbd9c8ac0	-0.07643652
142	0x3d93b142	0.072115436
143	0x3c43d9fb	0.011953826
144	0xbd750745	-0.059821386
145	0x3d6cacbe	0.057781927
146	0x3dade3e5	0.08490733
147	0x3d8371a6	0.06418161
148	0x3de370bf	0.11105489
149	0xbdaf0e36	-0.085476324
150	0x3dcd2afe	0.10017966
151	0xbc69bfea	-0.014266947
152	0x3d8189d3	0.06325116
153	0xbd711707	-0.05885985
154	0xbb48afcd	-0.0030622364
155	0xbd62f7d3	-0.055412125
156	0xbdbbeba2	-0.09175803
157	0xbdf37983	-0.11888411
158	0xbd9d8261	-0.076908834
159	0xbd27508c	-0.0408483
160	0xbdaf11c0	-0.085483074
161	0x3deed615	0.11661927
162	0x3d52a2c5	0.05142476
163	0xbde9254c	-0.11384067
164	0xbcd963cc	-0.026536845
165	0x3dd46a27	0.103718095
166	0xbcae7f51	-0.021300944
167	0xbd8f78ad	-0.07005439
168	0x3c7a36fd	0.015271899
169	0xbc559782	-0.013036611
170	0xbe073a3b	-0.13205807
171	0xbd8b6a1e	-0.068073496
172	0x3ded0a84	0.11574271
173	0x3db3e6cc	0.087842554
174	0x3db61d5c	0.088923186
175	0x3e0ccd13	0.13750105
176	0x3dd3ba28	0.10338241
177	0x3da8cba3	0.082419656
178	0x3d00cd1b	0.031445604
179	0x3d1f1681	0.03883982
180	0x3c422a4b	0.011850904
181	0x3c4312c9	0.011906334
182	0x3da93e12	0.08263792
183	0x3d63a335	0.05557557
184	0xbc917c81	-0.017759563
185	0x3d8c9640	0.068645954
186	0x3d1c3f3f	0.038146254
187	0xbda3835c	-0.07984039
188	0xbd3bc49e	-0.045841806
189	0xbcef63b3	-0.029222345
190	0x3d4ec772	0.050483175
191	0xbd712553	-0.058873486
192	0xbdc0d53b	-0.094156705
193	0xbd809260	-0.06277919
194	0x3d11dd38	0.03561136
195	0x3bcad40c	0.0061898287
196	0xbe0e85c9	-0.13918222
197	0xbd2a10b1	-0.041519824
198	0xbe04e446	-0.12977704
199	0xbe011f9b	-0.12609713
200	0x3d63c269	0.055605326
201	0xbd6e7c7d	-0.05822419
202	0xbccc05ef	-0.024905173
203	0xbcc1fac1	-0.02367914
204	0xbdcf7965	-0.10130576
205	0x3daf333c	0.08554694
206	0xbdab68b8	-0.08369583
207	0xbcf910b4	-0.030403472
208	0x3d26f8d5	0.04076465
209	0x3ddd7942	0.10814144
210	0x3da129d8	0.07869309
211	0xbbf1e61e	-0.0073821684
212	0xbbdbf396	-0.0067123873
213	0xbd937f0d	-0.072019674
214	0xbd8a6d9b	-0.06759187
215	0xbdb12502	-0.08649637
216	0xbd437349	-0.047717366
217	0xbe0e7fa3	-0.13915877
218	0xbcf7f290	-0.03026703
219	0x3de34e2b	0.11098894
220	0xbdf37dff	-0.11889266
221	0x3d2bb1f9	0.041917775
222	0x3d571294	0.05250795
223	0x3d866b70	0.06563461
224	0x3d2307e9	0.039802466
225	0x3ba1acfc	0.0049339514
226	0x3de14a6a	0.110005215
227	0x3da59349	0.08084733
228	0x3c2e12aa	0.010624567
229	0x3dd700ea	0.10498221
230	0x3b93f3a0	0.0045151263
231	0xbe122a80	-0.14274025
232	0xbde58377	-0.112067156
233	0x3d3dad5d	0.04630791
234	0xbe10ecb8	-0.14152801
235	0xbde04726	-0.109510705
236	0xbdf285c0	-0.11841917
237	0xbe137057	-0.14398323
238	0xbdfd4ed3	-0.1236855
239	0x3bf4074d	0.0074471594
240	0x3ce68fa3	0.028144663
241	0xbe29609a	-0.16540757
242	0xbcbf1c08	-0.023328796
243	0x3dab809b	0.08374139
244	0xbd088d37	-0.033337798
245	0xbdb837c6	-0.08995013
246	0x3bb37a6b	0.00547724
247	0xbdc7dab8	-0.09758514
248	0xbd25770e	-0.040396743
249	0xbd92d25e	-0.071690306
250	0x3a7915be	0.0009501836
251	0xbdb25aac	-0.087087005
252	0x3d9ff759	0.0781085
253	0xbe077eb0	-0.13231921
254	0xbe0094ae	-0.12556717
255	0xbd95f6ff	-0.073225014

lstm.bias_hh_l0 f4 [256]
0	0x3d41dae3	0.047327887
1	0xbd9b07b4	-0.07569829
2	0xbd227440	-0.039661646
3	0xbd354bc2	-0.0442617
4	0xbda6a3a7	-0.08136683
5	0xbd95c28f	-0.073125
6	0xbdc5aaeb	-0.09651741
7	0xbd80ad78	-0.062830865
8	0x3c7d212d	0.015449804
9	0x3c9a00b7	0.018799169
10	0xbe0504b7	-0.1299008
11	0xbc685d03	-0.014182332
12	0x3d952e6d	0.07284246
13	0xbc3a2f95	-0.0113638835
14	0x3dcc6309	0.09979827
15	0x3dd26f7c	0.1027517
16	0xbd7a361e	-0.061086766
17	0xbd2da399	-0.042392347
18	0xbdfb0069	-0.122559376
19	0xbce85990	-0.02836302
20	0x3cb7cbfb	0.022436133
21	0x3d7ff40d	0.062488604
22	0x3de4d6da	0.11173792
23	0x3df2203a	0.11822553
24	0x3bca9df4	0.0061833803
25	0x3c88a427	0.016679836
26	0xbdca3ad5	-0.098745026
27	0xbd745918	-0.05965528
28	0xbdfa99bd	-0.122363545
29	0xbd2f5291	-0.04280335
30	0x3ca0c269	0.019623952
31	0xbdb283f8	-0.08716577
32	0xbd365b80	-0.044520855
33	0x3daf3474	0.085549265
34	0x3dee97fb	0.11650082
35	0xbe0bd2f0	-0.13654685
36	0xbcff9d78	-0.031203017
37	0xbe08a84a	-0.13345447
38	0xbc8e1d1d	-0.017347867
39	0x3dced1a0	0.100985765
40	0x3d054164	0.032533064
41	0x3d99582a	0.07487519
42	0x3c5c2ca7	0.01343838
43	0xb9e8b55c	-0.00044385612
44	0xbdcae93b	-0.099077664
45	0xbc3ad033	-0.011402178
46	0xbd190bfb	-0.03736494
47	0xbe093a22	-0.13401082
48	0xbd587ba3	-0.052852284
49	0xbda2ea6a	-0.07954867
50	0xbda14405	-0.07874302
51	0x3dbf2dd8	0.09334916
52	0x3d40df05	0.047087688
53	0xbe001b7a	-0.12510481
54	0x3d06f086	0.032944225
55	0x3d501e3f	0.050810095
56	0xbda3709a	-0.079804614
57	0xbcd50fcd	-0.026008511
58	0xbad9583d	-0.0016582083
59	0x3da40d35	0.080103315
60	0xbdeb1c11	-0.114799626
61	0xbda70b2c	-0.08156428
62	0xbc917a4c	-0.017758511
63	0xbc0e6354	-0.008690674
64	0xbdf6186a	-0.12016375
65	0xbdf2cdc1	-0.11855651
66	0xbdcbb8b8	-0.09947342
67	0xbe0af1d0	-0.13568807
68	0xbe053673	-0.13009052
69	0x3bff73f6	0.007795806
70	0xbdae5a1b	-0.0851328
71	0x3d3922af	0.045199092
72	0xbd9468de	-0.07246564
73	0xbd778fb1	-0.06043977
74	0x3d14729a	0.036242105
75	0x3c29070f	0.010316624
76	0x3d7d63aa	0.061862625
77	0x3d20b3c6	0.039233945
78	0x3dbf8402	0.0935135
79	0xbcd53fc2	-0.026031379
80	0x3ce853c9	0.028360264
81	0x3dcb5dd7	0.09930008
82	0x3d923896	0.07139699
83	0xbb0deb22	-0.0021655043
84	0xbcfc130a	-0.030770797
85	0xbd383d23	-0.04498018
86	0x3ce2b1ea	0.027672727
87	0x3cec7541	0.028864505
88	0xbdd9a88f	-0.10627853
89	0xbe121ab9	-0.14268006
90	0xbe27528d	-0.16340084
91	0xbdc5a5c3	-0.09650757
92	0x3dc2df38	0.09515232
93	0xbe09e1fe	-0.13465115
94	0xbd9f4427	-0.07776671
95	0xbdc93d67	-0.09826165
96	0xbdc8ee5f	-0.09811091
97	0xbd9c51e1	-0.07632805
98	0xbcc7de20	-0.02439791
99	0xbd6898a6	-0.056786202
100	0x3dbb2e3f	0.0913968
101	0x3da9fe52	0.08300461
102	0xbd2f60c4	-0.042816892
103	0xbd228e9c	-0.039686784
104	0xbd09e2aa	-0.03366343
105	0xbca6ab6d	-0.020345414
106	0xbccdf90c	-0.025143169
107	0xbbe99265	-0.0071280473
108	0xbd37de6c	-0.044889852
109	0x3b0df0c8	0.002165841
110	0xbdc740fe	-0.09729193
111	0x3d69b1b8	0.05705425
112	0x3d37d35b	0.0448793
113	0xbd5945eb	-0.053045195
114	0xbda5eb38	-0.08101505
115	0xbdc8019b	-0.09765931
116	0xbd991fbb	-0.07476755
117	0x3c14d286	0.009083396
118	0x3dc6942e	0.09696232
119	0xbe01fa53	-0.12693147
120	0x3d001330	0.0312683
121	0xbd470571	-0.048589174
122	0xbd2ca473	-0.04214902
123	0x3d149840	0.03627801
124	0xbdfd18ba	-0.12358232
125	0x38299584	4.0431987e-05
126	0xbe1b7e10	-0.15184808
127	0xbd8c95e6	-0.06864528
128	0x3cab8fb8	0.020942554
129	0xbcd00d73	-0.025397038
130	0x3d336a0e	0.043802314
131	0x3db69094	0.08914295
132	0x3d5bf9e3	0.053705107
133	0x3e033ef5	0.12816985
134	0xbdfeef92	-0.12448038
135	0x3d8fd48b	0.07022961
136	0x3d643e92	0.055723734
137	0xbb1848f2	-0.0023236838
138	0x3dd60783	0.104506515
139	0x3d0bb7ae	0.034110717
140	0x3ccf3202	0.0252924
141	0x3da0afa0	0.07845998
142	0xbd0deb1a	-0.03464804
143	0xbd834710	-0.064100385
144	0x3d099cef	0.03359693
145	0x3ca61eb4	0.020278312
146	0xbe03c9ee	-0.12869999
147	0x3d8b86ae	0.068127975
148	0x3d207c21	0.03918088
149	0x3da64bfc	0.081199616
150	0xbd906ac2	-0.070516124
151	0x3da1129c	0.078648776
152	0x3d698817	0.05701455
153	0xbd7e0c2a	-0.06202332
154	0xbcf2ea60	-0.029652774
155	0x3db6db52	0.08928551
156	0x3b2e2a42	0.002657548
157	0x3d65f07c	0.056137547
158	0x3d7b50da	0.061356403
159	0x3dc7713f	0.09738397
160	0xbdf6f0a1	-0.12057615
161	0x3c30b40e	0.010785116
162	0x3c85b2a4	0.016320534
163	0x3dc6003a	0.09668012
164	0x3d1c4d07	0.038159396
165	0xbdd9c633	-0.106335066
166	0xbdeb1658	-0.11478871
167	0x3dc1632a	0.09442742
168	0x3d362a50	0.044473946
169	0x3d8c0404	0.068367034
170	0x3d60d291	0.05488831
171	0xbd173cd3	-0.03692324
172	0x3ddfe430	0.10932195
173	0xbd9cced4	-0.07656637
174	0x3e1b690e	0.15176794
175	0xbd5a205c	-0.053253517
176	0x3dd2ffe8	0.103027165
177	0x3d9849f7	0.07435983
178	0x3db8aead	0.09017692
179	0x3d4f82c7	0.05066183
180	0x3da44e40	0.080227375
181	0xbdfc342e	-0.1231464
182	0x3dd944e6	0.106088445
183	0xbcc7f089	-0.024406688
184	0x3c9da684	0.01924444
185	0x3dd12445	0.10211996
186	0x3c2b82a4	0.010468159
187	0xbd4408ea	-0.047860064
188	0x3d214051	0.039367978
189	0x3dcb466a	0.0992554
190	0x3c998f8f	0.018745212
191	0xbd3bdaa6	-0.045862816
192	0xbc80179a	-0.015636254
193	0x3ca704d2	0.02038804
194	0x3d0441aa	0.032289185
195	0xbd1d79c3	-0.0384462
196	0xbd03108f	-0.031998213
197	0xbe228274	-0.15870076
198	0xbd1329df	-0.035928603
199	0x3c66eeef	0.014095052
200	0x3cd0882c	0.025455557
201	0xbdbe0938	-0.09279102
202	0xbd196e33	-0.03745861
203	0xbd8b0ae2	-0.06789185
204	0xbdc6970b	-0.09696778
205	0x3d70bb9a	0.05877266
206	0xbbb23d59	-0.005439442
207	0xbe04e359	-0.12977351
208	0xbc2e73a4	-0.010647688
209	0x3dabc61d	0.083873965
210	0xbde7421a	-0.11291905
211	0x3d0ea1dd	0.034822334
212	0xbd87b06e	-0.06625448
213	0x3dc4f2b8	0.096166074
214	0x3db3e107	0.08783155
215	0xbdbd16d6	-0.09232871
216	0xbdffdb12	-0.12492956
217	0x3bda5485	0.0066629075
218	0xbdd57f0d	-0.10424624
219	0xbc6717a1	-0.014104755
220	0xbbf8f8c6	-0.0075980155
221	0xbd2bf074	-0.04197736
222	0xbe1150c4	-0.14190966
223	0xbcd67717	-0.026179833
224	0xbc8eded4	-0.017440237
225	0x3ddce2d8	0.107854545
226	0x3c04e47b	0.008111115
227	0xbcf0c24a	-0.02938952
228	0x3d8c48ad	0.06849799
229	0xbde5c2b2	-0.11218776
230	0x3d86177b	0.06547447
231	0xbe067cb5	-0.1313351
232	0x3dacd749	0.084395
233	0xbd9778d7	-0.07396095
234	0x3c8e3505	0.017359266
235	0xbd9a64e0	-0.07538772
236	0x3d45be25	0.04827704
237	0xbdb79b33	-0.08965149
238	0x3d0ab258	0.033861488
239	0xbe102a5f	-0.14078663
240	0xbcb3c188	-0.021942869
241	0xbe03fab6	-0.12888607
242	0x3d545fed	0.051849294
243	0xbd5088f4	-0.05091186
244	0x3dbc88c8	0.092057765
245	0xbd5a0c14	-0.053234175
246	0xbd44dac7	-0.048060205
247	0x3c1bec0a	0.009516725
248	0xbdf0b640	-0.117535114
249	0x3d60e64d	0.054907132
250	0xbdf1e3a2	-0.11810996
251	0x3bd717fe	0.0065641394
252	0x3de4c819	0.11170978
253	0xbe2b4b28	-0.16727889
254	0xbe207625	-0.15670069
255	0xbd97625e	-0.07391809
