backend/cnn_lstm_checkpoints/cnn_lstm_epoch_9.pth (torch, 788573 bytes, 64 tensors)

cnn.0.weight f4 [16, 1, 3, 3]
0.19901676 0.056378517 -0.12027086 0.07827119 0.26925632 0.010127744 0.06704932 -0.039389655
0.3019971 0.2727104 -0.25374117 0.0826316 0.21112551 -0.27575296 -0.22266737 0.36960384
0.24103752 0.09031639 0.034929603 -0.3503289 -0.05581173 -0.2829528 -0.21623313 -0.34695894
0.03330226 -0.26874384 -0.115377784 -0.1262467 -0.19111453 -0.079673395 -0.12449315 -0.117068596
-0.16246532 -0.13166787 -0.12704043 -0.13659 0.24652785 0.11594845 0.19241436 0.121917814
0.15169089 0.13458157 -0.24082029 -0.2417327 0.319763 -0.20116298 0.23651539 0.18427512
0.35693398 0.24548429 0.014513561 -0.06820805 -0.044255994 -0.023399403 -0.006600813 0.24280016
0.25400674 -0.08750581 0.42694783 -0.11686812 0.14727184 0.11966809 0.31973404 -0.14223535
0.2107397 -0.045496386 -0.19018623 -0.34276763 0.18195868 0.22799009 0.28189906 -0.35354343
-0.17300144 -0.1402346 -0.13722919 0.048277058 0.041858483 -0.17282821 -0.27140605 0.09293198
0.124612264 0.13634196 -0.014015025 -0.09580529 0.21296422 0.24223216 0.20974767 -0.035170436
0.31163445 0.33836067 -0.28699294 -0.3328033 -0.07415062 -0.20766573 0.0009898307 -0.15989044
0.1557962 -0.0119733345 0.12304109 -0.14504407 0.22519991 0.34941462 0.3108428 0.097791925
-0.17447968 0.095453694 -0.028480459 0.013381285 -0.10639198 -0.042647675 0.10354324 -0.23069519
-0.2741628 -0.35363743 -0.30617872 -0.25452897 -0.07739041 0.04023121 0.012959853 0.060450375
0.29721004 -0.04834053 0.344162 0.009437632 0.09625992 0.18841034 0.34613332 -0.18112487
0.3311638 -0.15121669 0.28920567 0.24594587 0.10544662 -0.17782699 -0.05848696 -0.043426517
0.10662952 -0.39334 -0.17144477 -0.35961744 -0.19347572 0.09906914 -0.07379189 0.10754438
00000000: 0dcb 4b3e 29ed 663d 9250 f6bd a54c a03d
00000010: f7db 893e d6ee 253c 2751 893d 0c57 21bd
00000020: 5d9f 9a3e b3a0 8b3e 5dea 81be c23a a93d
00000030: 4931 583e 7e2f 8dbe ea02 64be b73c bd3e
00000040: 8ad2 763e cdf7 b83d 5812 0f3d 4f5e b3be
00000050: d79a 64bd 30df 90be 386c 5dbe 9aa4 b1be
00000060: f367 083d cb98 89be 304b ecbd d146 01be
00000070: 87b3 43be ce2b a3bd 44f6 febd a9c1 efbd
00000080: 4f5d 26be f1d3 06be e316 02be 40de 0bbe
00000090: cc71 7c3e 6276 ed3d 4508 453e 0cb0 f93d
000000a0: db54 1b3e c0cf 093e 9899 76be c788 77be
000000b0: fab7 a33e abfd 4dbe 1731 723e 9eb2 3c3e
000000c0: 0dc0 b63e 3c60 7b3e 49ca 6d3c aab0 8bbd
000000d0: c645 35bd 1bb0 bfbc a24b d8bb 9ba0 783e
000000e0: 2c0d 823e 3f36 b3bd e898 da3e 8e58 efbd
000000f0: 6ece 163e 8b14 f53d 2eb4 a33e 25a6 11be
00000100: 26cc 573e 6b5a 3abd 2ec0 42be 3d7f afbe
00000110: 6053 3a3e 3c76 693e 1355 903e a503 b5be
00000120: 4a27 31be a999 0fbe cf85 0cbe 2abe 453d
00000130: cd73 2b3d e1f9 30be bcf5 8abe 1f53 be3d
00000140: b734 ff3d 3a9d 0b3e 479f 65bc 9035 c4bd
00000150: 4b13 5a3e b50b 783e 18c8 563e e00e 10bd
00000160: 8d8e 9f3e 9c3d ad3e bdf0 92be 3265 aabe
00000170: 48dc 97bd 53a6 54be 35bd 813a 52ba 23be
00000180: 0a89 1f3e ce2b 44bc f8fc fb3d 6f86 14be
00000190: ce9a 663e 79e6 b23e ca26 9f3e 2247 c83d
000001a0: cdaa 32be 3a7d c33d da4f e9bc 2d3d 5b3c
000001b0: 0ae4 d9bd 54af 2ebd 7a0e d43d 5c3b 6cbe
000001c0: 115f 8cbe f70f b5be 75c3 9cbe 9f51 82be
000001d0: dd7e 9ebd 7bc9 243d 9055 543c d09a 773d
000001e0: ea2b 983e b800 46bd 0036 b03e 4ca0 1a3c
000001f0: ec23 c53d a4ee 403e 6338 b13e cc78 39be
00000200: 4d8e a93e 8cd8 1abe c412 943e 3cd9 7b3e
00000210: 66f4 d73d 4718 36be 0690 6fbd 01e0 31bd
00000220: 9460 da3d dc63 c9be 388f 2fbe c71f b8be
00000230: 801e 46be c3e4 ca3d 3420 97bd 3a40 dc3d

cnn.0.bias f4 [16]
-0.0427952 -0.007958216 -0.021928018 0.12377561 -0.09810379 -0.18721388 -0.174713 -0.29563162
0.0037017325 0.09782099 0.34390014 -0.2646613 0.11043193 -0.21711949 0.33282837 -0.11575355
00000000: 054a 2fbd 2d63 02bc 63a2 b3bc 117e fd3d
00000010: a4ea c8bd ffb4 3fbe f7e7 32be 075d 97be
00000020: c498 723b 5f56 c83d ae13 b03e b081 87be
00000030: 232a e23d 9254 5ebe 7b68 aa3e 3210 edbd

cnn.1.weight f4 [16]
1.0123231 1.0467726 0.9890227 1.0658593 0.9099053 0.9148988 0.94278246 0.94666344
1.0580589 0.9316853 1.0578737 0.8981003 1.0164834 1.0785315 0.9790156 1.0952524
00000000: ce93 813f a5fc 853f 9730 7d3f 146e 883f
00000010: 8eef 683f cf36 6a3f 315a 713f 8958 723f
00000020: 796e 873f ee82 6e3f 6868 873f e7e9 653f
00000030: 211c 823f 520d 8a3f c4a0 7a3f 3b31 8c3f

cnn.1.bias f4 [16]
-0.0013344883 -0.028171688 -0.16410498 -0.12945423 -0.11446715 -0.081011854 -0.115108624 -0.0073937685
-0.051822204 -0.073084556 -0.016921226 -0.1129978 -0.15026215 0.035178114 -0.061191242 -0.06663402
00000000: ffe9 aeba 50c8 e6bc 230b 28be a68f 04be
00000010: c16d eabd 8be9 a5bd 12be ebbd 6d47 f2bb
00000020: 8543 54bd 5bad 95bd 629e 8abc 646b e7bd
00000030: 52de 19be ed16 103d aba3 7abd 6b77 88bd

cnn.1.running_mean f4 [16]
-0.042734064 -0.009537852 -0.022758339 0.122500874 -0.09530219 -0.18575904 -0.17545867 -0.29406476
0.0018079614 0.09444256 0.3420611 -0.26348895 0.113464475 -0.2160029 0.33481282 -0.11886296
00000000: ea09 2fbd a744 1cbc b26f babc bde1 fa3d
00000010: cb2d c3bd 9e37 3ebe 70ab 33be a88f 96be
00000020: 1ef9 ec3a 1a6b c13d a222 af3e 06e8 86be
00000030: 1060 e83d dd2f 5dbe 966c ab3e 6c6e f3bd

cnn.1.running_var f4 [16]
0.58757967 0.30143842 2.2091398 1.247512 0.6110337 0.4845347 1.4848777 0.046462033
0.3091916 1.5468044 0.62798893 0.49655065 2.1473541 0.8714016 0.53971654 0.8069553
00000000: 9f6b 163f 2356 9a3e 8c62 0d40 79ae 9f3f
00000010: b46c 1c3f ef14 f83e 7910 be3f f94e 3e3d
00000020: 5d4e 9e3e b0fd c53f e2c3 203f e33b fe3e
00000030: 406e 0940 2d14 5f3f dd2a 0a3f 9f94 4e3f

cnn.5.weight f4 [32, 16, 3, 3]
0.07915031 0.07601692 0.0828171 -0.042898916 -0.0069980314 0.03900719 0.078862995 -0.012493927
0.0065855975 -0.11322352 0.04333824 0.03172503 0.05541919 -0.027684174 -0.07516732 0.059312817
0.035537854 0.007892076 0.009358306 -0.045201395 0.043104522 0.07557807 0.016148439 0.047931988
0.043730587 0.07858251 0.09834163 0.053358532 -0.039338537 -0.037166256 -0.0060525043 0.056176912
0.105878465 0.04051357 -0.05334698 -0.0037222025 -0.01967511 -0.05956882 0.009459512 -0.014786091
0.009192359 -0.00918239 -0.044488125 0.01050028 -0.0054965476 -0.008076184 -0.0031249947 0.0042661503
0.0075870063 -0.09006224 -0.023694526 0.002852182 0.02303928 0.027198806 -0.038827796 -0.014427123
-0.08526005 -0.07375372 0.048036948 -0.03547929 0.06177615 0.054374337 -0.098697916 0.037063617
0.07213672 0.027458152 -0.012076338 0.023392322 0.03111817 0.052683257 0.09011558 0.07743185
0.08880564 0.07028894 0.08792497 0.097180285 0.060723737 0.117916144 0.054963328 0.02525502
0.081121996 -0.064454235 0.0025859247 -0.04673763 -0.052799787 0.024952516 0.093905605 0.068812214
-0.04697991 -0.041217655 -0.050186045 0.0021488953 -0.047578044 0.09269282 0.05543144 0.067131735
-0.0022327832 0.099870734 0.0038195176 -0.044799674 -0.049753726 -0.06100897 0.01444295 -0.0050919666
-0.087903224 -0.031159256 -0.06830371 0.035877366 0.06425273 0.17162852 0.07950207 0.15406142
0.12646401 0.046924476 0.04064351 0.09308062 0.11130673 -0.07835429 -0.058861665 0.03391986
-0.06891292 -0.0042699166 -0.017534828 -0.08736452 -0.0066094487 0.006402851 -0.13120773 -0.20301978
-0.20063117 -0.15600102 -0.092626356 -0.08606193 -0.11064657 -0.11392503 -0.081177235 0.14353186
0.042269252 0.15027417 0.08966254 0.06971451 0.061094843 0.061264817 0.12766944 0.037927613
-0.015781863 -0.008877136 -0.020940468 -0.043235913 -0.081291564 -0.0879588 -0.03121817 -0.014826103
-0.06654387 -0.101217434 0.062370908 -0.03800688 -0.099495426 0.025243895 0.061735183 -0.11662967
-0.115645744 -0.047841705 -0.07204663 -0.058173217 -0.1480932 -0.11481078 -0.122019485 -0.10433856
-0.1498533 -0.07894226 -0.056059014 -0.025335124 -0.12045063 -0.08103154 -0.034027964 -0.12091791
-0.114628986 -0.048570707 -0.08485667 -0.045729317 -0.0037114532 0.06894951 -0.028234737 -0.070283815
0.018375637 -0.12812106 -0.041425303 -0.10662806 -0.023895318 -0.08131144 -0.089865245 -0.055691466
-0.053003382 -0.13963659 -0.06687619 -0.013615007 -0.041571785 -0.016910037 0.026189331 0.015177608
0.033125136 0.021485819 -0.01202547 0.032757267 -0.006189262 -0.016478593 0.018239303 -0.013759048
-0.08890121 -0.002234895 -0.09098481 -0.03652664 -0.17232803 -0.0942581 -0.05840616 -0.10556702
-0.02508938 -0.09281255 -0.08743295 0.008117912 -0.13916275 -0.106186606 -0.11171813 -0.08631647
-0.07965175 -0.057529554 -0.020382501 0.004230262 -0.11449276 0.0014812397 -0.12467433 -0.16169527
-0.023429519 -0.0747694 -0.06399899 -0.0031570632 0.03897111 -0.015952606 -0.0153554855 0.058703467
0.02109001 -0.06962419 -0.0350491 -0.043044463 -0.00080223434 -0.076387525 0.0013784672 -0.01563977
0.005367465 0.0137338955 -0.113404535 -0.04747002 -0.11814769 -0.07628293 -0.15337972 -0.0936796
00000000: 8f19 a23d c2ae 9b3d 039c a93d c6b6 2fbd
00000010: be4f e5bb 01c6 1f3d ec82 a13d 54b3 4cbc
00000020: ffcb d73b bce1 e7bd 7083 313d 1bf2 013d
00000030: 3cff 623d ecc9 e2bc 53f1 99bd fff1 723d
00000040: 2490 113d c44d 013c 9553 193c 1925 39bd
00000050: 5e8e 303d adc8 9a3d bb49 843c 5554 443d
00000060: d81e 333d deef a03d 5667 c93d 7a8e 5a3d
00000070: 7221 21bd a53b 18bd 1654 c6bb c319 663d
00000080: cfd6 d83d 8ff1 253d 5d82 5abd 32f0 73bb
00000090: b22d a1bc 6ffe 73bd 12fc 1a3c 5c41 72bc
000000a0: 8c9b 163c bc71 16bc 2e39 36bd 5e09 2c3c
000000b0: 621c b4bb f951 04bc b6cc 4cbb 10cb 8b3b
000000c0: 6c9c f83b 8d72 b8bd 061b c2bc aceb 3a3b
000000d0: dfbc bc3c 08d0 de3c e509 1fbd bd5f 6cbc
000000e0: d29c aebd 310c 97bd 64c2 443d bb52 11bd
000000f0: fd08 7d3d a0b7 5e3d 2222 cabd 05d0 173d
00000100: 6bbc 933d ebef e03c d5db 45bc 41a1 bf3c
00000110: 88eb fe3c 66ca 573d 848e b83d 9794 9e3d
00000120: bbdf b53d a6f3 8f3d 0212 b43d 7506 c73d
00000130: 74b9 783d 057e f13d 3a21 613d 9ee3 ce3c
00000140: 4a23 a63d 9500 84bd 9e78 293b f56f 3fbd
00000150: 9744 58bd 3869 cc3c 9551 c03d 6bed 8c3d
00000160: 026e 40bd d8d3 28bd e28f 4dbd 7bd4 0c3b
00000170: 32e1 42bd bcd5 bd3d 140c 633d 5d7c 893d
00000180: e353 12bb 0789 cc3d df50 7a3b dd7f 37bd
00000190: 90ca 4bbd 8be4 79bd 1fa2 6c3c 83da a6bb
000001a0: 9b06 b4bd b241 ffbc d1e2 8bbd 25f4 123d
000001b0: ef96 833d 63bf 2f3e fbd1 a23d 47c2 1d3e
000001c0: c87f 013e e133 403d cf79 263d 0da1 be3d
000001d0: c8f4 e33d 3778 a0bd ee18 71bd 8def 0a3d
000001e0: 3822 8dbd a8ea 8bbb 33a5 8fbc 2bec b2bd
000001f0: 1394 d8bb 02cf d13b 525b 06be 6be4 4fbe
00000200: 4272 4dbe bbbe 1fbe e3b2 bdbd 3d41 b0bd
00000210: ab9a e2bd 8751 e9bd 4040 a6bd 04fa 123e
00000220: 8622 2d3d 79e1 193e fea0 b73d 7bc6 8e3d
00000230: 963e 7a3d d1f0 7a3d c7bb 023e fc59 1b3d
00000240: f748 81bc 6871 11bc 588b abbc 2418 31bd
00000250: 317c a6bd be23 b4bd 3fbd ffbc 2fe9 72bc
00000260: 2748 88bd 164b cfbd a378 7f3d 1aad 1bbd
00000270: 42c4 cbbd 49cc ce3c 08de 7c3d 89db eebd
00000280: add7 ecbd aaf5 43bd 2f8d 93bd 0a47 6ebd
00000290: bea5 17be ea21 ebbd 5ae5 f9bd 74af d5bd
000002a0: 2573 19be 7bac a1bd 239e 65bd 9b8b cfbc
000002b0: d2ae f6bd ddf3 a5bd e860 0bbd cfa3 f7bd
000002c0: 9ac2 eabd 14f2 46bd 55c9 adbd aa4e 3bbd
000002d0: da3b 73bb 6735 8d3d 894c e7bc f6f0 8fbd
000002e0: 8188 963c 2b32 03be 94ad 29bd d05f dabd
000002f0: 1dc0 c3bc 9d86 a6bd 450b b8bd bc1c 64bd
00000300: 131a 59bd e5fc 0ebe 62f6 88bd 7a11 5fbc
00000310: 2d47 2abd eb86 8abc 028b d63c 80ab 783c
00000320: 39ae 073d 0703 b03c 7a06 45bc 7c2c 063d
00000330: 4bcf cabb 1dfe 86bc 976a 953c a16d 61bc
00000340: d611 b6bd 5177 12bb 3e56 babd f59c 15bd
00000350: c276 30be 640a c1bd 4c3b 6fbd 8633 d8bd
00000360: 3e88 cdbc 8214 bebd 0c10 b3bd fe00 053c
00000370: ae80 0ebe 5d78 d9bd 7acc e4bd b0c6 b0bd
00000380: 7520 a3bd 1ca4 6bbd 34f9 a6bc 029e 8a3b
00000390: 2e7b eabd 2826 c23a 4155 ffbd 7293 25be
000003a0: 43ef bfbc b320 99bd e711 83bd bbe6 4ebb
000003b0: 2ca0 1f3d 0aaf 82bc 9395 7bbc 0c73 703d
000003c0: f5c4 ac3c 2197 8ebd a58f 0fbd 644f 30bd
000003d0: 094d 52ba 1071 9cbd afad b43a fa1e 80bc
000003e0: 8fe1 af3b 2204 613c a340 e8bd ec6f 42bd
000003f0: 6bf7 f1bd 3a3a 9cbd 930f 1dbe 17db bfbd

cnn.5.bias f4 [32]
-0.021022009 -0.07236646 0.088714555 0.10151907 -0.105330676 0.10557911 -0.05678141 0.020864367
-0.044245727 -0.048392136 0.057634983 0.10376208 0.02760629 -0.11805306 -0.061330475 -0.048467074
-0.05124414 0.004407251 -0.14471269 0.015522925 -0.04902996 -0.022327792 0.08368499 -0.06781949
0.16689877 0.063852005 0.06696426 -0.069393456 -0.0046686 -0.03971851 -0.042105034 0.034995377
00000000: 5936 acbc de34 94bd faaf b53d 3be9 cf3d
00000010: 9cb7 d7bd dc39 d83d a093 68bd c0eb aa3c
00000020: 023b 35bd d536 46bd a912 6c3d 3781 d43d
00000030: 9626 e23c cdc5 f1bd aa35 7bbd 6985 46bd
00000040: 60e5 51bd b36a 903b 902f 14be de53 7e3c
00000050: a4d3 48bd c6e8 b6bc 0963 ab3d f2e4 8abd
00000060: 83e7 2a3e d7c4 823d 8f24 893d 281e 8ebd
00000070: 0efb 98bb e0af 22bd 5476 2cbd 5057 0f3d

cnn.6.weight f4 [32]
0.92661947 1.0637922 1.0046176 1.0426636 1.0811298 0.951817 1.076358 0.9778373
0.94167167 0.9779687 0.9893646 1.0278265 0.92858994 1.0295384 1.0291643 0.9512557
0.86802626 1.0023719 0.9980872 1.0199897 1.019351 1.0462068 1.0072279 0.96031076
0.98272383 1.0304374 1.0486481 1.022347 1.0361165 0.97875494 0.971556 1.04662
00000000: ef36 6d3f 582a 883f 4f97 803f 0076 853f
00000010: 7662 8a3f 47aa 733f 19c6 893f 8c53 7a3f
00000020: 6511 713f 285c 7a3f 0047 7d3f d28f 833f
00000030: 12b8 6d3f eac7 833f a8bb 833f 7e85 733f
00000040: f836 5e3f b94d 803f a582 7f3f 068f 823f
00000050: 187a 823f 1bea 853f d8ec 803f edd6 753f
00000060: ca93 7b3f 5fe5 833f 1a3a 863f 44dc 823f
00000070: 779f 843f af8f 7a3f e5b7 783f a5f7 853f

cnn.6.bias f4 [32]
-0.03678209 0.061213028 0.022383748 0.022469122 0.08456648 -0.04766551 0.02650389 0.014073878
-0.08338327 -0.059279315 0.029565172 0.023160014 -0.08840546 0.055725083 0.014593248 -0.0005616392
-0.10773905 0.036715917 -0.058927376 0.026367558 -0.026851404 0.10399882 -0.023658477 0.026086554
-0.023156663 0.013369233 0.055212148 0.06137704 -0.048294913 0.003503757 -0.06926715 0.020009274
00000000: d1a8 16bd 83ba 7a3d 1f5e b73c 2a11 b83c
00000010: 3131 ad3d e93c 43bd b01e d93c 1f96 663c
00000020: d9c4 aabd dece 72bd a932 f23c 12ba bd3c
00000030: ec0d b5bd fc3f 643d 8518 6f3c f83a 13ba
00000040: 4ba6 dcbd 6e63 163d d55d 71bd c700 d83c
00000050: 7af7 dbbc 55fd d43d 6ccf c1bc 78b3 d53c
00000060: 0bb3 bdbc a10a 5b3c 2226 623d 7e66 7b3d
00000070: e3d0 45bd 4a9f 653b efdb 8dbd 7dea a33c

cnn.6.running_mean f4 [32]
0.4968583 -3.2908783 1.5052845 -2.8573806 -3.1835296 -0.29810417 -2.7011018 -2.8468359
-1.1008403 2.5411658 -3.3512287 0.56229424 -0.5484467 -3.1800315 -3.1229112 -2.871211
-2.9294667 -0.90189743 0.55699 -3.2951558 -0.0103073865 -1.4367868 0.29797184 -0.5255406
0.58734864 -1.0543077 -3.550876 0.12173826 0.72406405 -0.89292336 0.15391587 -0.8322709
00000000: 3664 fe3e c09d 52c0 2aad c03f 53df 36c0
00000010: f3be 4bc0 1ca1 98be dade 2cc0 8f32 36c0
00000020: 56e8 8cbf 76a2 2240 887a 56c0 84f2 0f3f
00000030: 0167 0cbf a385 4bc0 c7dd 47c0 ecc1 37c0
00000040: 627c 3bc0 c0e2 66bf e696 0e3f d5e3 52c0
00000050: 50e0 28bc a1e8 b7bf c48f 983e d489 06bf
00000060: 7b5c 163f 8ef3 86bf 8d41 63c0 e951 f93d
00000070: 435c 393f a096 64bf 1f9c 1d3e b50f 55bf

cnn.6.running_var f4 [32]
6.4497304 2.4710739 2.5415626 2.6455097 4.0755877 9.128338 2.3453908 3.9719257
11.081971 4.0963717 5.7671847 3.0207372 8.946957 4.2891493 2.4580288 2.410024
2.1760342 2.3005404 5.686956 3.880071 9.115335 1.4849001 9.036759 3.5527294
6.4126544 10.281073 5.0364842 1.8105323 7.276653 0.7713176 8.474293 6.3566427
00000000: 3164 ce40 1326 1e40 f6a8 2240 0850 2940
00000010: 376b 8240 ac0d 1241 e21a 1640 0834 7e40
00000020: c14f 3141 7a15 8340 c78c b840 c253 4140
00000030: bc26 0f41 b640 8940 5850 1d40 d53d 1a40
00000040: 2544 0b40 0e3c 1340 8bfb b540 1553 7840
00000050: 6ad8 1141 3511 be3f 9196 1041 eb5f 6340
00000060: 7734 cd40 467f 2441 e12a a140 86bf e73f
00000070: 57da e840 1275 453f b496 0741 9e69 cb40

lstm.weight_ih_l0 f4 [256, 32]
-0.016218482 -0.06440596 -0.03553981 0.18409045 -0.06284092 -0.20450102 -0.12031678 0.09292277
-0.12178164 -0.2518627 -0.24775787 0.040260844 -0.097619936 -0.10332936 0.06732722 -0.04191051
0.021617943 0.11145128 -0.19209509 0.024655467 -0.31348208 -0.028171606 -0.23258305 0.0596677
-0.16689673 -0.12927946 -0.14829607 0.01539649 -0.21509454 -0.06771358 -0.03264872 -0.09776511
-0.04140183 -0.18103443 0.031975925 -0.0376375 -0.040106744 -0.12440608 0.028864555 -0.12591654
-0.19095747 -0.099494174 0.046639673 0.06632686 0.055434838 -0.003860231 -0.12596935 -0.05392836
0.018849552 -0.088723324 -0.0435311 -0.0050064167 -0.018206544 -0.05920957 -0.12027835 -0.13709559
-0.107970044 -0.018439604 -0.17524076 -0.0022024952 -0.031089108 -0.12924832 -0.07593874 -0.047224272
-0.2112977 -0.120727874 -5.3837277e-05 -0.050874256 -0.037682284 -0.16676372 -0.049220156 -0.046142284
0.0023802451 -0.17137758 -0.15920748 -0.117601275 0.0023168938 0.055718157 0.06664911 -0.098722465
-0.105415165 -0.038017143 -0.021796055 -0.060306862 -0.12408689 0.024206763 -0.05396333 0.017578574
-0.22285515 0.03090203 -0.20395835 -0.06319727 -0.086980164 0.06368281 0.021607772 -0.09281348
-0.080445014 -0.021911943 -0.09792559 0.068128124 -0.18472672 -0.13940959 -0.1726178 0.06442988
-0.062883794 0.041687094 -0.055590983 0.10605033 -0.023884138 0.08438602 -0.028298743 0.04998583
0.0074235853 -0.16294447 -0.10602178 0.047666565 -0.014326137 0.0028679937 0.0058196657 -0.10749373
0.039216105 -0.072671615 -0.03496431 -0.12931328 -0.03708164 -0.074159406 -0.16047469 -0.11532392
-0.022777425 -0.030654196 -0.10925498 -0.16957738 0.01822226 -0.114715695 0.0663484 0.032608647
-0.083888896 0.019620687 0.009653428 -0.16680789 -0.047858227 0.036945492 -0.05532105 -0.099217944
-0.09405871 0.051771097 -0.019836873 -0.06033319 -0.13563444 -0.03321489 -0.083033115 -0.16219959
-0.047095437 0.008401034 -0.0405762 -0.0053908373 -0.1747719 -0.009849879 0.039489917 0.026299374
-0.06970892 -0.22464989 0.023692394 -0.060923398 -0.07095978 0.072965376 -0.12611881 0.0002103508
-0.18170811 -0.05129173 -0.03406344 -0.08640496 -0.16524953 0.014184318 -0.17441158 0.05157372
-0.073662534 -0.09514111 -0.11194822 0.052423537 -0.1487114 -0.037381537 0.029598068 -0.01209407
-0.07363212 -0.129 -0.025396982 0.0055773524 -0.075353995 -0.093786195 -0.07567199 -0.18195027
-0.13702857 -0.0318197 -0.16104382 -0.07757464 -0.15866727 -0.06059793 -0.058008995 0.0059387996
-0.0892891 -0.0052875075 0.07479841 0.04881612 0.05635821 -0.17410684 -0.08745479 -0.037119158
-0.13934663 0.006078176 -0.11299087 -0.008418322 0.023984771 -0.042805053 -0.1233196 -0.052205592
-0.05877833 -0.019467706 -0.057569344 -0.05991654 -0.012412746 -0.19091995 -0.1071784 0.09274663
0.10094682 -0.07785197 0.028155532 -0.16616498 -0.06852954 0.03391252 -0.146677 -0.096847974
-0.13112539 -0.04796062 0.08013551 0.10262602 0.16483122 -0.023662353 -0.17800492 0.094944134
0.027001206 -0.10787385 -0.0029984599 0.0035697382 -0.029395403 -0.01830892 0.10785345 0.07428561
0.055194717 0.18645051 -0.082374975 0.027978286 0.15104076 -0.06718428 0.10900658 0.06730582
00000000: 9fdc 84bc 46e7 83bd 3192 11bd 3582 3c3e
00000010: beb2 80bd b768 51be a568 f6bd 4b4e be3d
00000020: a768 f9bd 26f4 80be 3db4 7dbe 8ee8 243d
00000030: f6ec c7bd 589e d3bd dbe2 893d 5baa 2bbd
00000040: 1d18 b13c 9240 e43d 93b4 44be 43fa c93c
00000050: b980 a0be 24c8 e6bc 402a 6ebe 1e66 743d
00000060: fae6 2abe d661 04be edda 17be 8f41 7c3c
00000070: be41 5cbe 6bad 8abd aaba 05bd 1339 c8bd
00000080: f794 29bd 1761 39be 30f9 023d c729 1abd
00000090: f846 24bd 9dc8 febd 5c75 ec3c 44f0 00be
000000a0: 5b8a 43be 9ac3 cbbd 3e09 3f3d 60d6 873d
000000b0: a40f 633d eefb 7cbb 1cfe 00be fce3 5cbd
000000c0: 606a 9a3c 93b4 b5bd ab4d 32bd de0c a4bb
000000d0: e425 95bc bc85 72bd 7f54 f6bd c962 0cbe
000000e0: 661f ddbd a70e 97bc 5072 33be bd57 10bb
000000f0: 96ae febc ac59 04be c585 9bbd 3d6e 41bd
00000100: 6d5e 58be 2d40 f7bd 56cf 61b8 8661 50bd
00000110: bd58 1abd 1cc4 2abe 139b 49bd b1ff 3cbd
00000120: e3fd 1b3b 9b7d 2fbe 4907 23be f0d8 f0bd
00000130: 07d7 173b b938 643d 547f 883d 012f cabd
00000140: e8e3 d7bd ddb7 1bbd a48d b2bc 5404 77bd
00000150: 4421 febd 434d c63c a708 5dbd f100 903c
00000160: 2434 64be 4126 fd3c 75da 50be 926d 81bd
00000170: a822 b2bd 226c 823d c802 b13c fe14 bebd
00000180: 5bc0 a4bd ad80 b3bc 368d c8bd c286 8b3d
00000190: 0029 3dbe 63c1 0ebe b8c2 30be d0f3 833d
000001a0: 38c9 80bd 16c0 2a3d 5fb3 63bd ea30 d93d
000001b0: aba8 c3bc 94d2 ac3d c4d2 e7bc f1bd 4c3d
000001c0: 8c41 f33b eada 26be f221 d9bd 043e 433d
000001d0: 2cb8 6abc f3f4 3b3b e5b2 be3b ac25 dcbd
000001e0: 11a1 203d dbd4 94bd bc36 0fbd b36a 04be
000001f0: ebe2 17bd e3e0 97bd 7a53 24be f32e ecbd
00000200: b997 babc 821e fbbc 13c1 dfbd b1a5 2dbe
00000210: d946 953c 10f0 eabd ace1 873d a590 053d
00000220: f1cd abbd 90bb a03c 6929 1e3c b0cf 2abe
00000230: fd06 44bd 2854 173d 5398 62bd c732 cbbd
00000240: daa1 c0bd ee0d 543d f080 a2bc ef1f 77bd
00000250: c1e3 0abe 560c 08bd 440d aabd a617 26be
00000260: 25e7 40bd 7ea4 093c 3b33 26bd 9fa5 b0bb
00000270: 68f7 32be 6361 21bc 2ec0 213d c971 d73c
00000280: 8dc3 8ebd 9f0a 66be 8d16 c23c d08a 79bd
00000290: 5c53 91bd df6e 953d 4a25 01be 9d91 5c39
000002a0: b111 3abe 4717 52bd 1b86 0bbd 15f5 b0bd
000002b0: 2c37 29be 5765 683c f398 32be f73e 533d
000002c0: 62dc 96bd 58d9 c2bd 1c45 e5bd 10ba 563d
000002d0: cd47 18be 621d 19bd a677 f23c 3526 46bc
000002e0: 70cc 96bd 9318 04be 550d d0bc 39c2 b63b
000002f0: 3253 9abd fa12 c0bd ebf9 9abd 2c51 3abe
00000300: 3851 0cbe 6055 02bd ace8 24be 74df 9ebd
00000310: ac79 22be 8935 78bd d79a 6dbd 439a c23b
00000320: 34dd b6bd d442 adbb e92f 993d 69f3 473d
00000330: ded7 663d 1049 32be 7f1b b3bd 420a 18bd
00000340: e2b0 0ebe 702b c73b c267 e7bd 00ed 09bc
00000350: b67b c43c 5a54 2fbd fd8e fcbd 88d5 55bd
00000360: 8cc1 70bd bd7a 9fbc d5cd 6bbd 0c6b 75bd
00000370: d55e 4bbc 8580 43be 5980 dbbd f2f1 bd3d
00000380: 35bd ce3d db70 9fbd 6ea6 e63c 2727 2abe
00000390: 3759 8cbd dbe7 0a3d 7f32 16be 3b58 c6bd
000003a0: bc45 06be 5b72 44bd 161e a43d 972d d23d
000003b0: 84c9 283e 8dd7 c1bc ec46 36be 1272 c23d
000003c0: a231 dd3c f7ec dcbd cf81 44bb 45f2 693b
000003d0: a1ce f0bc 97fc 95bc 45e2 dc3d 0e23 983d
000003e0: db13 623d e2ec 3e3e 36b4 a8bd b832 e53c
000003f0: 6eaa 1a3e e997 89bd d83e df3d a2d7 893d

lstm.weight_hh_l0 f4 [256, 64]
-0.12701319 0.008317189 0.118714236 -0.12557165 -0.04735618 -0.005401792 0.0015320168 0.1659507
-0.035096787 -0.11535477 -0.03616827 -0.005999427 0.14084083 -0.06266391 -0.074131556 0.13573916
-0.0726821 0.052631207 -0.080959275 0.0313638 -0.08146812 0.09767438 0.033187598 0.013435447
-0.011836812 -0.023183377 -0.0203932 -0.057619616 0.0002482268 -0.019338768 -0.07340635 0.10474216
-0.17009272 0.012919223 -0.042111356 0.09282674 0.132956 0.13124128 0.0727312 0.14989413
0.028504616 0.04544021 -0.018264027 0.014654608 0.12331569 0.10098741 0.15755723 0.12252578
0.024840927 0.091565855 0.04434481 -0.107257694 0.028762113 -0.021012707 0.0045189364 -0.050471652
-0.00020901952 -0.11348135 0.1216841 0.020578947 -0.01586964 -0.12934071 -0.014985399 -0.08571599
0.039116815 -0.015796827 0.078439 -0.054018404 0.11794752 -0.08834386 -0.08703417 0.119539626
0.00515973 0.073445916 0.12725896 0.0028529032 0.034009323 0.038037598 -0.06848963 0.09142495
0.016667984 0.017390877 0.12040716 0.020890852 -0.14067878 -0.08733802 0.11760492 0.0925945
-0.06329642 0.0833671 -0.12899227 -0.031758536 0.095572144 0.063848816 0.100918286 -0.12984905
-0.037089974 0.15477884 -0.073021255 0.0060975784 0.06041547 -0.08101492 0.11096563 -0.08496407
0.106715426 0.1738844 0.0042160293 -0.0058033904 -0.14450985 -0.04772597 0.046559263 0.085756876
-0.062465556 -0.013261184 -0.06939539 -0.098333225 0.10877538 0.07262263 -0.10315876 0.016943315
-0.048288032 0.00756804 0.10962414 0.009414403 -1.0684689e-06 0.11229046 -0.11717397 0.033120073
-0.04596527 0.041914575 -0.059730984 -0.06614692 -0.010511739 0.05701089 0.09331855 0.11876472
0.08863127 0.0948416 -0.06444022 0.04330061 0.12300183 -0.023660604 -0.21533209 -0.09973819
0.082518786 -0.05520912 -0.10621023 -0.1642089 -0.112828776 0.06916279 -0.01906709 -0.00540827
-0.088305995 0.114797436 0.017575732 -0.0053205825 -0.011443591 0.08937773 0.030688388 0.011607917
-0.09413066 0.08423603 -0.15906025 0.031103166 -0.0724992 0.06923082 0.0065587736 -0.17417547
0.13198158 0.14593785 0.09541081 -0.013532917 0.08214158 0.06349243 -0.08903099 -0.017922947
-0.012406192 0.119121306 -0.07802189 -0.044834092 -0.08058798 0.0566265 -0.024864154 -0.005340899
-0.044730067 -0.2182111 0.07562927 0.0954553 0.15201044 -0.0133308135 -0.10963082 0.112988554
0.022373002 0.029371163 0.018181495 0.06749753 0.15029897 0.048042566 -0.013884315 0.084831566
-0.10265279 -0.08322821 -0.06427126 0.11155448 0.08135892 0.102093376 0.08198172 -0.040657554
0.13591696 0.03952923 0.13111308 0.009255982 -0.016098581 0.063423544 0.01861129 -0.06861334
0.079420134 -0.09836014 -0.061530173 0.087629914 0.012300768 0.020627502 0.008796098 0.0815965
-0.10170298 0.020464594 0.05060558 0.07734465 -0.008800742 0.015890473 0.0898913 -0.08167847
-0.0005782351 -0.054642204 -0.021890307 0.013900421 0.06599082 -0.05211176 -0.0817375 0.044525366
-0.07255153 0.06984696 0.16679296 -0.07188099 -0.024567813 -0.11048901 -0.10026693 -0.07519689
0.09081728 -0.07922333 0.06354238 -0.07165969 0.078321606 -0.034560166 0.116281934 -0.008474055
00000000: bf0f 02be d244 083c 7320 f33d db95 00be
00000010: 8ef8 41bd 8401 b1bb f4cd c83a fbee 293e
00000020: a6c1 0fbd 1f3f ecbd 2e25 14bd d796 c4bb
00000030: 9438 103e f055 80bd 49d2 97bd 35ff 0a3e
00000040: 5ada 94bd d293 573d facd a5bd 5477 003d
00000050: c2d8 a6bd 8109 c83d b8ef 073d 5920 5c3c
00000060: 30ef 41bc 11eb bdbc a40f a7bc 8c02 6cbd
00000070: 7024 8239 566c 9ebc 1256 96bd 0f83 d63d
00000080: c92c 2ebe 26ab 533c f57c 2cbd f21b be3d
00000090: 9e25 083e 1d64 063e 18f4 943d d97d 193e
000000a0: 8382 e93c 831f 3a3d 719e 95bc e219 703c
000000b0: f08c fc3d 7dd2 ce3d af56 213e ccee fa3d
000000c0: 337f cb3c e186 bb3d e7a2 353d eca9 dbbd
000000d0: 869e eb3c d722 acbc 9613 943b 5dbb 4ebd
000000e0: 402c 5bb9 e968 e8bd 8335 f93d 2e95 a83c
000000f0: 0c01 82bc e471 04be 5285 75bc dd8b afbd
00000100: f438 203d 5968 81bc a0a4 a03d 6742 5dbd
00000110: 788e f13d a0ed b4bd f93e b2bd 31d1 f43d
00000120: f412 a93b d06a 963d 2c50 023e c6f7 3a3b
00000130: 5c4d 0b3d 50cd 1b3d 4b44 8cbd 013d bb3d
00000140: 4c8b 883c 5077 8e3c 0798 f63d 4b23 ab3c
00000150: 190e 10be 47de b2bd d9da f03d 2fa2 bd3d
00000160: 8ea1 81bd 5fbc aa3d 8d16 04be 3d15 02bd
00000170: 54bb c33d 2bc3 823d 3fae ce3d 26f7 04be
00000180: a8eb 17bd 587e 1e3e 2b8c 95bd 32ce c73b
00000190: 3676 773d 26eb a5bd f341 e33d a401 aebd
000001a0: 9e8d da3d c10e 323e 9e26 8a3b 5e2a bebb
000001b0: 64fa 13be 4f7c 43bd edb4 3e3d 4da1 af3d
000001c0: e2db 7fbd 7045 59bc 2c1f 8ebd ee62 c9bd
000001d0: a0c5 de3d 2cbb 943d e644 d3bd b5cc 8a3c
000001e0: acc9 45bd 52fd f73b 9f82 e03d de3e 1a3c
000001f0: 5068 8fb5 8af8 e53d e8f8 efbd eaa8 073d
00000200: 1446 3cbd 9eae 2b3d 7aa8 74bd 0978 87bd
00000210: 6e39 2cbc 4084 693d cc1d bf3d eb3a f33d
00000220: 5084 b53d 503c c23d 3cf9 83bd fb5b 313d
00000230: 62e8 fb3d e2d3 c1bc 0480 5cbe 8943 ccbd
00000240: 9cff a83d f522 62bd c084 d9bd 6126 28be
00000250: c612 e7bd 39a5 8d3d 9632 9cbc db37 b1bb
00000260: c6d9 b4bd eb1a eb3d fbfa 8f3c 4858 aebb
00000270: e67d 3bbc ac0b b73d 3766 fb3c 222f 3e3c
00000280: 93c7 c0bd f183 ac3d b1e0 22be 11cc fe3c
00000290: 767a 94bd e3c8 8d3d fbea d63b 0e5b 32be
000002a0: 2e26 073e bb70 153e be66 c33d 2bb9 5dbc
000002b0: d839 a83d 5208 823d e155 b6bd 25d3 92bc
000002c0: 5743 4bbc dff5 f33d f1c9 9fbd f4a3 37bd
000002d0: 500b a5bd 30f1 673d e9af cbbc b502 afbb
000002e0: e036 37bd bb72 5fbe 85e3 9a3d 117e c33d
000002f0: a0a8 1b3e 7c69 5abc 2086 e0bd 8b66 e73d
00000300: 9647 b73c cb9b f03c 5cf1 943c 253c 8a3d
00000310: f9e7 193e 48c8 443d 0a7b 63bc 2cbc ad3d
00000320: a03b d2bd 8d73 aabd a6a0 83bd ad76 e43d
00000330: 819f a63d 5516 d13d 08e6 a73d 8988 26bd
00000340: d12d 0b3e 67e9 213d 8242 063e 67a6 173c
00000350: 2ce1 83bc 34e4 813d b476 983c 2785 8cbd
00000360: 06a7 a23d 0b71 c9bd 1007 7cbd 5077 b33d
00000370: 2989 493c 02fb a83c 821d 103c 111c a73d
00000380: a749 d0bd 5da5 a73c cc47 4f3d df66 9e3d
00000390: fd30 10bc bd2c 823c ee18 b83d 0b47 a7bd
000003a0: b394 17ba 81d0 5fbd 4d53 b3bc 97be 633c
000003b0: 3226 873d 2473 55bd fe65 a7bd 3b60 363d
000003c0: e695 94bd ec0b 8f3d c6cb 2a3e 5736 93bd
000003d0: 7042 c9bc 1048 e2bd c058 cdbd d400 9abd
000003e0: 69fe b93d d73f a2bd 8222 823d 51c2 92bd
000003f0: 1467 a03d f68e 0dbd 3925 ee3d c3d6 0abc

lstm.bias_ih_l0 f4 [256]
-0.10496359 -0.02621599 -0.14169241 -0.14318922 -0.012693899 -0.19699527 -0.17340414 0.06986384
0.0014128454 -0.2014392 -0.0099474 0.02259356 -0.11060367 0.038911656 -0.032058243 -0.084816925
-0.10185764 0.0035484962 -0.21789987 -0.059882443 0.025601055 -0.026370374 -0.006842143 0.021661006
-0.031260565 0.04995663 -0.084833935 0.0138155585 0.021858029 -0.23578964 -0.16882226 -0.06376731
-0.031926755 -0.10621055 0.00047144844 -0.086653985 -0.06572699 -0.11468812 -0.17067891 -0.15153098
0.030481856 -0.03533796 0.006158316 -0.027547052 -0.0316351 -0.06886183 0.024789482 -0.14912507
-0.13169068 -0.0053057414 -0.029088791 -0.108486705 -0.04800748 0.010357218 -0.060004517 -0.051295355
0.03590765 -0.08155029 0.035256706 -0.18499543 -0.14531572 -0.16230361 -0.21240704 -0.011158399
0.074732445 -0.20377845 -0.060589757 -0.07331648 -0.18300614 -0.14349477 -0.06358142 0.047253545
-0.11951831 -0.19613351 -0.058995586 -0.15631488 -0.19065648 -0.077583395 -0.008749344 -0.13473369
-0.17359008 -0.13240473 -0.14027986 -0.06640163 -0.12423317 -0.203398 0.009768107 0.001801771
-0.03513065 -0.061395958 -0.09509701 -0.084528595 -0.08321292 -0.1711993 -0.040774234 0.0026137754
-0.119657256 -0.057261474 0.067400716 0.02757307 0.0028897636 0.053861428 -0.11248365 -0.07022568
-0.09741382 -0.06691124 0.03450213 -0.028252004 -0.03638928 0.07117744 -0.044347715 0.06505958
0.029510273 -0.092349425 0.02137088 -0.10179217 -0.00016176855 -0.1140035 -0.20155889 0.044556495
-0.14494519 -0.117805354 -0.02125421 -0.14232343 0.03654482 -0.17100021 -0.09333431 -0.10227369
0.025490973 0.06252336 -0.054698233 0.012661034 -0.044037726 -0.03570066 -0.0657488 0.04700141
-0.10128397 0.007828773 0.09371483 -0.08382876 -0.087463 -0.069899336 0.05459464 -0.0069973385
-0.053439572 0.06334386 0.090587154 0.05164282 0.13313413 -0.07010138 0.08733897 -0.017105909
0.08544402 -0.077988416 -0.017716015 -0.037337318 -0.07933716 -0.12409421 -0.09069688 -0.06550143
-0.09280909 0.15672585 0.02480513 -0.10895065 -0.040060107 0.120420925 -0.008549873 -0.08721631
0.027372124 -0.031939033 -0.13410525 -0.05648653 0.11790308 0.09669054 0.117005885 0.14183965
0.08553853 0.07445085 0.024293631 0.038603213 0.006291398 0.024767196 0.08209437 0.064684406
0.002400951 0.040688954 0.04035155 -0.06979781 -0.052732196 -0.016909512 0.04983222 -0.06469492
-0.089798436 -0.12729275 -0.010680042 -0.027837973 -0.19927193 -0.09144329 -0.17691247 -0.15380265
-0.0052383076 -0.13511424 -0.020618679 -0.069568016 -0.1556811 0.045008685 -0.13527972 -0.11645498
-0.01212775 0.03764334 0.016508564 -0.07133008 -0.050199326 -0.14138329 -0.13265903 -0.11455241
-0.06988637 -0.13471308 -0.10696739 0.06455065 -0.16768858 -0.032695834 -0.015311289 0.024883764
0.013661962 -0.043967534 0.065265745 0.021892818 -0.07516938 0.075970076 -0.038171105 -0.20194294
-0.15953131 -0.010653257 -0.18676949 -0.12811698 -0.15820469 -0.16468503 -0.09928401 -0.032999553
-0.021963378 -0.24685667 -0.06647575 0.034336008 -0.08136108 -0.13061081 -0.07017196 -0.1610949
-0.08416647 -0.11410657 -0.04183943 -0.1776964 0.03488114 -0.18889229 -0.1875062 -0.12339027
00000000: 27f7 d6bd eac2 d6bc d117 11be 32a0 12be
00000010: 12fa 4fbc 21b9 49be db90 31be c614 8f3d
00000020: 3a2f b93a 1446 4ebe 6bfa 22bc 2116 b93c
00000030: 2d84 e2bd d461 1f3d 814f 03bd 7fb4 adbd
00000040: bd9a d0bd e38d 683b 2521 5fbe 4b47 75bd
00000050: 4eb9 d13c af06 d8bc 0e34 e0bb 6c72 b13c
00000060: 140b 00bd 539f 4c3d 6abd adbd a75a 623c
00000070: 9c0f b33c d772 71be bedf 2cbe 6f98 82bd
00000080: a1c5 02bd eb84 d9bd bd2c f739 a577 b1bd
00000090: df9b 86bd 9be1 eabd 74c6 2ebe f02a 1bbe
000000a0: 16b5 f93c 89be 10bd b3cb c93b 5baa e1bc
000000b0: ce93 01bd 6e07 8dbd 5013 cb3c 3eb4 18be
000000c0: ecd9 06be c9db adbb 9e4b eebc 472e debd
000000d0: 7ea3 44bd 52b1 293c 4cc7 75bd 141b 52bd
000000e0: e613 133d d703 a7bd 5669 103d 716f 3dbe
000000f0: a5cd 14be eb32 26be 3b81 59be b8d1 36bc
00000100: 530d 993d 4cab 50be f72c 78bd f326 96bd
00000110: f665 3bbe 4bf0 12be fa36 82bd ef8c 413d
00000120: 04c6 f4bd 39d7 48be 5ba5 71bd 0211 20be
00000130: 743b 43be 0be4 9ebd 6959 0fbc a1f7 09be
00000140: 99c1 31be 1b95 07be 86a5 0fbe 94fd 87bd
00000150: f66d febd 9147 50be 690a 203c 6729 ec3a
00000160: 28e5 0fbd 547a 7bbd 39c2 c2bd 541d adbd
00000170: 896b aabd df4e 2fbe e202 27bd e04b 2b3b
00000180: dd0e f5bd 028b 6abd 6309 8a3d ebe0 e13c
00000190: 3062 3d3b cd9d 5c3d d45d e6bd 7bd2 8fbd
000001a0: e680 c7bd c308 89bd 1b52 0d3d bf70 e7bc
000001b0: ed0c 15bd 7ac5 913d f3a5 35bd f53d 853d
000001c0: 87bf f13c b221 bdbd fc11 af3c 6a78 d0bd
000001d0: 6aa0 29b9 ab7a e9bd 7465 4ebe df80 363d
000001e0: 836c 14be ef43 f1bd 4f1d aebc 3cbd 11be
000001f0: 05b0 153d ae1a 2fbe 0f26 bfbd de74 d1bd
00000200: 72d2 d03c 3f0c 803d 410b 60bd 3a70 4f3c
00000210: e760 34bd db3a 12bd 4fa7 86bd 8d84 403d
00000220: f86d cfbd 4144 003c 90ed bf3d 6aae abbd
00000230: cd1f b3bd 6227 8fbd a19e 5f3d ee49 e5bb
00000240: 74e3 5abd 6dba 813d c285 b93d 6c87 533d
00000250: 5054 083e 5091 8fbd c6de b23d b121 8cbc
00000260: 46fd ae3d 64b8 9fbd 2d21 91bc 04ef 18bd
00000270: 857b a2bd 1b25 febd 49bf b9bd 9d25 86bd
00000280: b112 bebd be7c 203e 2134 cb3c 8521 dfbd
00000290: 1116 24bd 3f9f f63d c414 0cbc 779e b2bd
000002a0: 813b e03c 81d2 02bd e352 09be 6b5e 67bd
000002b0: 2c77 f13d b105 c63d c8a0 ef3d 6a3e 113e
000002c0: d32e af3d b079 983d 7003 c73c 671e 1e3d
000002d0: 1228 ce3b 93e4 ca3c 1821 a83d 4279 843d
000002e0: 4659 1d3b 76a9 263d ab47 253d 27f2 8ebd
000002f0: b7fd 57bd d185 8abc df1c 4c3d c57e 84bd
00000300: 3ee8 b7bd 0859 02be 58fb 2ebc 760c e4bc
00000310: f10d 4cbe 9f46 bbbd 8b28 35be 717e 1dbe
00000320: 1ca6 abbb 635b 0abe 81e8 a8bc ad79 8ebd
00000330: de6a 1fbe 075b 383d c486 0abe f37f eebd
00000340: 78b3 46bc e72f 1a3d f83c 873c 8115 92bd
00000350: cf9d 4dbd c8c6 10be c5d7 07be 749a eabd
00000360: 9620 8fbd 3af2 09be b811 dbbd 2233 843d
00000370: 8eb6 2bbe 11ec 05bd 33dc 7abc 09d9 cb3c
00000380: 6cd6 5f3c 4d17 34bd 0caa 853d 9158 b33c
00000390: 67f2 99bd 3396 9b3d 4e59 1cbd 21ca 4ebe
000003a0: 2d5c 23be 008b 2ebc 8040 3fbe 1931 03be
000003b0: 6900 22be 31a3 28be 6a55 cbbd 8a2a 07bd
000003c0: 8bec b3bc ffc7 7cbe 7024 88bd eaa3 0c3d
000003d0: a3a0 a6bd d7be 05be 51b6 8fbd 10f6 24be
000003e0: 785f acbd b5b0 e9bd d25f 2bbd 0cf6 35be
000003f0: 87df 0e3d fb6c 41be a001 40be 0ab4 fcbd

lstm.bias_hh_l0 f4 [256]
0.06081789 -0.13444386 -0.09078666 -0.0880627 -0.14512485 -0.12458755 -0.14242138 -0.078906916
-0.041059315 -0.07151302 -0.14773744 -0.060391337 0.0171301 -0.052135706 0.028201777 0.03044254
-0.11161243 -0.12097198 -0.18351202 -0.10440382 -0.008157729 -0.014916743 0.04204894 0.086912185
-0.026004044 0.0013779239 -0.17725672 -0.11471333 -0.15914845 -0.114903666 -0.052672986 -0.1327523
-0.10478066 0.025393028 0.07763915 -0.20611931 -0.111799486 -0.16912241 -0.06663853 0.030949019
-0.021002695 0.03055412 -0.054803617 -0.036377124 -0.14016722 0.002252167 -0.077402815 -0.17681774
-0.11109779 -0.16057792 -0.119879715 0.042033106 -0.008553727 -0.16183692 -0.038784128 -0.011422931
-0.12279881 -0.06792096 -0.062257804 -0.006389151 -0.16552655 -0.14205594 -0.08208581 -0.05578515
-0.10567888 -0.1841982 -0.1314508 -0.17847987 -0.1810576 -0.03214959 -0.13431638 0.032087862
-0.120085075 -0.1165566 0.037332386 -0.025063727 0.015739324 -0.014525276 0.033672683 -0.1085932
-0.025977395 0.04648673 0.028361898 -0.050158374 -0.06585219 -0.09819687 -0.02677964 -0.014975452
-0.16281798 -0.17664151 -0.21146427 -0.13701768 0.061726175 -0.18153583 -0.12220328 -0.13582888
-0.13557704 -0.117173925 -0.073190615 -0.104547665 0.02383569 0.06058239 -0.08144249 -0.08451641
-0.07495886 -0.06881306 -0.07540618 -0.039995708 -0.09306749 -0.0040218146 -0.07935854 0.022111455
-0.007868703 -0.11062601 -0.114526995 -0.13952324 -0.113739245 -0.013567896 0.022357868 -0.17038682
-0.012096068 -0.09743471 -0.08507612 -0.025845641 -0.16034944 -0.037161782 -0.19832963 -0.11288774
0.008677787 -0.03441784 0.05332377 0.049484625 0.06567445 0.13689505 -0.1031793 0.06664031
0.04270634 0.0017167677 0.095378086 0.05794059 0.031718127 0.08499724 -0.052168842 -0.0830514
0.039978728 0.02584032 -0.12302034 0.05558919 0.061260235 0.09657456 -0.08335684 0.07580998
0.0792075 -0.0811519 -0.04430646 0.107360296 0.015078448 0.0509275 0.047568418 0.07273082
-0.12790194 0.05089131 -0.010299033 0.10157012 0.024636135 -0.089632235 -0.102037586 0.077265486
0.056574263 0.049464703 0.052841343 -0.025336111 0.11148231 -0.06771842 0.1798509 -0.04891533
0.085183285 0.06639099 0.083025135 0.050425205 0.074667916 -0.11028544 0.105544895 -0.015297961
0.039404903 0.07416314 0.012673508 -0.037817705 0.03247756 0.11156814 0.018094297 -0.051684294
-0.011278097 -0.044125486 -0.014002219 -0.07247399 -0.092087805 -0.20862415 -0.083064 -0.0136102075
-0.035388064 -0.16968109 -0.03317209 -0.11378098 -0.15134333 0.018234191 -0.057023313 -0.21582486
-0.063540064 0.013375761 -0.17510362 -0.029125558 -0.109741375 0.026802491 0.022764362 -0.12038477
-0.14709833 0.011108624 -0.18094684 -0.06054302 -0.05639387 -0.116590954 -0.2097287 -0.06693064
-0.04358081 0.05895309 -0.036628515 -0.08834387 -0.01729604 -0.14119995 0.022788294 -0.19053777
0.036930844 -0.13092214 -0.02788194 -0.09399402 0.0084920265 -0.110352814 0.05826311 -0.18123326
-0.072050884 -0.21033518 0.008702329 -0.100317314 0.044034418 -0.09389491 -0.123709396 -0.053993285
-0.16130452 0.012490849 -0.16089922 -0.08404564 0.06848248 -0.22385196 -0.2186397 -0.12408334
00000000: 2e1c 793d a7ab 09be 5bee b9bd 385a b4bd
00000010: 9c9b 14be c227 ffbd e9d6 11be f399 a1bd
00000020: d02d 28bd 6b75 92bd 7c48 17be e85c 77bd
00000030: 6c54 8c3c 408c 55bd 6a07 e73c a262 f93c
00000040: 0f95 e4bd 28c0 f7bd 93ea 3bbe acd1 d5bd
00000050: ffa7 05bc 5b65 74bc 823b 2c3d 04ff b13d
00000060: 6f06 d5bc 749b b43a c982 35be d3ee eabd
00000070: d0f7 22be 9d52 ebbd a1bf 57bd 38f0 07be
00000080: 3e97 d6bd 0a05 d03c 4601 9f3d f110 53be
00000090: 21f7 e4bd 6d2e 2dbe c879 88bd cc88 fd3c
000000a0: d80d acbc a24c fa3c c279 60bd 2e00 15bd
000000b0: ff87 0fbe 1899 133b 5e85 9ebd b60f 35be
000000c0: 3d87 e3bd 8a6e 24be 7f83 f5bd e82a 2c3d
000000d0: ee24 0cbc 94b8 25be 1bdc 1ebd 3f27 3bbc
000000e0: f17d fbbd 251a 8bbd 0a02 7fbd 155c d1bb
000000f0: cb7f 29be 1d77 11be 9b1c a8bd f87e 64bd
00000100: 2b6e d8bd 749e 3cbe 0a9b 06be 6dc3 36be
00000110: 2a67 39be 4aaf 03bd 3c8a 09be 906e 033d
00000120: 2aef f5bd 3ab5 eebd d8e9 183d 7252 cdbc
00000130: c1ef 803c 6cfb 6dbc 5eec 093d 1d66 debd
00000140: 8cce d4bc df68 3e3d 3657 e83c de72 4dbd
00000150: 83dd 86bd 711b c9bd fa60 dbbc 995b 75bc
00000160: c2b9 26be 83e1 34be 178a 58be 5d4e 0cbe
00000170: 96d4 7c3d 87e4 39be b745 fabd ba16 0bbe
00000180: b5d4 0abe e2f8 efbd f6e4 95bd 161d d6bd
00000190: 1143 c33c 3d25 783d 52cb a6bd f116 adbd
000001a0: 0884 99bd dded 8cbd 8e6e 9abd 8ad2 23bd
000001b0: 2b9a bebd 6dc9 83bb bb86 a2bd 1523 b53c
000001c0: bceb 00bc e48f e2bd 218d eabd 2edf 0ebe
000001d0: 1ff0 e8bd e14b 5ebc d927 b73c e279 2ebe
000001e0: 962e 46bc d98b c7bd 643c aebd 3dba d3bc
000001f0: a532 24be f436 18bd ec16 4bbe b031 e7bd
00000200: 472d 0e3c b9f9 0cbd 076a 5a3d 64b0 4a3d
00000210: 5380 863d 372e 0c3e ab4f d3bd b77a 883d
00000220: d8ec 2e3d 2a05 e13a 9655 c33d 1d53 6d3d
00000230: deea 013d 0813 ae3d ffae 55bd da16 aabd
00000240: bcc0 233d 14af d33c 17f2 fbbd 7eb1 633d
00000250: 03ec 7a3d e2c8 c53d feb6 aabd 4342 9b3d
00000260: 8b37 a23d f832 a6bd b17a 35bd b7df db3d
00000270: 980b 773c 5b99 503d 1ad7 423d e5f3 943d
00000280: baf8 02be 6873 503d 46bd 28bc ff03 d03d
00000290: b8d1 c93c 1b91 b7bd 15f9 d0bd 5e3d 9e3d
000002a0: 6aba 673d 809b 4a3d 2a70 583d ad8d cfbc
000002b0: d650 e43d f4af 8abd d62a 383e 715b 48bd
000002c0: 9374 ae3d 00f8 873d 1509 aa3d a98a 4e3d
000002d0: 7eeb 983d 55dd e1bd ec27 d83d 4da4 7abc
000002e0: 0967 213d d8e2 973d 8ca4 4f3c bde6 1abd
000002f0: 3107 053d d67d e43d 7e3a 943c e9b2 53bd
00000300: c4c7 38bc edbc 34bd 9069 65bc 3e6d 94bd
00000310: 8898 bcbd 92a1 55be 751d aabd 59fd 5ebc
00000320: 13f3 10bd e1c0 2dbe 75df 07bd 0106 e9bd
00000330: bff9 1abe df5f 953c 4791 69bd 3101 5dbe
00000340: 4b21 82bd 0226 5b3c 5d4e 33be b998 eebc
00000350: 16c0 e0bd e690 db3c 547c ba3c 4a8c f6bd
00000360: f2a0 16be f200 363c 214a 39be f5fb 77bd
00000370: 42fd 66bd 3dc7 eebd 1fc3 56be ee12 89bd
00000380: cb81 32bd cc78 713d c807 16bd a2ed b4bd
00000390: 6db0 8dbc b896 10be 84ae ba3c 551c 43be
000003a0: cc44 173d 7410 06be ab68 e4bc f07f c0bd
000003b0: 2422 0b3c a800 e2bd 4da5 6e3d 3695 39be
000003c0: 6a8f 93bd 1b62 57be 3794 0e3c 2a73 cdbd
000003d0: 6f5d 343d f94b c0bd 5a5b fdbd 1028 5dbd
000003e0: 032d 25be 6ba6 4c3c c4c2 24be 1f20 acbd
000003f0: 8b40 8c3d 7339 65be 16e3 5fbe 681f febd

lstm.weight_ih_l0_reverse f4 [256, 32]
0.12874575 -0.1432773 -0.032763854 -0.24856019 -0.11372574 -0.058485195 -0.030010296 -0.09202074
0.0033974135 -0.05972107 -0.13335086 -0.16515525 0.030982282 -0.06387146 -0.12448779 -0.16034755
-0.11863362 -0.11674999 0.09331982 -0.112601265 0.008711323 -0.24903595 0.036872026 -0.07222744
0.102004066 -0.116550975 -0.17347905 -0.081409484 -0.03631347 -0.20304272 0.12261066 0.10750855
-0.12619522 -0.19571237 -0.039061766 -0.00010389843 -0.050643984 -0.05638188 -0.0046157204 -0.080061585
-0.09325639 0.048766065 0.046944533 -0.11214644 -0.08239625 -0.053709988 -0.0048059123 -0.09392352
-0.04499827 0.06218281 -0.0050973883 -0.19037911 0.0013949906 0.0133304605 0.0609917 -0.15212457
-0.043280672 -0.07020666 -0.12678356 -0.0205607 -0.04326761 -0.16329952 0.00825267 -0.11604613
-0.012574055 -0.24166751 -0.036872514 -0.14000627 -0.25970432 -0.23848714 -0.1036138 -0.15753488
-0.028217938 -0.091813795 -0.06592444 -0.117421985 0.058491737 -0.1827956 0.039574053 0.07372514
-0.075755954 0.051137313 -0.2094826 -0.13165359 -0.20353088 0.10503541 -0.021913795 -0.03267152
-0.041866735 -0.025461033 -0.092865996 -0.109751575 -0.1784264 0.031056449 0.009391168 -0.21403503
-0.08936776 -0.044250466 -0.0054112608 0.102887765 -0.08089056 -0.11009968 -0.2344134 0.04716151
-0.15341301 -0.24216242 -0.22740497 0.035780575 -0.109796524 -0.08740193 -0.02185959 -0.036884125
-0.030321965 -0.045848474 -0.1884729 -0.03664815 -0.13390492 0.022954877 -0.28254896 0.057541016
-0.033641297 -0.15507643 0.047503896 -0.13289149 -0.11081542 0.056837402 0.012747051 -0.1921069
0.13351554 -0.110422164 -0.061505765 0.047433045 0.021633793 -0.06403412 -0.10390634 0.033131372
0.0552089 -0.0020414817 0.013302948 -0.08904236 0.19446827 -0.022785705 0.07588168 -0.012922133
-0.09496914 -0.055751972 0.2073503 -0.06555652 0.26785222 -0.09408902 0.0591032 -0.069774255
0.13445997 0.09248668 -0.12985082 -0.21679848 -0.04015383 -0.08752747 0.07722722 0.1038638
-0.10484507 -0.043874446 -0.06820242 -0.14978305 -0.09504894 -0.10909708 -0.14628218 -0.13264985
-0.16004643 0.056673687 -0.011541817 0.03829743 -0.024539404 -0.096095845 0.051848542 -0.0053711217
-0.091464356 0.06478353 -0.02350205 -0.060315873 -0.1621314 0.061704323 -0.0762286 0.001563879
-0.1417751 -0.07583107 -0.11947647 0.024336858 -0.010133253 0.034598134 -0.06125626 0.06594927
-0.017099641 -0.1722057 -0.03475393 -0.03509231 -0.13244537 -0.11425673 0.086349286 -0.1210506
-0.06858924 0.04029121 -0.1472649 -0.051471766 0.051354796 -0.13429612 0.05328314 0.059776504
0.024418326 -0.14957336 -0.11126417 0.07922911 -0.023791889 -0.0330796 -0.10285631 -0.0549136
0.039736234 0.023745095 -0.19394295 -0.05396374 -0.0075630425 -0.086144276 0.023106525 -0.050326552
-0.1419017 -0.120279305 -0.067653604 -0.022024496 -0.10091506 -0.14851749 -0.06534494 -0.09283448
0.028086504 0.03998637 -0.16441241 -0.1694488 0.0019651458 -0.20140988 -0.06019058 -0.14489883
-0.080994144 -0.09125887 -0.17039672 -0.015037464 0.014020828 -0.18615197 -0.07885691 -0.0067122863
-0.00067503704 0.029644242 -0.124151945 -0.118801236 -0.18843465 -0.081158094 0.03595469 0.039752316
00000000: edd5 033e 49b7 12be 6433 06bd 9086 7ebe
00000010: 0ae9 e8bd 2c8e 6fbd 27d8 f5bc 5f75 bcbd
00000020: 24a7 5e3b 159e 74bd 218d 08be 751e 29be
00000030: 8ece fd3c 0acf 82bd 74f3 febd 2632 24be
00000040: 2ff6 f2bd 9e1a efbd 761e bf3d 7e9b e6bd
00000050: f0b9 0e3c 4803 7fbe 1f07 173d fbeb 93bd
00000060: 82e7 d03d 47b2 eebd 7ea4 31be 04ba a6bd
00000070: 6fbd 14bd 6eea 4fbe 4c1b fb3d 712d dc3d
00000080: 5239 01be d368 48be 3bff 1fbd 0be4 d9b8
00000090: 1170 4fbd b0f0 66bd 783f 97bb 54f7 a3bd
000000a0: 35fd bebd edbe 473d e948 403d 08ad e5bd
000000b0: 5dbf a8bd 01ff 5bbd ea7a 9dbb f95a c0bd
000000c0: 1b50 38bd 67b3 7e3d fe07 a7bb bef2 42be
000000d0: 1ed8 b63a 0168 5a3c 6fd2 793d 8bc6 1bbe
000000e0: 1347 31bd 82c8 8fbd 8dd3 01be ea6e a8bc
000000f0: 6139 31bd fd37 27be 3536 073c 98a9 edbd
00000100: 6903 4ebc b077 77be a207 17bd ce5d 0fbe
00000110: f7f7 84be f935 74be 7933 d4bd d350 21be
00000120: 4e29 e7bc df08 bcbd 6503 87bd f07a f0bd
00000130: 0895 6f3d c52e 3bbe 6718 223d 35fd 963d
00000140: f025 9bbd 5c75 513d 9b82 56be 33d0 06be
00000150: 666a 50be ce1c d73d 8f84 b3bc 92d2 05bd
00000160: 747c 2bbd a893 d0bc 8730 bebd 6fc5 e0bd
00000170: 69b5 36be 186a fe3c 6add 193c 002c 5bbe
00000180: 7206 b7bd fa3f 35bd f250 b1bb d2b6 d23d
00000190: f3a9 a5bd f17b e1bd 110a 70be 6d2c 413d
000001a0: 4d18 1dbe 6df9 77be d9dc 68be a78e 123d
000001b0: 00dd e0bd c8ff b2bd e212 b3bc cf13 17bd
000001c0: c565 f8bc 9ccb 3bbd 0aff 40be 5f1c 16bd
000001d0: 5f1e 09be de0b bc3c 42aa 90be 21b0 6b3d
000001e0: 75cb 09bd 5bcc 1ebe 7293 423d b514 08be
000001f0: 32f3 e2bd 56ce 683d 02d9 503c acb7 44be
00000200: 4cb8 083e 0425 e2bd 78ed 7bbd 2749 423d
00000210: 5a39 b13c 5224 83bd d9cc d4bd c3b4 073d
00000220: ba22 623d 61ca 05bb 9cf4 593c d75b b6bd
00000230: b122 473e 16a9 babc db67 9b3d 5bb7 53bc
00000240: 2e7f c2bd 2e5c 64bd a353 543e 7f42 86bd
00000250: ed23 893e beb1 c0bd 3216 723d cee5 8ebd
00000260: e0af 093e a869 bd3d 9df7 04be 6c00 5ebe
00000270: 5878 24bd 9a41 b3bd 4e29 9e3d 8bb6 d43d
00000280: 03b9 d6bd b1b5 33bd b6ad 8bbd ba60 19be
00000290: 05a9 c2bd 4a6e dfbd ffca 15be 5dd5 07be
000002a0: 36e3 23be ab22 683d e419 3dbc c4dd 1c3d
000002b0: dc06 c9bc e6cd c4bd 235f 543d 3c00 b0bb
000002c0: aa51 bbbd 3aad 843d 5f87 c0bc c70d 77bd
000002d0: c605 26be acbd 7c3d be1d 9cbd 12fb cc3a
000002e0: 7e2d 11be 524d 9bbd 14b0 f4bd 175e c73c
000002f0: f205 26bc c6b6 0d3d d8e7 7abd 6910 873d
00000300: 8c14 8cbc b156 30be 235a 0ebd f4bc 0fbd
00000310: c29f 07be 6fff e9bd e5d7 b03d 61e9 f7bd
00000320: 8478 8cbd 6508 253d 9ccc 16be 0fd4 52bd
00000330: 6859 523d ec84 09be 6c3f 5a3d 35d8 743d
00000340: f108 c83c c229 19be 78de e3bd df42 a23d
00000350: 35e7 c2bc 7a7e 07bd 54a6 d2bd 15ed 60bd
00000360: 76c2 223d 1385 c23c fb98 46be 1509 5dbd
00000370: 66d3 f7bb 696c b0bd e549 bd3c 3723 4ebd
00000380: ae4e 11be ff54 f6bd f98d 8abd b76c b4bc
00000390: 8eac cebd f814 18be 91d3 85bd 0120 bebd
000003a0: ab15 e63c bfc8 233d ba5b 28be fc83 2dbe
000003b0: adc9 003b 643e 4ebe 668a 76bd 5c60 14be
000003c0: 42e0 a5bd eee5 babd 7a7c 2ebe b25f 76bc
000003d0: 9db7 653c 9f9e 3ebe bb7f a1bd bdf2 dbbb
000003e0: f8f4 30ba 7bd8 f23c 6043 febd 104e f3bd
000003f0: 03f5 40be 3736 a6bd 3a45 133d 53d3 223d
