backend/cnn_lstm_checkpoints/cnn_lstm_epoch_3.pth (torch, 788573 bytes, 64 tensors)

cnn.0.weight f4 [16, 1, 3, 3]
00000000: b0a5 5d3e 0b05 883d c848 fdbd 2ce3 da39
00000010: 2fc7 523e e6a6 28bd b0b3 713d 2448 73bd
00000020: 3986 983e 7900 8e3e 5d55 82be 4044 ce3d
00000030: 17fe 113e 63cc aebe 382c 84be 5cfc 9c3e
00000040: ad08 463e 8b35 843d 35b1 303e d428 58be
00000050: 0842 0e3e 338c 5dbe 680b bbbe 573b b3be
00000060: e3f0 0d3e c23b 3fbe 5383 883c 34a6 f9bb
00000070: 87a6 a6bd cc4a f83d e48f 0c39 1971 01be
00000080: be7b cebd 3ed7 4fbe fc8c a3be 3404 20be
00000090: 519e 7a3e f087 e13d 7d1c 203e ff4f e63d
000000a0: 4b03 f23d 06df 8d3d 47f3 80be 3fb1 82be
000000b0: fcd4 9f3e afdd a6be 9d48 063e 069f c53d
000000c0: 0168 303e a750 903d 8b06 13be 7b29 8dbe
000000d0: a006 8ebe 6485 52be 2345 82bd fc88 8b3e
000000e0: d04a 873e f9be 60be ff8c 973e c738 85be
000000f0: 626b 8c3d 41e4 8e3d 6b4e 803e bcfc 0bbe
00000100: eb3d 403e 5cc0 aebd 5955 29be 3af7 a9be
00000110: 5366 243e c5e7 763e b3f7 923e e85c b0be
00000120: 3a4f d5bd e23e 86bd 990d 6fbd d6e5 0c3e
00000130: a462 0b3e 23e8 c2bd 53e4 7bbe 383b 193e
00000140: 497f 3c3e 6f9c 173e 0349 ea3c af93 14bd
00000150: 5047 3b3e d7be 803e 6500 803e 483e 73bd
00000160: 5f88 923e 70f6 983e 2760 31be 7398 5abe
00000170: d62d b53d e801 babd 2479 133e a63e 8dbb
00000180: 14ee 8e3e fa23 fa3d 2fa9 8b3e ffb9 26be
00000190: 4cfa 6a3e ee2d b13e af84 833e 3b7f 943d
000001a0: 054f 53be bb9f e73b f80f b2bd ab08 bbbc
000001b0: aaca 063d 0c53 013e 9a29 803e b28f babd
000001c0: 9ac8 6fbe 191c a9be 4985 49be 0022 26be
000001d0: 4d79 543d f71d 683e a828 723e b8ff aa3e
000001e0: 8312 683e 6a3d 33be 77ea 573e 0417 a2bd
000001f0: 8610 ffbc 5440 3a3d 1dd5 af3e f081 57be
00000200: 15f6 b03e 07a3 1abe e6c0 773e f60f 4e3e
00000210: f9c0 e73d 9857 3dbe 6c64 a1bd 6e48 7a3d
00000220: 7a29 703e d18b 99be 3870 f8bd 6e63 b1be
00000230: e4e7 01be 3cfe 153e 7e39 d8bc 59a6 333e
0.21645236 0.06641587 -0.123673975 0.00041749456 0.20583795 -0.04117479 0.059009254 -0.05939497
0.29789904 0.27734736 -0.25455752 0.100716114 0.14257084 -0.3414031 -0.25814986 0.30661285
0.19339247 0.06455525 0.17255099 -0.21109325 0.13892376 -0.21635513 -0.3653214 -0.3500621
0.13861422 -0.1867514 0.016664183 -0.00761869 -0.08137231 0.12123641 0.00013405044 -0.126408
-0.10082196 -0.20296952 -0.319435 -0.15626603 0.24474455 0.11012256 0.15635867 0.11245727
0.11817034 0.06927304 -0.25185606 -0.25525853 0.31217182 -0.32591006 0.13113637 0.09649472
0.17227174 0.07046633 -0.14357965 -0.2757071 -0.2773943 -0.20558697 -0.06360843 0.27252948
0.26424265 -0.2194785 0.2959976 -0.2601988 0.06856419 0.0697713 0.25059828 -0.1367063
0.1877362 -0.085327834 -0.16536464 -0.3319643 0.16054659 0.2411185 0.28704605 -0.34445882
-0.10415502 -0.06554963 -0.058362577 0.1375955 0.13611847 -0.09516933 -0.24598818 0.14963996
0.1840793 0.14805768 0.028599268 -0.036273655 0.18288922 0.251456 0.250003 -0.059385568
0.28619668 0.29875517 -0.17321835 -0.21347217 0.08846633 -0.09082395 0.1440168 -0.004310447
0.27916014 0.12213893 0.27277514 -0.1628189 0.22947043 0.34605354 0.25687167 0.0725083
-0.20635612 0.007068602 -0.08694452 -0.022831282 0.03290812 0.12629336 0.2503174 -0.09109439
-0.23416367 -0.3302925 -0.1967975 -0.16223907 0.051873494 0.2266768 0.23648322 0.33398223
0.22663312 -0.17503896 0.21085535 -0.07914546 -0.031135809 0.045471504 0.3434228 -0.21045661
0.34562746 -0.15101252 0.24194679 0.20123276 0.113161035 -0.18490446 -0.07880482 0.06110423
0.23453322 -0.29989484 -0.12130779 -0.3464617 -0.12686116 0.14647764 -0.026394602 0.17543925

cnn.0.bias f4 [16]
00000000: 0b46 efbd 6f50 d23d cb8d ab3c e91c 173e
00000010: 1bf7 73bc 04dc bfbd 2463 e6bd 960f 9bbe
00000020: a02d 54bd 3473 df3d 0f47 983e e950 67be
00000030: d818 633c 1e9d 4fbe 8a1b a43e d30b 95bc
-0.116832815 0.10269248 0.020941636 0.14757122 -0.0148904575 -0.093681365 -0.11249378 -0.3028533
-0.051801324 0.10910645 0.29741713 -0.22589459 0.013860904 -0.20274779 0.3205226 -0.018194115

cnn.1.weight f4 [16]
00000000: d649 873f 475c 893f a1d2 783f 16eb 813f
00000010: 4cc9 7e3f 7fc7 803f 89f6 753f 0b84 723f
00000020: aa71 863f a625 783f 583f 803f dfca 643f
00000030: 0a82 753f c107 873f c35c 723f 3e23 833f
1.0569408 1.0731286 0.97196394 1.0149868 0.99525905 1.0060881 0.9607931 0.9473273
1.0503438 0.96932447 1.0019331 0.89372057 0.9590155 1.0549241 0.94672793 1.024513

cnn.1.bias f4 [16]
00000000: 09f5 7f3d 9dbb b73d 0ec5 21bd fd59 bbbb
00000010: 74f0 9cbc a33f aa3c 65df 74bc 31c9 94bc
00000020: 86ee 533d 23b8 5cbc ce88 343b 3910 c7bd
00000030: 0b65 5dbd d1b6 6e3d 0033 95bd e236 153c
0.062489543 0.08971331 -0.039494567 -0.0057175145 -0.019157626 0.020782297 -0.0149458395 -0.018162342
0.051741146 -0.013471636 0.0027547362 -0.09719891 -0.05405144 0.058279816 -0.07285118 0.009107323

cnn.1.running_mean f4 [16]
00000000: b200 f1bd f5a3 cc3d ed21 ae3c 1534 1b3e
00000010: 515f 45bc 9fab babd 89b3 e9bd 9f8d 9cbe
00000020: 27ca 55bd b00e d83d 4ab8 963e 4fac 66be
00000030: e654 723c b6f3 49be 5a1a a53e 9f0a 9bbc
-0.11767711 0.0999221 0.021256411 0.15156586 -0.012046651 -0.091147654 -0.11411197 -0.30576798
-0.05219474 0.105496764 0.29437476 -0.22526668 0.014790749 -0.19721875 0.32246667 -0.018925963

cnn.1.running_var f4 [16]
00000000: 92e1 b23e 9cff 0c3e 216f 3c3f f116 383f
00000010: 8a24 c03e d4d3 033f 54dc d63e 2140 573d
00000020: 5e61 cf3c c276 d43f 110b 7c3e 3aa0 403e
00000030: ab44 ae3e a7ee 693f dd35 ba3e 0d2d fa3d
0.34937721 0.13769382 0.7360707 0.71910006 0.37527877 0.514951 0.41964972 0.052551392
0.025314983 1.6598742 0.24613596 0.18811122 0.34036765 0.9137978 0.3636922 0.12215624

cnn.5.weight f4 [32, 16, 3, 3]
00000000: 85e4 fd3d ca17 ec3d 51d7 023e 76fb 15bc
00000010: 70fd 9b3c 555b 843d 1e63 db3d 6c88 943c
00000020: 7420 2f3d a234 c0bd ca8e 493d 8047 e83c
00000030: 5d61 f83c 64d4 12bd 7de4 b3bd 5d80 463d
00000040: 6226 d63c b95a 863b 7134 23bd 08ed b9bd
00000050: c70b 94bb 0085 153d 914f 23bc 696d f63c
00000060: ac62 103b 258f 113d 71d1 5d3d a736 723c
00000070: d025 99bd ff66 9fbd ebe9 e7bc c7df 0b3d
00000080: 18ea a43d 6c30 ca3c 83ae 96bd 07ef 18bd
00000090: 60ed dd3c 6ce2 29bc 9f32 973d 0287 023d
000000a0: 6753 353d dea7 fc3c 372b 04bc 1abf 403d
000000b0: b384 093d e3a7 343c 5a7d 22bb 1879 463b
000000c0: 92bb 323d 30cb 99bd c510 c2bb a2f6 463d
000000d0: 617c 2a3d 9b28 293d 1599 a43b bec0 e83c
000000e0: f238 f5bc a978 14bd a23e a23d b953 fe3b
000000f0: f3ac c23d 4dba b33d 0ee2 5bbd 271d f03c
00000100: 9d5f 913d bca6 a53c 319e babc 950a e13c
00000110: 4e96 643d 1b61 ab3c 50ea 763d 2541 7f3d
00000120: af86 9c3d 5d1b 403d 4b74 843d b0f2 9c3d
00000130: 1eb9 c93c ed1a a43d b6ae 423d 59d2 5f3c
00000140: e345 953d b7ee 8dbc 04c4 3b3d 5d53 8d3b
00000150: 3cd6 d4bc 83aa 403d b4c2 f13d aa06 a63d
00000160: 09d3 c9bc 3758 02bc 55d7 40bd da76 5d39
00000170: 0601 52bd e9e5 9b3d 9434 383d 7e1a 793d
00000180: 31cd 90bc 21fb bc3d 80cd 4d36 4758 9f3c
00000190: eeca 4d3c 9a4b ab3a 3f6e 8e3d 9c0b 2b3d
000001a0: f29e 20bd adb7 113c 1b39 1bbd 1483 893d
000001b0: 3431 1cbd 88ec 923d 31fd 90bc 8799 963d
000001c0: c453 383d 4f42 e9bc a975 0dbd b50e 0b3c
000001d0: eb5f 9e3c 9c41 eabc dc13 54bb a097 c63d
000001e0: 628e a0bc 10c2 1a3d 48c0 e03c 4439 2abd
000001f0: 1c5f 253d 8236 553d 684a ba3b 2841 70bd
00000200: c20c 4abd 522d 90bc a816 033d 7e16 273d
00000210: 797e 323c efc4 813b a266 103d 263f 253d
00000220: d16a 81bd bfd2 553d e819 88ba 83c3 03bc
00000230: 7724 87bc f2ea c7bc a32e 393d 3ae5 5bbd
00000240: 7579 42bd a90e 1abd ffc6 46bd 882e 77bd
00000250: 2cd2 d2bd ca82 ddbd 90df e0bc d041 6dbc
00000260: 093e 6ebd 8d82 94bd 769e 483d 98e8 52bd
00000270: e56b c0bd 6426 07bc 6d4c 1d3d 48ab 47bd
00000280: c828 adbd 6c43 75bc 88d7 17bb 30c6 0f3c
00000290: 8c5c 97bd 50b6 dfbc a4bc 11bd 9a28 f5bb
000002a0: 7578 99bd 92fb c6bb a1e7 d53c 9de6 7a3c
000002b0: 1013 babd dd5b 34bd 594c be3c 8476 99bd
000002c0: 74bc 69bd 9b5d 3abc d0e0 75bd 15f3 15bc
000002d0: 8046 92bb 38a7 923d 61bc 04bd aa07 eebc
000002e0: 0359 813d 12e6 b0bd 4a37 7ebc 9a8d a1bd
000002f0: 729a 153c 97c7 9dbb 1e73 25bc cf34 b73c
00000300: 31c8 453d a85b 1bbd d443 013d fcb8 b23d
00000310: bc7a 673d bbf2 af3d 71e0 ad3c 48ce b13b
00000320: 1e34 9e3c e8fb 133d 12c6 bbba 5ea1 283d
00000330: a147 f03c 3c25 713c 3194 673d 7064 a83d
00000340: bcd0 83bb 7922 a13d dbd3 d63b 3608 433d
00000350: e989 a7bd 745b a33c 52cf 463d 16a5 793c
00000360: e7c2 25bd 3841 eebd b9fb ccbd 4a70 30bc
00000370: eb4a 19be 39cf f3bd 00ba 05be 5d4d e4bd
00000380: fc29 d0bd a566 d0bc a0b2 443c 7dbf 1a3d
00000390: 5d0c 8bbd 63bc 3f3d 7936 9fbd ec6c dcbd
000003a0: 1b0d 003d d616 e9bb 384b a6bd f044 dcbc
000003b0: 640c 853c cd61 02bd 26d0 06bd ea7d 2b3d
000003c0: 003c ac3c 1905 96bd 0fb4 34bd dd53 c6bc
000003d0: 0003 513c 1def 77bd ff0c 763d 36f1 083d
000003e0: 48a3 603d 863b 873d 9c67 90bd 4c51 f63a
000003f0: fea1 03bd f35e 693b 0996 8ebd 3850 843c
0.12397102 0.11527975 0.12777449 -0.009154191 0.019041747 0.06462733 0.107122645 0.018131457
0.04275556 -0.09385039 0.04920844 0.028354406 0.030319864 -0.035847083 -0.08783815 0.04846226
0.02614135 0.0041001705 -0.039844934 -0.09078413 -0.0045180055 0.03650379 -0.009967701 0.030081468
0.002203147 0.035536904 0.054154817 0.014783538 -0.07477915 -0.07783317 -0.028309783 0.034148958
0.08052462 0.024681292 -0.07357504 -0.03733733 0.027090728 -0.010368925 0.07382702 0.031867035
0.04426899 0.030841764 -0.008066944 0.04705725 0.033573817 0.011026355 -0.0024793954 0.003028458
0.043635912 -0.07509458 -0.0059224092 0.04857505 0.041622523 0.04129849 0.0050231316 0.02841222
-0.02993438 -0.036247883 0.079221025 0.0077614454 0.09505644 0.087757684 -0.05368238 0.029310776
0.07098315 0.020221107 -0.02278051 0.027470866 0.055807404 0.020920327 0.06028205 0.062317986
0.07642876 0.046901096 0.064674936 0.076634765 0.024624404 0.08012948 0.0475299 0.013660991
0.072887205 -0.017325742 0.045841232 0.004312916 -0.025981061 0.047037613 0.11804715 0.0810674
-0.024636762 -0.007955602 -0.047080357 0.00021120478 -0.051270507 0.07612211 0.044972017 0.06081628
-0.017675968 0.092275865 3.0666997e-06 0.019451274 0.012560589 0.0013068796 0.069546215 0.04175912
-0.039214082 0.008893889 -0.037896257 0.06714454 -0.03813286 0.07174021 -0.017698856 0.07353502
0.04500176 -0.028474001 -0.034536038 0.008487393 0.019332847 -0.028595738 -0.003236047 0.09696889
-0.019599143 0.03778273 0.027435437 -0.04155852 0.040373906 0.052053936 0.0056851394 -0.058655888
-0.049328573 -0.017599735 0.03200403 0.040792935 0.010894411 0.003960244 0.03525413 0.040343426
-0.06319202 0.052202936 -0.0010383697 -0.008042219 -0.01649688 -0.024404023 0.045210492 -0.053685404
-0.04747911 -0.037611637 -0.04852962 -0.06034711 -0.10293993 -0.10815962 -0.027450353 -0.014481023
-0.05816463 -0.07251463 0.048979245 -0.05149135 -0.09395579 -0.008248899 0.038402963 -0.04874733
-0.08455044 -0.014969688 -0.0023169238 0.008775279 -0.07390699 -0.027308613 -0.035580292 -0.0074816467
-0.074936785 -0.00607247 0.026111426 0.015313772 -0.09085667 -0.04403292 0.023229765 -0.07493308
-0.05706449 -0.011374856 -0.06002885 -0.009152194 -0.0044639707 0.07160801 -0.032406215 -0.029056389
0.06315806 -0.086376324 -0.015516112 -0.078883365 0.009131061 -0.0048150527 -0.010098247 0.022364048
0.04828662 -0.037929207 0.031558827 0.08726689 0.056513533 0.08591219 0.021225186 0.005426202
0.01931196 0.03612891 -0.0014325997 0.041169517 0.02933103 0.01471835 0.05653781 0.08222282
-0.004022686 0.07867903 0.006556017 0.047615252 -0.08180601 0.01994107 0.04853756 0.015237113
-0.040469076 -0.11633533 -0.1000895 -0.010768959 -0.14969985 -0.11904759 -0.13059235 -0.111475684
-0.10164258 -0.02543957 0.012005478 0.037780274 -0.067894675 0.04681052 -0.07774062 -0.10762963
0.0312625 -0.007113318 -0.081198156 -0.02688834 0.01624126 -0.03183155 -0.03291335 0.041868128
0.021024704 -0.07325191 -0.04411703 -0.024209911 0.012757063 -0.06053077 0.060070988 0.03343316
0.054843217 0.0660315 -0.07051012 0.0018792539 -0.03213691 0.0035609573 -0.06962211 0.016151533

cnn.5.bias f4 [32]
00000000: dbab a6bc 56ed 2dbd 13e0 033d 48ce 6d3d
00000010: abae b6bd 51e5 b63d 0b87 d9bb ae11 7e3a
00000020: eaf8 5cbd 42f1 6bbd 6f44 9d3d 869d 893d
00000030: cf7b e13c 93c4 39bd d915 5dbc b98f 74bd
00000040: 593b 54bd 93ad aabc 75a2 c9bd 8da7 37bc
00000050: 2738 37bc 4631 633b cb6c 973d f94b 69bd
00000060: 006d e73d 0979 8a3d ba2b 573d ee05 b2bc
00000070: 9179 1cbd 9718 45b9 17ed 60bd ed3a 7f3c
-0.020345619 -0.04246267 0.032196116 0.058058053 -0.08920034 0.089304574 -0.006638413 0.00096919655
-0.05394832 -0.05760313 0.07679068 0.06719498 0.027524857 -0.045353483 -0.013493978 -0.059707377
-0.05181441 -0.02083472 -0.09845439 -0.011209381 -0.011182821 0.003466682 0.073937975 -0.05695722
0.11300087 0.06761367 0.052531935 -0.021731343 -0.038201872 -0.00018796544 -0.054913606 0.015578014

cnn.6.weight f4 [32]
00000000: 809d 743f b6e1 803f 3ec0 803f b7f2 773f
00000010: b88d 773f b731 7a3f 8262 813f d700 793f
00000020: 4401 723f d161 823f 9f26 783f 4004 833f
00000030: 980c 723f 3887 863f f24e 7d3f 5c51 6c3f
00000040: 600b 713f 3056 773f de14 803f 76f8 783f
00000050: 5cc4 7c3f d3b5 7b3f 2a4f 783f 4251 793f
00000060: 52c6 803f ca13 763f f7f8 7f3f a0e3 803f
00000070: 5c51 7c3f 84bf 7d3f cc5c 743f 9234 7f3f
0.95552826 1.0068882 1.0058668 0.9685473 0.9670062 0.9773211 1.0108187 0.97266906
0.9453318 1.0186101 0.9693393 1.0235672 0.94550467 1.0510015 0.98948586 0.92311645
0.9415798 0.96615887 1.0006368 0.9725412 0.9873712 0.98324317 0.96995795 0.97389615
1.0060523 0.96123946 0.99989265 1.0069466 0.98561645 0.99120355 0.95454097 0.9968959

cnn.6.bias f4 [32]
00000000: 223b 24bd 4327 2f3c efe6 b63b 76ff eebc
00000010: c273 eebc 1d14 edbc b8fc 4f3c 7381 b7bc
00000020: 8012 81bd beea 703c 3029 0abd 12d1 7fbc
00000030: 96eb 0dbd ea29 7b3d 0230 c6bb e3c6 61bd
00000040: c810 5bbd c803 8fbc 6249 fcbb 7f52 abbc
00000050: a1ec 20bc 351c 4ebb 6c85 a6bc f959 89bc
00000060: 309c 1c3c 7012 4dbd 0360 92bb 74f3 86bb
00000070: 1806 14bd 7281 83bb ecad 33bd 386f e3b9
-0.040095456 0.010690513 0.0055817286 -0.029174548 -0.029107932 -0.028940255 0.01269453 -0.022400593
-0.06302357 0.014704404 -0.033730686 -0.015613811 -0.0346485 0.06131927 -0.0060482034 -0.055121314
-0.0534828 -0.017457858 -0.0076991776 -0.02091336 -0.009822042 -0.0031449918 -0.020327292 -0.016766535
0.009558722 -0.05006641 -0.004467012 -0.0041183773 -0.036138624 -0.004013234 -0.043867037 -0.00043379678

cnn.6.running_mean f4 [32]
00000000: e5f5 a53f 0c32 9abf 7c93 9c3f daae 7dbf
00000010: c928 ccbf 33e7 b2be 0205 97bf ca4a a2bf
00000020: 5f51 90be 71e8 3f3f 0d68 98bf e239 ef3e
00000030: 6be6 433f 8052 c6bf 4dd5 adbf 4689 cbbe
00000040: 371a d4bf aa20 aabe 10f9 bd3d d271 d2bf
00000050: ba8f 1fbf 837d ef3e 74d9 98be ee2f b53f
00000060: ae58 9d3f 01b3 88be 4213 91bf f19f 3e3f
00000070: bcd7 863e 79b8 203f 680a 5f3f 1614 1abd
1.2965666 -1.2046523 1.2232509 -0.9909493 -1.5949947 -0.34942016 -1.1798403 -1.2679074
-0.2818708 0.7496405 -1.1906754 0.4672385 0.76523465 -1.5493927 -1.3580719 -0.3975317
-1.65705 -0.33228046 0.092760205 -1.6440985 -0.62328684 0.46775445 -0.29853404 1.4155252
1.2292688 -0.2669907 -1.1334002 0.744628 0.26336467 0.6278148 0.87125254 -0.03761681

cnn.6.running_var f4 [32]
00000000: 498a de3f 4739 c53f 6ca0 a23f d0e1 b03e
00000010: a29c ef3f 12cb 0440 2f3f 5f3f a356 1940
00000020: 96ec 873f a5b2 a03f 5f4e 2940 6357 273f
00000030: d114 2040 e8ba e23f 0fc8 383f ef7a 1640
00000040: fe82 2940 4d6c 8f3f db55 853f 8579 5940
00000050: 3be5 4940 14b9 5140 16b9 3540 59db 843f
00000060: 7ac3 713f f44e 673f 6564 2640 adfe 873f
00000070: 206e a93f 536a 0740 ea73 313f 0bcc 3b3f
1.7385951 1.5408105 1.2705207 0.3454728 1.8719676 2.0748944 0.87205786 2.395913
1.0619075 1.2554518 2.6454084 0.65367717 2.5012705 1.7713289 0.72180265 2.3512533
2.6486201 1.1204926 1.0416826 3.398042 3.154616 3.2769213 2.8394217 1.037944
0.944389 0.9035485 2.5998776 1.0624596 1.3236732 2.1158645 0.69317496 0.7335822

lstm.weight_ih_l0 f4 [256, 32]
00000000: e672 283d 00e2 f5bd e54a 7abd bb1a c83d
00000010: 7a70 f3bd 1eb8 b7bd 155d c5bd 4937 3d3d
00000020: f407 c0bc 23ca 58be f0de 2ebe ecb1 0abd
00000030: 9370 63bd 1c77 9ebd 854a 013d ddf8 54bd
00000040: 804a 263c 98d8 0d3d d33e cabd 1c3a cebc
00000050: 83ee 4bbe ff95 6dbd 2902 06be 1b34 593c
00000060: 7b84 dfbd cd44 b03b 8c06 f9bd 9537 2dbd
00000070: 2373 05be db26 b5bd efc3 b83c 7a4f fc3c
00000080: 9a99 963b c554 16be f353 c23d 1e01 e43b
00000090: 332b 07bd 16f1 d9bd 3649 8a3d db9f 6abd
000000a0: 9ad8 0bbe 9999 96bd c3ba c83d 6ca3 e53d
000000b0: f275 bb3d 9375 663d a249 d7bd 0012 49bc
000000c0: a93a 003d 9c80 2cbd b318 09bd fed4 643c
000000d0: 1b31 a73c a278 bbbc 379d c8bd 2610 afbd
000000e0: 1bdb 99bd a658 8e3c 64c4 fdbd 467e 873d
000000f0: 706f be3c 642b a2bd 18e4 37bd 78ff 853c
00000100: 0244 08be 4614 b5bd b0af 553c e2b1 1f39
00000110: 4cd4 cf3c a78b 17be 58fb 92bc b88c 863c
00000120: 0e49 9c3d 4adb 05be eed9 9fbd 927b d5bd
00000130: 80be 6a3d 91e2 953d 704c 8f3d 30b9 87bd
00000140: 82c5 a9bd b926 39ba 948a 993c f990 9bbc
00000150: f18e 8abd c543 953d c869 3fbd 1e92 573c
00000160: f00a 25be a14b d73c 8825 1fbe c3bd 15bd
00000170: 96d4 03bd a6f3 bf3d 101d 653d a8c6 4bbd
00000180: ccf9 62bd 4904 0f3c c593 92bd 6dbb cb3d
00000190: c367 ebbd 54bc cfbd d72e ffbd 8936 933d
000001a0: 88b7 f7bc 9235 9e3d 90c0 a3bc b7ad ef3d
000001b0: 907b e0bc 2c1d a73d 6c1f f13a 4525 783d
000001c0: 1e19 c83c f1a8 c1bd 706c a6bd 6dc3 7f3d
000001d0: f341 38bb 1ea3 343c 3844 7a3c 1f15 b3bd
000001e0: a442 393c ba1f 32bd dafc ccbc af0a cebd
000001f0: e874 333a 40cb 8cbd 779f 05be 34d1 b2bd
00000200: b02b e33c fa1e 423c ceff 75bd 7c18 07be
00000210: 42d1 823d e096 33bd 8231 ca3d 8de2 a03d
00000220: 0a3b dabc c42e 873d e93f 803d fe2e 14be
00000230: 03c0 41bc 110c 9f3d f06e 0bbd b4aa 97bd
00000240: 3035 edbc 92d5 bb3d ad9b dd3c 8707 20bc
00000250: 4a69 85bd 6187 e03b c540 1ebd 4cf0 fdbd
00000260: f06c 1f3c 135e a53d 04d4 8b3c 96f5 9a3c
00000270: 4903 f8bd fddb 253d a574 a03d d807 793c
00000280: 941b 36bd 5522 29be 4f26 763d 0c97 89bc
00000290: 7330 aebd 75a8 8e3d 4228 b8bd ee74 27bd
000002a0: 6b4d 18be 441f 44bd d6e4 233c a514 a4bd
000002b0: 5f72 0abe 8493 953c e953 18be 7a6c 963d
000002c0: be77 9ebd 86ea 86bd b34d 8cbd 897c 2a3d
000002d0: 9bed d7bd 0c7b 06bb c3bf 5f3d 3036 e63c
000002e0: 9c8b 4dbd 60c2 f8bd b815 423c 4f94 0b3d
000002f0: bcc1 a7bd 905d 8dbc 7a4f 7ebd a2fd 29be
00000300: 60ac 00be 6e14 ac3c 0297 12be 4e84 fcbc
00000310: e25e 03be 2cc8 27bd 4fe4 1fbd 8e90 5a3d
00000320: 2951 adbd 7504 ce3b d18a a73d e7fe dc3d
00000330: 26d4 ba3d 060c d1bd 9494 36bd 09ca dd3c
00000340: cc3b ebbd f229 303d 79cc e7bd 9c05 313d
00000350: 7806 863d 43b4 2d3d 5a87 17be f297 55bc
00000360: 3a50 3cbd 0f4e 58bc b0ae 01bb c43e 97bc
00000370: 59a8 6bbc 3ee1 20be 799c adbd a166 ae3d
00000380: 8b9d ca3c 4856 9bbc 7fbf 733d c509 c5bd
00000390: 7b5d ce3c 0566 c2bc 4dbc d2bd a525 fbbc
000003a0: 63bc ddbd 6349 c1bd a8e5 6e3d 3673 d03d
000003b0: 8c4f 903d 1e09 cc3c f9c1 19be 2ef3 eb3d
000003c0: 4ba2 f73c 6b2b 89bd 17de 73bd 3bcd 173c
000003d0: 81a6 a6bd 5466 963d 1032 c53d 4d62 063e
000003e0: a914 853c 398a b23d a041 fcbc cba8 eb3d
000003f0: f82b ca3d d5e9 e43c 2cd9 e0bb 1e1b 1fbd
0.0411252 -0.12005997 -0.06110658 0.097707234 -0.118866876 -0.089706644 -0.096368946 0.046195302
-0.023441292 -0.21170859 -0.17077231 -0.033861086 -0.05552728 -0.07737562 0.031565208 -0.051995147
0.010149598 0.034630388 -0.09875264 -0.025174193 -0.19915204 -0.058004376 -0.13086762 0.013257052
-0.109139405 0.0053792954 -0.12159452 -0.042289335 -0.13032202 -0.08845302 0.022554366 0.030799616
0.0045959475 -0.14680775 0.09488668 0.006958141 -0.033000182 -0.106416866 0.06752245 -0.057281356
-0.13656846 -0.07353515 0.09801247 0.11212811 0.09153356 0.05626447 -0.10512091 -0.012272358
0.031305943 -0.04211484 -0.03347082 0.013966797 0.020409157 -0.02288467 -0.09795611 -0.08548002
-0.07512494 0.017376255 -0.12390974 0.066158816 0.023246497 -0.07918432 -0.04489526 0.016357169
-0.13307193 -0.088417575 0.013042375 0.00015229688 0.025369786 -0.14799367 -0.017942116 0.016424522
0.076311216 -0.13071933 -0.07805239 -0.1042396 0.05731058 0.07318605 0.06997001 -0.066271186
-0.08289625 -0.000706296 0.018742837 -0.018990027 -0.06765545 0.07288317 -0.04673174 0.013157396
-0.16117454 0.02628118 -0.15541661 -0.036557924 -0.03218516 0.09372644 0.05593592 -0.04975
-0.055414006 0.008729049 -0.07157091 0.09947858 -0.114944 -0.101433426 -0.12460106 0.07188136
-0.030238882 0.077250615 -0.019989282 0.11703055 -0.02740267 0.08159861 0.0018396205 0.060582418
0.02442604 -0.09456051 -0.081261516 0.062442232 -0.002811548 0.011025218 0.015275054 -0.08744263
0.011307392 -0.043487288 -0.025022913 -0.100606315 0.00068457285 -0.06874704 -0.13049112 -0.087313086
0.027730793 0.011848206 -0.060058407 -0.13192934 0.06387569 -0.043845057 0.09872724 0.07855711
-0.02663948 0.06600717 0.0626219 -0.14471051 -0.011825564 0.07765973 -0.034041345 -0.07405606
-0.028956026 0.09171595 0.027051771 -0.00976742 -0.06514223 0.006852076 -0.038635988 -0.123993486
0.009730563 0.08074584 0.01706887 0.018915933 -0.121100016 0.040493 0.07834748 0.015199624
-0.044459894 -0.16517003 0.060095128 -0.016795658 -0.08505335 0.069657244 -0.089920536 -0.040882997
-0.14873283 -0.04788138 0.010003289 -0.0801175 -0.13520192 0.018258817 -0.14875759 0.07344909
-0.07737683 -0.065877005 -0.068507574 0.041622672 -0.105433665 -0.002052012 0.054626238 0.02810201
-0.05018197 -0.12146449 0.0118459985 0.034076985 -0.08191249 -0.017256528 -0.062087514 -0.1660066
-0.12565756 0.021005835 -0.14315417 -0.030824807 -0.12829164 -0.040962383 -0.03903609 0.053360514
-0.08462746 0.0062871524 0.08180774 0.10790806 0.09122495 -0.102073714 -0.04457529 0.027073877
-0.11486015 0.043008752 -0.11318297 0.04321824 0.065442026 0.04240824 -0.14797726 -0.013036715
-0.045974948 -0.013202204 -0.001978796 -0.018462546 -0.014383399 -0.15710923 -0.084771104 0.08515669
0.024733325 -0.01896204 0.059508797 -0.09621004 0.02519106 -0.023730287 -0.10289822 -0.030657599
-0.108269475 -0.094378255 0.058324486 0.10178225 0.07046422 0.024906691 -0.15015401 0.11520992
0.030228755 -0.066977344 -0.059537973 0.009265239 -0.08137227 0.07343736 0.09628689 0.13123436
0.016245203 0.0871777 -0.030793011 0.11506804 0.098716676 0.027943531 -0.0068618264 -0.03884422

lstm.weight_hh_l0 f4 [256, 64]
00000000: 6aa2 edbd 5a5a d63c be04 033e a5fd 0abe
00000010: e767 55bd 9985 05bc 5226 8cbd 744a 783d
00000020: 3f9f 21bc 155f efbd 245a 823c 7fae d1bc
00000030: 1c1f 1f3e 6eb0 03bd 96b1 bcbd c51f 0a3e
00000040: c4cd cdbd 580b 2d3d ac39 06bd bd30 613d
00000050: 9741 82bd cf30 ab3d 9bbb fa3c 943f b33c
00000060: 2410 82bd df07 b53c f497 61bc 0d7b 89bd
00000070: 7f40 52bc 3ab1 d3bc 76fb 9ebd 4a07 b93d
00000080: e06e ffbd 2b8a 2cbc a653 9cbd a846 c23d
00000090: 87a8 073e fad0 e83d 56f6 703d a792 0c3e
000000a0: 267d a03c fb35 9b3d e5bc 3dbd c846 e6bc
000000b0: 2b76 d83d 583a 943d e571 f93d c2ac f43d
000000c0: c7a8 b03d 7c0b 8d3d 01a3 c5bc 56e5 e9bd
000000d0: 55cc 243d 1e45 9c3b 2826 2dbd 54d0 1ebd
000000e0: b812 8abc f7db fdbd aaf2 023e 16f8 37bd
000000f0: daa0 12bd b938 f2bd 0503 8bbd 7048 b1bd
00000100: 7d17 1d3c 69ab 33bd 4a19 d53d 433a 8bbd
00000110: d0ba f03d 4ed7 c2bd 9592 a9bd f7b6 b13d
00000120: 11db 91b9 b967 cd3d f987 ce3d ed0a 8b3a
00000130: 6662 fa3c 8d62 2f3d ebe2 47bd 58d3 583d
00000140: d90e 353c 3583 743c fcc2 e73d ce83 8c3c
00000150: c213 cebd e965 c0bd 7a2c bc3d bfab 823d
00000160: 686a 2dbd f7d1 eb3d 379f 04be 9e9c 1ebc
00000170: bfd4 953d a616 963d 473d ba3d 7c43 0fbe
00000180: 7b38 83bc 70a7 083e c3a7 95bd eb36 533c
00000190: fd3e a23d 28be 7ebd 5320 bc3d ae65 6cbd
000001a0: b3d9 c13d a49e 0a3e 6fd7 6f3c e9a4 0d3c
000001b0: 7f70 cdbd 17fa b2bd 2938 5c3d 4d4c dd3d
000001c0: 1d01 a1bd a90e 11bc ee4a 0cbe b75d babd
000001d0: 43c9 db3d 4b38 963d cfb2 a7bd eaf1 b63b
000001e0: b27c 76bc 41ba 6e3d 9b80 093e fb0f 01bb
000001f0: d867 adbc 12ea da3d 4ac2 f6bd 986a 083d
00000200: 3104 adbd 7b91 ccbc f834 8dbc 7915 10bd
00000210: c2a1 4cbd eaaf 923d 9fc3 953d e3e1 ab3d
00000220: b8f9 b53d 12e9 be3d c7fd c7bd adf5 443d
00000230: 05ab c13d ead6 53bd 9d3b 1dbe 080c 02be
00000240: dc73 fd3d 4249 42bd e431 91bd 627e 21be
00000250: 17dc 77bd 200f 763d 2593 013a 2084 36bd
00000260: 822d 9cbd a1ed d53d db8c f93c 6fd3 17bd
00000270: a0e3 a0bd cd5f 253d 7a1c 553d 81f6 553d
00000280: 1acb 63bd 9f26 373d 1ce6 16be 72c2 aa3d
00000290: 425e a3bd f142 f43c 6d92 4dbc 8281 06be
000002a0: b3a1 8d3d 066b da3d deb6 883d fdbc c23b
000002b0: e002 443d 2dce 223d 0eb0 e4bd 0806 70bd
000002c0: 8f8b 0a3d a4c2 633d 671e 9fbd 750b 81bd
000002d0: 7628 a1bd 8f3f 993d 1fc4 10bd 162a 2dbc
000002e0: f399 dfbd 3c0f 1dbe 2394 ad3d 872f ad3d
000002f0: 35f5 063e b17c 5fbd 46a8 dabd 4571 ba3d
00000300: 6d36 8a3b fe10 463c 7446 62ba a17e 6e3d
00000310: 5f13 053e 29cf aa3d fc15 07bc 832e 253d
00000320: 651e cebd 4a93 bcbd 4250 9cbd dc62 f53d
00000330: 6266 993d 1801 ec3d 7fdc b63d 7eb5 71bd
00000340: 5a36 e73d 47e7 f83c f4da e73d 7122 503c
00000350: b0bd 1d3d 8523 943d f06f ff3b c8ba 91bd
00000360: 0993 a13d 9b7a 81bd 6a91 63bd 7f7d 983d
00000370: 8b3c b5bb 1e95 243c 2bb0 653c 9bfa b33d
00000380: 44d0 a2bd a24c 63bc ec51 843d 603b a53d
00000390: d422 b8bb 4e4d 233c 75a3 a43d 3d06 87bd
000003a0: b739 b4bc f4e3 99bd 0f6f 86bc 6374 25bc
000003b0: 51af 423d 4de6 80bd cae1 e9bd 363c b03c
000003c0: 9f9e 73bd b874 343d ae26 163e 1fa9 a0bd
000003d0: 3c27 8ebc 4aa9 f2bd cb7a b6bd d4e0 b3bd
000003e0: 236d d33d cbe8 42bd 2637 8d3d 8f82 64bd
000003f0: 2179 ce3c bce1 a3bc 04b8 a73d 25c5 d0bc
-0.11603244 0.02616613 0.12794778 -0.1357332 -0.052101042 -0.008149528 -0.068432465 0.06061788
-0.009864627 -0.11688057 0.015912123 -0.025595902 0.15539211 -0.03215068 -0.09213559 0.13488682
-0.10049012 0.042247146 -0.032769844 0.05497812 -0.063601665 0.08358919 0.030607035 0.021880902
-0.06350735 0.02209848 -0.013769139 -0.06712923 -0.01283276 -0.025841344 -0.07762806 0.090345934
-0.124723196 -0.010530989 -0.07633142 0.09486133 0.13247882 0.11367984 0.058828674 0.13727818
0.019590925 0.07578655 -0.046322722 -0.028109923 0.10569414 0.07237691 0.12179927 0.119470134
0.08625942 0.06886956 -0.024125578 -0.114206955 0.04023393 0.0047689816 -0.042272717 -0.038772896
-0.016854629 -0.123954706 0.12787881 -0.044914328 -0.03579793 -0.11827225 -0.06787685 -0.086563945
0.00958812 -0.04386464 0.10405214 -0.06798222 0.11754382 -0.09513722 -0.082799114 0.08677476
-0.00027819772 0.10029549 0.100845285 0.0010608115 0.030564498 0.042818595 -0.04880039 0.052935928
0.011050903 0.01492386 0.11316487 0.017152693 -0.10062362 -0.09394438 0.09188171 0.06380414
-0.042337805 0.11514657 -0.1295136 -0.009680895 0.07315969 0.073285386 0.09093719 -0.13990587
-0.016018143 0.13345122 -0.07307389 0.012891511 0.0792217 -0.062193066 0.09185853 -0.057714157
0.09465351 0.13537079 0.014638766 0.008645275 -0.100312226 -0.08739107 0.053764496 0.10805569
-0.078615405 -0.008853593 -0.13700458 -0.09099906 0.10731747 0.07334956 -0.08188402 0.0055830376
-0.015044378 0.058283094 0.13427965 -0.0019693363 -0.02116768 0.106891766 -0.120487764 0.03330478
-0.08448065 -0.024971714 -0.017237172 -0.035176728 -0.04995895 0.07162459 0.073127024 0.08392694
0.08885521 0.093217984 -0.09765201 0.048085857 0.094564475 -0.05171863 -0.15354772 -0.12699902
0.12375614 -0.047433145 -0.07089594 -0.15770867 -0.06051263 0.060073018 0.0004942886 -0.044559598
-0.076258674 0.10445715 0.030462673 -0.037066873 -0.07855916 0.040374566 0.05202911 0.052237038
-0.055613615 0.044714566 -0.14736217 0.08337869 -0.079769626 0.029817076 -0.012547118 -0.13135341
0.06915607 0.10664944 0.06675504 0.0059429393 0.047854304 0.039747406 -0.11166392 -0.0585995
0.0338245 0.055605546 -0.07769471 -0.063010134 -0.078690454 0.07482826 -0.035343286 -0.010569116
-0.10918035 -0.15337843 0.084755205 0.08456331 0.13179477 -0.054562274 -0.10676627 0.09103636
0.004217914 0.012089012 -0.0008631714 0.05822623 0.1299567 0.08340294 -0.008244988 0.04032756
-0.10064391 -0.09207781 -0.076324955 0.119817466 0.07490231 0.11523646 0.08928775 -0.059010975
0.112896636 0.03038372 0.11321059 0.012703524 0.03851098 0.07233337 0.0077953264 -0.07115704
0.07889373 -0.06322213 -0.0555586 0.074458115 -0.005530899 0.010045318 0.0140190525 0.087880336
-0.0794988 -0.013873251 0.06460938 0.080679655 -0.005619386 0.009967161 0.080389895 -0.06592987
-0.022000177 -0.07514182 -0.016410379 -0.01009855 0.047530476 -0.062939264 -0.11420019 0.021513086
-0.059477445 0.044056624 0.14663193 -0.07844757 -0.017352693 -0.118486956 -0.0891014 -0.08783117
0.103235506 -0.04758529 0.06895284 -0.055788573 0.025204243 -0.0200051 0.08189395 -0.02548463

lstm.bias_ih_l0 f4 [256]
00000000: 5c76 d6bd 02e8 ea3c 4bea c7bd a9de d6bd
00000010: 61f5 4b3d e4eb 29be 6f7b 12be 2bf9 bc3d
00000020: 164a 213d 62b3 f6bd 1292 aabb d041 603d
00000030: 3661 54bd 3d0c ac3d 4377 013d f06a 9fbc
00000040: b0fc 5ebd 88b1 9c3d 16fa 2cbe dfa0 263c
00000050: b812 693d 2643 243d 274b 553d 7db7 9a3d
00000060: 895d 4dbc 7e49 b83d 5024 1cbd cb36 893d
00000070: 862f 433d fffa 31be 41c4 d0bd 6f65 cebc
00000080: 507c bf3c 2853 55bd 8298 423d bbb6 e5bc
00000090: 933b 253c 74ba aebd 0634 00be 7dd3 bdbd
000000a0: ae4f 953d ccde 463c 4382 8a3d 495b 473c
000000b0: 08da 01bb fd0f b1bd 27af 773d 002b fabd
000000c0: c15e 9cbd 6381 813d e032 fb3c 1aa4 88bd
000000d0: 2602 aaba a38d 4c3d edaa 9c3a ca6d b4bb
000000e0: 90ef 623d aff5 4ebd 5b8f a03d 1a91 eabd
000000f0: 7c5d afbd d942 01be 8881 26be b7b6 2a3d
00000100: 326f 953d 680c 12be 99a3 0fbd 7354 19bd
00000110: c85c 08be ef0c f5bd 4974 00bd c9c5 833d
00000120: 8760 acbd 41ba 14be 57d2 91bd 1bc2 06be
00000130: 7513 14be 167b bfbc 16e5 373d d494 7ebd
00000140: 91b5 00be 53c2 adbd d187 ddbd 1dd0 b9bc
00000150: 86a2 b5bd ec04 23be aa86 543d 8ad0 8a3d
00000160: f24a ed3b 0866 aabb 12b4 9abd c380 45bd
00000170: d046 6dbd f9ad 04be 4ad2 3b39 6cb4 093d
00000180: 3ddb b0bd 3ab6 e0bc a6e8 f73d 02e5 853d
00000190: 3c1a 883d 293a 923d 6085 9fbd c603 05bd
000001a0: fdf0 8abd ca41 85bc 1258 973d 5480 b63b
000001b0: 0cf5 a83b 8bb5 9b3d 1030 8cbd 56dc af3d
000001c0: 087c a53d ffc1 35bd 2813 943d 12c2 88bd
000001d0: 5ef0 f13c e31e b8bd ca74 0dbe b2eb 9a3d
000001e0: 807a f5bd b089 a1bd cdf1 113c 31cb bcbd
000001f0: 1bc4 9b3d 46e3 1cbe 3fb5 71bd 1683 6cbd
00000200: b7dc 423d 7130 ac3d 9762 68bd cf11 393d
00000210: 4324 85bd 07ea 5bbd ae21 8fbd 4a20 143d
00000220: 9093 aebd dce9 1b3b 6446 d73d 486c c5bd
00000230: ceed b4bd 92a3 83bd eb88 4f3d 02e9 913c
00000240: b3a3 80bd e9e8 403d a3c1 cd3d 8dca 893d
00000250: 50d3 f33d 8521 90bd ad21 b53d 656d 38bc
00000260: 4014 693d db9a 19bd 595c 8839 d8eb 2fbd
00000270: 51e2 ccbd 6ce3 f9bd 1955 aebd b1cf 39bd
00000280: 6d7c 90bd d990 dd3d 8e41 4a3d 98c9 e0bd
00000290: 0843 1cbd 602b cb3d 6a4a 9cbc 4309 a2bd
000002a0: 1159 603c cbf9 f2bb 1e20 f6bd bfc6 aabd
000002b0: cbac ce3d 7179 983d 091d a23d 98ba 0f3e
000002c0: 65bc c73d 325e 893d e822 c43b c29e 193d
000002d0: 9b11 283b 29ef 2f3c c126 903d 7e54 6c3d
000002e0: 641d 8dbc d861 513d ce38 113d 32ef babd
000002f0: 0e24 6bbd 271f f6bc e9ca 613d 344a 67bd
00000300: 8365 9fbd f688 89bd 79ce e23c 1ca3 f7b9
00000310: 5d68 10be e0f7 77bd 33f2 10be 5265 f8bd
00000320: 98f4 1b3d ecb9 84bd 5590 17bd 1dc7 18bd
00000330: 9ba8 cdbd 7ce8 b63d bff3 b5bd 731b 28bd
00000340: 86a9 0f3d 23dc d73d 72c1 923d dec3 4dbc
00000350: 05c3 acbb 20f4 a9bd 593f 9fbd f613 61bd
00000360: 1d12 83bd 809b e9bd 7857 7cbd 0f56 e83d
00000370: f2cb 0bbe e3b7 ff3c b3b1 403d 64ce 6e3d
00000380: 79df 253d 9917 04bc 472b e43d f52b 953d
00000390: 1f1c c33b ce70 c23d 4174 32bb 2027 1bbe
000003a0: 1d7c fdbd 33ac 3e3d 68db 14be 1034 eabd
000003b0: 647a f8bd 58b4 14be d1ca 06be 9f8d 0dbc
000003c0: b407 d63c 0b7b 37be 8be9 acbb 745e 9a3d
000003d0: a26a 25bd 10c0 b8bd 827d 96bb a3f8 eabd
000003e0: 7a4e 80bd 2958 a5bd ee5d 50bc c7b0 d2bd
000003f0: 91f1 b23d b96c 1ebe d6d5 0ebe 7b35 92bd
-0.10471794 0.028675083 -0.09761485 -0.10491688 0.04979456 -0.16593891 -0.14304899 0.092272125
0.039377294 -0.12045933 -0.005205401 0.054750264 -0.05185052 0.08400772 0.031607877 -0.019460171
-0.0544402 0.07651049 -0.16892275 0.010170191 0.056902617 0.0401031 0.052073624 0.07554529
-0.012534508 0.089983925 -0.038120568 0.06699904 0.047652744 -0.17380904 -0.101936825 -0.025194852
0.023374707 -0.052081257 0.047508724 -0.028041234 0.010085004 -0.08531657 -0.12519845 -0.09268854
0.07290588 0.01213808 0.06763127 0.01216776 -0.0019813795 -0.08645628 0.060469773 -0.12215233
-0.076352604 0.06323507 0.030663908 -0.06671925 -0.0012970611 0.049939763 0.0011952795 -0.005506252
0.055404246 -0.05052727 0.07839843 -0.11453457 -0.085627526 -0.12623157 -0.1626035 0.041678157
0.072965994 -0.14262545 -0.03506813 -0.037434053 -0.13316643 -0.119653575 -0.0313609 0.06434209
-0.08416849 -0.14524175 -0.07120197 -0.13159983 -0.14460547 -0.023374122 0.044896208 -0.062153652
-0.12569262 -0.0848433 -0.108169205 -0.022682244 -0.088688895 -0.15919846 0.05188624 0.06778057
0.0072416 -0.0052001514 -0.07553877 -0.0482185 -0.05792886 -0.1295699 0.00017912048 0.03361933
-0.086355664 -0.027430642 0.12104921 0.065378204 0.06645629 0.071399994 -0.07789111 -0.0324743
-0.06784246 -0.016266722 0.07389845 0.005569497 0.005156165 0.07602986 -0.06845105 0.085869476
0.08080298 -0.044374462 0.07230216 -0.06677641 0.029533561 -0.08990266 -0.13814083 0.075644866
-0.11986256 -0.0788759 0.008907747 -0.09218443 0.076057635 -0.15321073 -0.05901074 -0.0577422
0.04757377 0.08407677 -0.056734648 0.045183 -0.06501057 -0.053689983 -0.06988846 0.036163606
-0.08524239 0.0023790514 0.10511473 -0.09639794 -0.0883442 -0.06427683 0.050667685 0.017811302
-0.06281223 0.04709712 0.10046699 0.067280866 0.11905539 -0.07037643 0.08844314 -0.01125655
0.056904078 -0.037501197 0.00026008746 -0.042949528 -0.10004104 -0.122015804 -0.08512325 -0.045364086
-0.07054982 0.10818643 0.049378924 -0.10975951 -0.038149863 0.099203825 -0.019078452 -0.07911923
0.01369311 -0.0074150315 -0.120178446 -0.08338689 0.100915514 0.07445038 0.07915694 0.14036024
0.0975273 0.067074195 0.0059856065 0.03750492 0.002564526 0.010738173 0.07038642 0.057697766
-0.017225929 0.0511187 0.035454564 -0.09127654 -0.05740743 -0.030044151 0.05512515 -0.05646725
-0.07783034 -0.06715576 0.027686344 -0.00047233037 -0.14102311 -0.060539126 -0.14154892 -0.121287
0.03807506 -0.06480774 -0.03700288 -0.037299264 -0.100419246 0.089310616 -0.088843815 -0.041041803
0.03507378 0.105400346 0.07165803 -0.012558905 -0.0052722716 -0.08298516 -0.077757545 -0.054950677
-0.06399939 -0.114066124 -0.061606854 0.113445394 -0.13652018 0.031215614 0.047044467 0.0583023
0.040496323 -0.008062267 0.11141067 0.07283775 0.00595428 0.09494172 -0.0027229937 -0.15151644
-0.12377188 0.04655094 -0.14536822 -0.114357114 -0.12132719 -0.1452192 -0.13163306 -0.008639722
0.02612672 -0.17918031 -0.005276864 0.07537547 -0.040384896 -0.09021008 -0.0045925984 -0.11473205
-0.06264968 -0.08073456 -0.012717707 -0.10287624 0.087374814 -0.15471162 -0.1394876 -0.07139107

lstm.bias_hh_l0 f4 [256]
00000000: ad1d 7a3d 89ec a2bd 0052 3fbd bcf0 4bbd
00000010: 483d a9bd 4a8d bfbd 0d83 e5bd 3a6b 67bd
00000020: 3bd3 4abb 4b1a 1b3c 696d 12be 204c e7bc
00000030: b068 9b3d d0ac e6bb 2b25 bc3d 6e32 c43d
00000040: a378 83bd 35a6 44bd 84c3 09be c1b3 0cbd
00000050: 3198 bd3c 342d 533d 95c6 ce3d f32c 103e
00000060: a37c eebb 5898 293d 2cad 05be 7306 7cbd
00000070: cf8d 08be fac5 58bd deda 683c 82e1 c0bd
00000080: deaa 4abd 95dc a23d 6656 ff3d f60b 17be
00000090: a567 13bd e61a 0fbe a953 adbc abe4 b73d
000000a0: ed7b af3c 4cce 9f3d a389 da3b 02bd 5a3b
000000b0: 0e55 e2bd 665e 7bbc 5de5 2abd 0971 19be
000000c0: 6364 64bd 147e bcbd dc47 76bd ac9f ab3d
000000d0: 294a 1c3d 5560 fabd 1da1 b73c 8dc3 0c3d
000000e0: 2490 d3bd 4b22 17bd 9399 9cbc fc37 833d
000000f0: a8c1 d8bd f80d d9bd 583a 04bd 653c 41bb
00000100: 4a0c dcbd 24ff fbbd 62f1 d8bd 0e05 12be
00000110: fb5d 06be 2621 08bc a617 d1bd 456d 493d
00000120: ad89 adbd 527b 86bd f5d4 cd3c 44b4 b6b9
00000130: d617 7d3d bf8b 223d e4d3 b23d 8282 13bd
00000140: dd91 b33c 499c c03d fcb1 773d c7fe d2bb
00000150: 6548 f8bc 342c 5dbd 624e 7b3c 02e9 503d
00000160: 51ac f6bd 3aac f6bd 2283 44be d43f cebd
00000170: 6432 b23d a243 0fbe 6766 a6bd a0ad d6bd
00000180: cd75 d1bd f9e0 b2bd a116 a0bc 4fb0 88bd
00000190: f1ff b23d e9fd 9f3d 9ee5 3fbd 868c 3fbd
000001a0: 44e8 39bd 4ed6 94bc 327f 13bd e150 cabb
000001b0: d908 53bd 6fb5 593a cfe3 d3bd 33ce 2f3d
000001c0: 78dd 313d 304f 80bd 7b3e 82bd 1f08 d6bd
000001d0: 2c1f acbd 7a92 2c3c 5fab af3d 50a4 0ebe
000001e0: e1c6 543c 34a3 6fbd caed 60bd 5503 c73c
000001f0: 4f79 f7bd 8cb2 9ebc 45f1 27be 5dfe 8bbd
00000200: 8cfd fb3c a7c5 52bc d912 523d 25f3 a73d
00000210: 1619 373d e384 f33d 03ca dbbd 2191 643d
00000220: afa1 703d 90a4 74bb 6aae da3d 4ed7 393d
00000230: 089e fc3c ce96 b93d b3c4 65bd 1690 6ebd
00000240: 8db9 fa3c 1e2e 1d3c 2bb6 e7bd 97df 913d
00000250: 5641 413d ad38 c53d 1374 a8bd f33c a73d
00000260: b488 4f3d fd8f 26bd efb2 d7bc 5261 d03d
00000270: 3855 b8bb ae1c 593d 66ab 593d ae31 be3d
00000280: 4f5b d8bd d028 1a3b 6ee0 693c ec5b ce3d
00000290: b977 d93c fa04 e3bd 1d89 e6bd 94d2 ae3d
000002a0: d6b2 2f3d 5a87 973d b4bd 883d 14f6 55bd
000002b0: 7586 c13d 2f3c b8bd e068 113e 6f6a 4ebd
000002c0: 2502 c73d 0ab9 713d 478a 843d 0b0b 4a3d
000002d0: 7d49 913d 9898 febd 952d c03d f38d b6bc
000002e0: 9d05 a23c ef3e ad3d 1ad2 fe3b 98e0 72bd
000002f0: ccc1 e33c 9097 c93d 7796 bf3c 88ff 31bd
00000300: aae7 343a 812a 833c 5997 c73c 8ec3 38bd
00000310: f29a 0abd 46fc 35be 9861 43bd 33df 9a3c
00000320: 08d9 013c eb84 cbbd 89fb 4abd c2ef a6bd
00000330: 41c6 c4bd 0113 803d ec76 2dbc 20c8 0fbe
00000340: 6cd8 85bc fd28 a63d 80aa f5bd 46db f23c
00000350: 61bd 84bd a57d ae3d 4a0f 9f3d a3f7 78bd
00000360: cb99 10be 1412 023d 07d7 0abe 72d8 3ebc
00000370: c6a5 cebc 7fc6 57bd fde8 16be 0e44 09bd
00000380: c12f 89bc 1045 c23d 3eeb 1b3c cf2f 19bd
00000390: 14b8 823d ce52 fabd 4189 6e3d 5579 0fbe
000003a0: a3de 943d 6bf9 96bd 4e7f 5d3c ca51 a4bd
000003b0: dfd4 393d 2423 babd 4b49 d43c 74a3 20be
000003c0: 7849 c4bc 2715 12be 5c28 8f3d 59cd 72bd
000003d0: 021a ae3d 9c1c 5bbd c519 6ebd aa06 fabb
000003e0: 9024 0fbe bcda 3b3d c3f0 06be 0325 17bc
000003f0: 51c2 f73d 3139 42be 4db7 2ebe daa0 93bd
0.061063457 -0.07955272 -0.04670906 -0.04979013 -0.082636416 -0.093531206 -0.112066366 -0.056498744
-0.0030948657 0.009466718 -0.14299549 -0.028234541 0.07588327 -0.007039644 0.09186777 0.09579931
-0.06419494 -0.04801007 -0.1345349 -0.034351114 0.02314386 0.05155678 0.1009647 0.14079647
-0.0072780414 0.041405052 -0.13054341 -0.061529588 -0.13335346 -0.05292318 0.014212338 -0.09418012
-0.049479358 0.07952229 0.12467651 -0.14750656 -0.035987515 -0.13975105 -0.021158056 0.08979162
0.021421397 0.0780302 0.0066692396 0.0033376818 -0.11051379 -0.015342331 -0.041722644 -0.14984526
-0.0557598 -0.09203735 -0.060127124 0.08380064 0.038156662 -0.12225405 0.022415692 0.03436618
-0.10330227 -0.03689794 -0.019116199 0.064071625 -0.10583812 -0.105983675 -0.032282203 -0.002948546
-0.107445315 -0.123045236 -0.10592915 -0.1425974 -0.13121788 -0.008308684 -0.10209589 0.049176473
-0.08473525 -0.0656649 0.02512596 -0.00034848053 0.06179031 0.039684054 0.08731821 -0.036013134
0.021920139 0.09404809 0.060472474 -0.006439063 -0.030307958 -0.053997234 0.015338512 0.051003464
-0.120445855 -0.12044568 -0.19190648 -0.10070768 0.087010175 -0.13990644 -0.081250004 -0.10482335
-0.10227547 -0.087343164 -0.01954204 -0.06674253 0.08740223 0.078121014 -0.04684984 -0.046764873
-0.04538752 -0.018168595 -0.036009975 -0.0061741923 -0.05152211 0.0008304929 -0.103461854 0.042921256
0.0434241 -0.06265104 -0.063595735 -0.10450768 -0.08404383 0.01053297 0.08577608 -0.13929868
0.01298687 -0.058505252 -0.054914273 0.024293581 -0.12083685 -0.019372247 -0.16400631 -0.06835625
0.030760549 -0.012864507 0.051287506 0.08200673 0.04470166 0.118905805 -0.1073189 0.05580247
0.058747943 -0.0037329532 0.10677798 0.045371346 0.030837074 0.09061967 -0.05609579 -0.05824288
0.030606056 0.009593515 -0.11314043 0.071227245 0.04718145 0.09629951 -0.082252644 0.08165922
0.05066748 -0.04066466 -0.02633044 0.101748124 -0.0056253932 0.053005867 0.053141974 0.092868194
-0.10564291 0.0023522861 0.0142747 0.100761265 0.026546346 -0.110849336 -0.11256621 0.08536258
0.04289516 0.07398863 0.06676808 -0.05223663 0.09449474 -0.08995854 0.14200163 -0.05039447
0.09717206 0.059014358 0.06471687 0.049326938 0.07094095 -0.12431449 0.09383694 -0.022284484
0.019778067 0.08459269 0.007776511 -0.05929622 0.02780237 0.098433614 0.023387177 -0.043456584
0.0006900976 0.016011478 0.02436416 -0.04510837 -0.033839174 -0.17772016 -0.047700495 0.018905258
0.007925279 -0.099374615 -0.04955629 -0.08151199 -0.096081264 0.06253625 -0.010587435 -0.14041185
-0.01633855 0.08113287 -0.11995411 0.029645573 -0.06481434 0.085200585 0.07766588 -0.06078304
-0.14121167 0.031755522 -0.13558589 -0.011648284 -0.025225531 -0.052679535 -0.14737315 -0.033512168
-0.016746404 0.09485829 0.009516535 -0.03739911 0.06382766 -0.12222825 0.058236364 -0.14011128
0.07269027 -0.073717915 0.013519121 -0.080234125 0.045369025 -0.09088734 0.025913855 -0.15687352
-0.023960814 -0.14265881 0.0699012 -0.059277866 0.08501054 -0.05349408 -0.058130044 -0.007630189
-0.13978791 0.0458629 -0.13177781 -0.009225133 0.1209761 -0.1896713 -0.17062111 -0.072084144

lstm.weight_ih_l0_reverse f4 [256, 32]
00000000: c5bc be3d 449b 64bc 5456 d43c ff55 06be
00000010: 2976 04bd 5005 c8bd f07a 853d 8f56 203c
00000020: 072e 48bd 3fe1 d1bd fe89 9dbd 6cfa d0bd
00000030: f961 94bc e238 9bba 4ae4 24bc 6e71 8bbd
00000040: 48d9 80bd 92f1 3abd e450 853c 70b3 193b
00000050: 95f6 28bd 58cb 15be 124e 27bd df42 c2bc
00000060: 43bd 153d f0b1 14be a8b8 9cbd e647 ce3c
00000070: 000e 9abd 0831 edbd 1098 8d3d ea58 8b3d
00000080: 72f1 c6bd feef 0cbe d887 3dbc b21f 493d
00000090: adf6 0ebc df72 5fbc b913 2c3d 05c7 5abd
000000a0: 5f46 8abd 1241 8d3d 457f a13d 7b96 91bd
000000b0: d51d 81bd f2d4 373b 0d1e e93c 825b 45bd
000000c0: 9c59 d4bc 1145 bf3d c62e 273d 5f43 0cbe
000000d0: 7253 273d 26eb 913d 2ae8 e53d dd80 e9bd
000000e0: 56dd 29bc 606f 3ebd 5372 a3bd 0f93 27bc
000000f0: 9a88 473c edf8 adbd 660a 403d af75 78bd
00000100: 7664 303d b4d9 03be cfc3 90bc 0a33 9ebd
00000110: 3312 36be 7b70 18be 6a7b 8abc 8179 92bd
00000120: c9d7 903d c3af cfba 2e9c 353d 4206 c6bd
00000130: 968a 953d 34c6 b6bd f2c8 bc3d 9211 ee3d
00000140: 64b1 2cbd 220d 943d 4a89 1abe f7e5 85bc
00000150: 7460 ffbd b501 f63d 3744 6d3d e474 a9bc
00000160: 3727 3a39 1ebf 0e3d e058 2d3c d7ac b8bd
00000170: e48c b8bd d9ad af3c dd5b 003d e148 cdbd
00000180: 66da 1fbd 9335 65bd 2d22 8dbb 1ac1 8a3d
00000190: 32ee c4bd a61f 1c3b d18d 1bbe 8e42 d83b
000001a0: 4df8 a9bd 5fc7 13be 49f5 03be 3b9b 1b3c
000001b0: c0d8 a1bc 07c9 abbc c04d 333b 73d6 8abc
000001c0: 5c05 e53c d6ca 5bbd b9f0 e9bd 78c0 03bd
000001d0: ef75 76bd ded9 153d dce7 28be 00ae 893d
000001e0: 6c9e 553c fffd 5dbd e1f9 5f3d 0151 10be
000001f0: 5580 cebc 834b 9e3d 5717 a03d 1697 e0bd
00000200: 7f47 8c3d 74c9 ebba e6d2 ef3c 208e 0a3e
00000210: 6961 b13d 47a4 cbbd 854c 6bbd 088f bd3d
00000220: 8fe4 b8bc 739d b8bd 692b a63c 17c9 24bd
00000230: be1d a83d 7b61 453d 6f93 083e 6399 813d
00000240: 103e f1bc 2604 353b 023f ab3d 4c36 e23c
00000250: a9b6 fa3d c6bf 883c 3fab d6bc 1990 22bc
00000260: 8ac8 a53d e32b 9a3b 2652 f43a aa52 babd
00000270: 6a32 efbd 3606 f73a 9126 14bc 3784 a13d
00000280: 88a5 8ebd b9c1 dcbc dac6 edbc 0f1d febd
00000290: de7a 003c ac40 d6bd 1227 febd 3028 ccbd
000002a0: 1893 e0bd 718f c43d 3115 083d d9ea a63d
000002b0: 35b7 863c 51d9 21bd 4560 c03d ec48 1cbc
000002c0: d84b a7bd 921a c23d 072b d0bb c5cd 6ebc
000002d0: 00d9 f6bd d398 c53d f459 74bd 179f 913c
000002e0: ad25 babd 755b 59bd f1e1 98bd c810 8f3d
000002f0: 3570 13bc 8eba c93d 8d32 a6bc b34c ab3d
00000300: b9f8 063d d5c7 22be 35ad 6f3c ee29 4f3b
00000310: bbd6 c8bd a238 97bd 8dec ad3d 5fb2 c3bd
00000320: 47bc bcbc d12c 403d 5747 d9bd 5b7f 17bd
00000330: c205 1e3d e12b 06be 5977 5b3d 099e a73d
00000340: 41ef 803c f5c8 1cbe 1ef5 4fbd 57ba 9f3d
00000350: 923f 7f3c 8a6d 163d d04b efbd 5734 f9bc
00000360: 8dfb c83b a808 863d 188a 18be 90a0 d6bc
00000370: b487 483d 4ec8 98bd 4bd0 1f3d 5afa f0bc
00000380: 2672 9bbd 240b 55bd 2fd8 79bc 24f1 363d
00000390: 88bf a0bd e387 cebd 6e62 10bd a789 f4bc
000003a0: 6eca 953d f2de 983d 11b4 d8bd 3629 f6bd
000003b0: bc76 4e3d 206c 08be 09b5 3abc 01b4 9abd
000003c0: 7f02 26bd 6510 1cbd 674d 0bbe 0e23 e63b
000003d0: 7525 8e3d 2496 f2bd 5134 6fbd 6491 fa3c
000003e0: 59b3 a33d 08ce 913d 03d7 1ebd fbe1 75bd
000003f0: fac3 0abe 9a42 f6bc be4d 953d b1b1 873d
0.09313349 -0.013953034 0.02592007 -0.13118742 -0.03233925 -0.09766638 0.06517589 0.009786262
-0.04887202 -0.102480404 -0.076923355 -0.10204014 -0.018113123 -0.0011842514 -0.010064194 -0.06808744
-0.06291443 -0.045640536 0.016273923 0.00234529 -0.041250784 -0.1462835 -0.040845938 -0.023713527
0.036557447 -0.14521003 -0.07652408 0.025180768 -0.075222015 -0.115816176 0.06913769 0.068040684
-0.09714021 -0.13763425 -0.011568032 0.049102493 -0.008725804 -0.013638227 0.042010996 -0.053412456
-0.067517035 0.06897177 0.07885603 -0.0710878 -0.06304518 0.002805051 0.028456712 -0.04818297
-0.025921635 0.09339345 0.04081609 -0.13697575 0.040851064 0.07124929 0.112259224 -0.11401532
-0.010367712 -0.046492934 -0.0798079 -0.010227933 0.012178564 -0.084947444 0.046884917 -0.060659107
0.043064557 -0.12876016 -0.017671494 -0.07724579 -0.1778038 -0.14886658 -0.016904552 -0.07152081
0.07072408 -0.0015845228 0.044338398 -0.09669162 0.07301824 -0.08924523 0.09218015 0.11624445
-0.04216136 0.072290674 -0.15091434 -0.016345007 -0.12469569 0.12012044 0.057926383 -0.02068562
0.00017752951 0.034850232 0.0105802715 -0.090173416 -0.09011248 0.021445202 0.031337608 -0.10023666
-0.03902664 -0.055959295 -0.0043070526 0.067751125 -0.09615745 0.0023822575 -0.15190817 0.006599731
-0.08299313 -0.14431523 -0.12886538 0.009497459 -0.019756675 -0.02096988 0.0027359575 -0.01694796
0.027956657 -0.053660236 -0.11422867 -0.032165974 -0.060171064 0.036584727 -0.16494697 0.06722641
0.013038259 -0.054197308 0.054681662 -0.140934 -0.025207678 0.077292465 0.07816952 -0.10966317
0.06849574 -0.0017989115 0.029275369 0.13530779 0.08661158 -0.09943443 -0.05744602 0.09255797
-0.022569923 -0.09014406 0.020284371 -0.040230837 0.08208798 0.048188668 0.13337491 0.06328084
-0.029448539 0.002762088 0.08361627 0.027613781 0.12241871 0.016693007 -0.026204703 -0.009922051
0.080948904 0.0047049387 0.0018640205 -0.09097798 -0.116795376 0.0018846455 -0.009042398 0.07886546
-0.06965166 -0.026947843 -0.029025484 -0.12407886 0.007841794 -0.10461554 -0.12409796 -0.09968603
-0.10965556 0.09597672 0.033223335 0.081502624 0.016444782 -0.03951389 0.09393362 -0.00953887
-0.08168763 0.09477724 -0.0063527855 -0.0145754265 -0.12053108 0.096482895 -0.0596561 0.017776055
-0.09089217 -0.053065736 -0.0746497 0.06985623 -0.00899892 0.098500356 -0.020287776 0.083642386
0.032952044 -0.15896542 0.014628698 0.0031610685 -0.098065816 -0.07383849 0.08492384 -0.09555506
-0.023038996 0.04691774 -0.1060931 -0.03698669 0.03857971 -0.13102676 0.053580616 0.0818444
0.015739085 -0.15311034 -0.05077087 0.077992134 0.015579121 0.03672556 -0.11684382 -0.030420465
0.006133503 0.0654462 -0.14896429 -0.026199609 0.04895754 -0.0746008 0.039017003 -0.029416252
-0.075901315 -0.052012578 -0.015249296 0.044663563 -0.07849032 -0.10084512 -0.03525012 -0.029850794
0.07314001 0.074643984 -0.1058122 -0.12019579 0.050406203 -0.13322496 -0.011395701 -0.07553864
-0.040529724 -0.038101573 -0.13603745 0.007023222 0.06940738 -0.11845043 -0.058399502 0.030586906
0.07993192 0.071193755 -0.03877927 -0.060029965 -0.13551322 -0.030061055 0.07290219 0.06625689
