backend/cnn_lstm_checkpoints/cnn_lstm_epoch_1.pth (torch, 788573 bytes, 64 tensors)

cnn.0.weight f4 [16, 1, 3, 3]
0.25188333 0.10355903 -0.11299487 -0.040827185 0.15660788 -0.08491945 0.078665316 -0.055276904
0.27034009 0.2936242 -0.21949361 0.1455018 0.14836602 -0.31049252 -0.21336947 0.32926977
0.23484176 0.11869039 0.19178037 -0.19234428 0.17316574 -0.19803232 -0.35355642 -0.3130491
0.15762444 -0.17304948 0.042864326 -0.0041085887 -0.06758467 0.14834954 0.017570827 -0.084973715
-0.057300795 -0.23575395 -0.3288675 -0.11587237 0.24772891 0.11889705 0.13253164 0.11684449
0.1195232 0.045404837 -0.25857994 -0.26600862 0.2862299 -0.29143244 0.15244608 0.11923664
0.18657005 0.07142842 -0.13538782 -0.25333208 -0.30772743 -0.20918728 -0.09637431 0.24141888
0.23538493 -0.2516229 0.26997727 -0.28788128 0.04971572 0.05328459 0.23060781 -0.12870453
0.19344318 -0.08351794 -0.15747556 -0.3248554 0.16381638 0.24403247 0.28908607 -0.34548426
-0.13218446 -0.09110885 -0.08314816 0.11444508 0.113040484 -0.11863803 -0.28409988 0.108852744
0.14115132 0.16240454 0.036905296 -0.039934933 0.22878934 0.28070968 0.22893684 -0.04534868
0.27085742 0.24428047 -0.19180122 -0.22813217 0.079455376 -0.11694568 0.12457007 -0.015374821
0.2579565 0.10542482 0.26112682 -0.18406639 0.21623594 0.3288946 0.2385906 0.059494447
-0.22322014 -0.005469725 -0.09703081 -0.033224717 0.03115258 0.12945837 0.26375523 -0.08618449
-0.22580096 -0.3076574 -0.1960349 -0.15817896 0.07091362 0.21674132 0.18763523 0.2944798
0.1892493 -0.22412741 0.15471676 -0.12459271 -0.08329196 -0.011639173 0.31756124 -0.23936409
0.33480585 -0.17446074 0.21647273 0.18646193 0.08765881 -0.2098059 -0.098587856 0.111662865
0.28671008 -0.24770866 -0.07619561 -0.29930282 -0.079256155 0.19059889 0.017781558 0.22011806
00000000: daf6 803e c216 d43d db69 e7bd 683a 27bd
00000010: d15d 203e 40ea adbd 481b a13d 096a 62bd
00000020: 046a 8a3e e955 963e efc2 60be 6dfe 143e
00000030: 43ed 173e e0f8 9ebe 877d 5abe 0c96 a83e
00000040: 5c7a 703e f213 f33d 1362 443e e6f5 44be
00000050: 5c52 313e fcc8 4abe 5905 b5be f947 a0be
00000060: 4d68 213e e233 31be 8192 2f3d 57a1 86bb
00000070: d569 8abd f1e8 173e b2f0 8f3c b306 aebd
00000080: 3db4 6abd 7c69 71be 5261 a8be 7e4e edbd
00000090: a6ac 7d3e 4c80 f33d 60b6 073e 2a4c ef3d
000000a0: 94c8 f43d 6cfa 393d 9764 84be 4832 88be
000000b0: ba8c 923e a236 95be d31a 1c3e 5732 f43d
000000c0: 380c 3f3e 1049 923d 1ba3 0abe beb4 81be
000000d0: 738e 9dbe 3135 56be e55f c5bd 8336 773e
000000e0: bf08 713e b7d4 80be 763a 8a3e 2d65 93be
000000f0: b6a2 4b3d f140 5a3d 7424 6c3e 1fcb 03be
00000100: f815 463e 740b abbd 4641 21be 7253 a6be
00000110: 7bbf 273e a6e3 793e 1703 943e 50e3 b0be
00000120: 5d5b 07be 4797 babd 9549 aabd 2f62 ea3d
00000130: c581 e73d 7ff8 f2bd 8a75 91be 30ee de3d
00000140: f989 103e 604d 263e 022a 173d d092 23bd
00000150: c147 6a3e 2eb9 8f3e 6b6e 6a3e 8abf 39bd
00000160: d3ad 8a3e a924 7a3e 8a67 44be 7b9b 69be
00000170: 80b9 a23d 3781 efbd 981e ff3d ace6 7bbc
00000180: e012 843e f8e8 d73d 6ab2 853e e67b 3cbe
00000190: f46c 5d3e df64 a83e 1851 743e 73b0 733d
000001a0: d293 64be 613b b3bb 17b8 c6bd a416 08bd
000001b0: b233 ff3c bc90 043e ed0a 873e 7e81 b0bd
000001c0: 5e38 67be 4585 9dbe 5fbd 48be aaf9 21be
000001d0: 293b 913d 70f1 5d3e 7323 403e 0ec6 963e
000001e0: 92ca 413e a881 65be 126e 1e3e 762a ffbd
000001f0: fa94 aabd 3bb2 3ebc 6397 a23e dc1b 75be
00000200: ac6b ab3e d6a5 32be 07ab 5d3e e0ef 3e3e
00000210: 7686 b33d 5cd7 56be 6ee8 c9bd 80af e43d
00000220: aacb 923e 57a7 7dbe 720c 9cbd 383e 99be
00000230: 0d51 a2bd 5b2c 433e a1aa 913c a166 613e

cnn.0.bias f4 [16]
-0.11795204 0.07298083 0.06149826 0.15026383 -0.04715955 -0.0893926 -0.12837858 -0.2986797
-0.003840051 0.13092734 0.3141998 -0.20697442 -0.022961488 -0.21501553 0.3174572 -0.047795482
00000000: d790 f1bd f976 953d 99e5 7b3d c3de 193e
00000010: 5f2a 41bd 7813 b7bd ad75 03be 8cec 98be
00000020: 5da9 7bbb d111 063e ccde a03e 1af1 53be
00000030: bb19 bcbc 082d 5cbe c089 a23e 32c5 43bd

cnn.1.weight f4 [16]
1.0810018 0.9943613 0.9695362 0.98820955 0.99797535 0.9978535 0.99736255 0.98073715
1.0155493 0.9600005 1.0455734 0.969774 0.9747424 1.0117031 0.97053653 0.9889549
00000000: 445e 8a3f 768e 7e3f 8633 783f 4dfb 7c3f
00000010: 507b 7f3f 5473 7f3f 2753 7f3f 9711 7b3f
00000020: 85fd 813f 98c2 753f 59d5 853f 1c43 783f
00000030: b888 793f 7d7f 813f 1575 783f 262c 7d3f

cnn.1.bias f4 [16]
0.090662524 -0.015224068 -0.033487257 -0.027183358 -0.0030423873 0.008046289 0.014047004 0.0075743315
0.025884522 -0.028288053 0.045102727 -0.03346203 -0.023383252 0.009130494 -0.043405402 -0.028370922
00000000: 46ad b93d 5f6e 79bc ef29 09bd a2af debc
00000010: ca62 47bb 95d4 033c 6825 663c 1932 f83b
00000020: c70b d43c 59bc e7bc a3bd 383d 7b0f 09bd
00000030: 3c8e bfbc 1198 153c ddc9 31bd 236a e8bc

cnn.1.running_mean f4 [16]
-0.11622105 0.07102639 0.062334716 0.15283309 -0.047625273 -0.087180905 -0.12898763 -0.2997887
-0.0035284655 0.1298223 0.31244573 -0.20406048 -0.021416994 -0.21183145 0.31966656 -0.05012141
00000000: 4d05 eebd 4976 913d b052 7f3d 4780 1c3e
00000010: b812 43bd e78b b2bd 5515 04be e87d 99be
00000020: d43d 67bb 23f0 043e e3f8 9f3e 3bf5 50be
00000030: b172 afbc 58ea 58be 56ab a33e 1c4c 4dbd

cnn.1.running_var f4 [16]
0.29238877 0.2913399 0.46604824 0.5109187 0.3065315 0.42097875 0.19960226 0.037216816
0.05714169 1.6990263 0.13370489 0.106774375 0.27009797 0.37295264 0.18701546 0.040375866
00000000: fbb3 953e 812a 953e e09d ee3e 91cb 023f
00000010: b2f1 9c3e 878a d73e 8964 4c3e a970 183d
00000020: 680d 6a3d b279 d93f efe9 083e 86ac da3d
00000030: 484a 8a3e a6f3 be3e fb80 3f3e 2a61 253d

cnn.5.weight f4 [32, 16, 3, 3]
0.11881683 0.112472735 0.12756981 -0.021635026 0.009147229 0.05608108 0.095965974 0.008871916
0.034238968 -0.0929817 0.0520948 0.034256577 0.035418626 -0.030132163 -0.07936534 0.0504802
0.030271083 0.00946863 -0.04143607 -0.090227574 -0.0056891427 0.033057835 -0.011617605 0.02856674
-0.0052474523 0.026098575 0.045761317 0.014473695 -0.07057198 -0.07523656 -0.028349515 0.035943516
0.082646 0.020508979 -0.076134175 -0.04024607 0.0073073287 -0.029329509 0.055329897 0.0066760844
0.020103067 0.0066117407 -0.03040094 0.02470654 0.009750166 0.008081097 -0.0036787644 0.00083509163
0.04204229 -0.077769235 -0.008276974 0.041446432 0.03383964 0.03434486 0.010783142 0.035765532
-0.027508384 -0.03414077 0.08384613 0.0078061745 0.0972498 0.09111153 -0.055609215 0.015368237
0.055578504 0.0045433 -0.028119514 0.025570462 0.053700835 0.007933694 0.05150908 0.05218764
0.041056324 0.007288859 0.021257056 0.03799482 -0.030477334 0.028271113 0.031816285 -0.0110258255
0.041103214 -0.02620552 0.04035301 -0.0017286324 -0.03772571 0.03802797 0.10801494 0.07019487
-0.032775164 -0.017733783 -0.0426493 0.008363608 -0.046006165 0.081705324 0.04987528 0.06359071
-0.009662957 0.101967305 0.00461654 0.0013736994 -0.003173498 -0.016560078 0.045913193 0.020157222
-0.06273939 -0.010437518 -0.054801844 0.050564766 -0.041918922 0.06545215 -0.026791794 0.06565534
0.034071952 -0.04216895 -0.04613438 -0.009948983 -0.00041639985 -0.034335133 -0.0076550976 0.09227086
-0.032024752 0.028846886 0.01864077 -0.053221256 0.030290117 0.042560533 0.006210404 -0.058332603
-0.049919438 -0.019127253 0.03157567 0.03973984 0.010917177 0.0035038553 0.034501825 0.010182347
-0.09353526 0.031653248 -0.024535144 -0.027785964 -0.03162616 -0.05136259 0.022028435 -0.07817403
-0.032184467 -0.024654623 -0.038657542 -0.05000404 -0.0945225 -0.10337576 -0.021615531 -0.00933041
-0.055148948 -0.05276207 0.06476011 -0.042611603 -0.080601014 0.00306021 0.041116845 -0.027072007
-0.06972202 -0.0057701264 0.009290088 0.018132757 -0.058264483 -0.0075673694 -0.01961425 0.017120576
-0.05121275 0.016337123 0.056564562 0.035144918 -0.07609941 -0.02490509 0.05517565 -0.04544858
-0.019795457 0.024997335 -0.024241881 0.033895336 -0.004715853 0.06876657 -0.035405137 -0.021172356
0.06563776 -0.08436898 -0.015567734 -0.081037425 0.007010349 -0.02832277 -0.03132376 0.004615878
0.027912663 -0.05769154 0.018182907 0.06639926 0.03622945 0.07082997 0.029725024 0.0064831604
0.018939149 0.046533108 0.0014113503 0.043244828 0.039228044 0.01717871 0.059814114 0.0742532
-0.008918934 0.06917419 0.0012745343 0.043756627 -0.07873662 0.025815137 0.055607904 0.02182141
0.04184138 -0.04039648 -0.025255244 0.05835188 -0.08710042 -0.05636151 -0.056333475 -0.044563096
-0.029848587 0.01517188 0.05008899 0.07390673 -0.038110673 0.07656684 -0.048824325 -0.08359564
0.052655682 0.015549762 -0.07726547 -0.025930673 0.015479937 -0.0276846 -0.033794127 0.04100051
0.02884833 -0.07401013 -0.044640556 -0.01752923 0.016702384 -0.05768168 0.07054125 0.039218485
0.057058033 0.07675981 -0.0660891 0.0013369161 -0.080499396 -0.042310685 -0.109043606 -0.018025406
00000000: 3d56 f33d 1b58 e63d a9a1 023e f03b b1bc
00000010: 42de 153c 46b5 653d cf89 c43d 835b 113c
00000020: 293e 0c3d 316d bebd 5b61 553d a050 0c3d
00000030: 1f13 113d bad7 f6bc 4c8a a2bd 54c4 4e3d
00000040: 10fb f73c 5022 1b3c deb8 29bd 3cc9 b8bd
00000050: fd6b babb a767 073d c457 3ebc cc04 ea3c
00000060: d2f2 abbb aecc d53c 3870 3b3d 1423 6d3c
00000070: 0b88 90bd a015 9abd 3e3d e8bc 8239 133d
00000080: 4e42 a93d 7202 a83c 3cec 9bbd 10d9 24bd
00000090: 5172 ef3b 7044 f0bc 9aa1 623d 0ec3 da3b
000000a0: 30af a43c 4da7 d83b 640b f9bc 5f65 ca3c
000000b0: 29bf 1f3c 9466 043c 6d17 71bb 0dea 5a3a
000000c0: 8934 2c3d 7a45 9fbd 259c 07bc bcc3 293d
000000d0: 6f9b 0a3d 32ad 0c3d c7ab 303c e17e 123d
000000e0: 4359 e1bc 31d7 0bbd 85b7 ab3d f0ca ff3b
000000f0: e72a c73d af98 ba3d 7dc6 63bd 0fcb 7b3c
00000100: 49a6 633d f6df 943b e55a e6bc 2579 d13c
00000110: 68f5 5b3d 53fc 013c 2ffb 523d b5c2 553d
00000120: ad2a 283d 62d7 ee3b 4723 ae3c 75a0 1b3d
00000130: 9aab f9bc d298 e73c cb51 023d aaa5 34bc
00000140: d85b 283d f5ac d6bc 3349 253d 4793 e2ba
00000150: 4686 1abd 37c3 1b3d f036 dd3d 54c2 8f3d
00000160: 403f 06bd 7046 91bc 08b1 2ebd 8407 093c
00000170: f670 3cbd 1f55 a73d 064a 4c3d d93b 823d
00000180: 6151 1ebc 3cd4 d03d 5846 973b b40d b43a
00000190: 76fa 4fbb 00a9 87bc 790f 3c3d c220 a53c
000001a0: 827d 80bd 2002 2bbc e677 60bd 001d 4f3d
000001b0: 2db3 2bbd c70b 863d 777a dbbc 4f76 863d
000001c0: 088f 0b3d 59b9 2cbd 67f7 3cbd 0f01 23bc
000001d0: 3e50 dab9 ffa2 0cbd 9dd7 fabb 81f8 bc3d
000001e0: 632c 03bd 4e50 ec3c 87b4 983c 88fe 59bd
000001f0: fb22 f83c f453 2e3d a580 cb3b 2bee 6ebd
00000200: 5378 4cbd c2b0 9cbc 7d55 013d 3ec6 223d
00000210: f6dd 323c f0a0 653b c951 0d3d dcd3 263c
00000220: 6a8f bfbd d6a6 013d edfd c8bc 649f e3bc
00000230: 6f8a 01bd 9461 52bd fa74 b43c b519 a0bd
00000240: dcd3 03bd 7ef8 c9bc 5f57 1ebd 09d1 4cbd
00000250: 0395 c1bd acb6 d3bd 0e13 b1bc 93de 18bc
00000260: dde3 61bd 0a1d 58bd f3a0 843d 8189 2ebd
00000270: 2512 a5bd ce8d 483b 236a 283d 1dc6 ddbc
00000280: 6bca 8ebd 5413 bdbb 7435 183c 268b 943c
00000290: bda6 6ebd b2f7 f7bb 10ae a0bc 7340 8c3c
000002a0: 76c4 51bd 6ed5 853c 3eb0 673d 1ef4 0f3d
000002b0: 02da 9bbd c205 ccbc ddff 613d 4a28 3abd
000002c0: 152a a2bc 36c7 cc3c e996 c6bc d6d5 0a3d
000002d0: 7187 9abb 7dd5 8c3d fa04 11bd a671 adbc
000002e0: 176d 863d a5c9 acbd cf0f 7fbc f3f6 a5bd
000002f0: 12b7 e53b 2705 e8bc 584d 00bd cb40 973b
00000300: 19a9 e43c f74d 6cbd 52f4 943c 56fc 873d
00000310: 5565 143d 4e0f 913d e581 f33c b170 d43b
00000320: 4626 9b3c 8099 3e3d 0ffd b83a 7d21 313d
00000330: 96ad 203d 5eba 8c3c a5ff 743d 1012 983d
00000340: b820 12bc 33ab 8d3d 460e a73a 263a 333d
00000350: aa40 a1bd 447a d33c 1dc5 633d d0c2 b23c
00000360: de61 2b3d c876 25bd 16e4 cebc 6202 6f3d
00000370: b461 b2bd 54db 66bd eebd 66bd cb87 36bd
00000380: 0685 f4bc 7a93 783c 1d2a 4d3d 695c 973d
00000390: f019 1cbd 13cf 9c3d 04fc 47bd 3134 abbd
000003a0: 7cad 573d 6ec4 7e3c 5c3d 9ebd 906c d4bc
000003b0: 909f 7d3c d0ca e2bc b66b 0abd 27f0 273d
000003c0: 5553 ec3c 9f92 97bd 04d9 36bd 7699 8fbc
000003d0: 70d3 883c a043 6cbd ee77 903d 90a3 203d
000003e0: afb5 693d 3f34 9d3d b959 87bd 763b af3a
000003f0: dedc a4bd f84d 2dbd 4152 dfbd 04aa 93bc

cnn.5.bias f4 [32]
-0.030007418 -0.06444856 0.0029866847 0.048277974 -0.09142371 0.08054714 0.014236653 0.011632665
-0.05879427 -0.0633464 0.06849114 0.047832664 0.03143129 -0.0244768 -0.030815847 -0.062629096
-0.050353497 -0.005823652 -0.06403644 -0.02008814 0.00030260524 0.0023676879 0.07627088 -0.029579572
0.070480466 0.07229515 0.06407046 0.0028658195 -0.042047955 -0.0083717 -0.035732407 0.0081725
00000000: 1ed2 f5bc 9bfd 83bd 41bc 433b 20bf 453d
00000010: 5b3c bbbd e6f5 a43d da40 693c ef96 3e3c
00000020: 43d2 70bd c2bb 81bd 1545 8c3d 2fec 433d
00000030: 19be 003d 9283 c8bc 8471 fcbc af43 80bd
00000040: 783f 4ebd 55d4 bebb 8925 83bd e28f a4bc
00000050: fda6 9e39 362b 1b3b e833 9c3d dc50 f2bc
00000060: 1058 903d 7b0f 943d 6037 833d 79d0 3b3b
00000070: 7a3a 2cbd 7429 09bc 255c 12bd f3e5 053c

cnn.6.weight f4 [32]
1.0026906 1.015049 0.99353176 0.9872047 0.98079526 0.9837784 0.98889744 0.9938418
0.9830714 0.98824173 0.991137 0.98679006 0.98891497 0.9946546 0.9823947 0.9903262
0.9846218 0.9788477 0.9981606 0.9928334 0.9788915 0.97496444 0.991962 0.99715966
1.0185797 0.9968629 0.98724824 0.99283993 0.9766172 1.0195397 0.9823025 0.98646754
00000000: 2a58 803f 20ed 813f 1958 7e3f 72b9 7c3f
00000010: 6615 7b3f e7d8 7b3f 6228 7d3f 6b6c 7e3f
00000020: 91aa 7b3f 69fd 7c3f 28bb 7d3f 469e 7c3f
00000030: 8829 7d3f afa1 7e3f 387e 7b3f 0586 7d3f
00000040: 2d10 7c3f c395 7a3f 7487 7f3f 542a 7e3f
00000050: a298 7a3f 4597 793f 39f1 7d3f db45 7f3f
00000060: d260 823f 6832 7f3f 4dbc 7c3f c22a 7e3f
00000070: 9603 7a3f 4780 823f 2d78 7b3f 2389 7c3f

cnn.6.bias f4 [32]
0.0008161345 0.013991417 -0.0104207555 -0.007848592 -0.016157327 -0.018518874 -0.013243134 -0.0032372896
-0.015552706 -0.011991847 -0.0128529575 -0.018841743 -0.012304335 -0.003866152 -0.014746135 -0.008376255
-0.015299125 -0.018359594 0.00018983951 -0.0057723643 -0.015426555 -0.023506358 -0.0029217883 -0.003891059
0.017420497 -0.0038877851 -0.012335459 -0.008000114 -0.029105917 0.008849854 -0.013339688 -0.010174296
00000000: dcf1 553a 423c 653c d1bb 2abc 6197 00bc
00000010: 5f5c 84bc e5b4 97bc bbf9 58bc b528 54bb
00000020: c7d0 7ebc 7479 44bc 3695 52bc 005a 9abc
00000030: 1f98 49bc 445f 7dbb c699 71bc 8f3c 09bc
00000040: 2ea9 7abc dc66 96bc a80f 4739 1a26 bdbb
00000050: a9bf 7cbc 6890 c0bc 797b 3fbb 2301 7fbb
00000060: 6eb5 8e3c 36ca 7ebb aa1a 4abc e912 03bc
00000070: 886f eebc fafe 103c b58e 5abc 17b2 26bc

cnn.6.running_mean f4 [32]
0.7081452 -0.677226 0.20228437 -0.7229215 -0.9744365 -0.9342962 -0.73865306 -0.49199927
-0.67791945 -0.108062044 -0.3868198 0.5937556 0.4001663 -1.1026499 -0.6232512 0.17984626
-1.2075703 0.26914176 -0.04984928 -0.93185437 -0.7030912 -0.32585284 -0.22059634 0.61080974
0.7208234 -0.3961607 -1.1361394 0.19974147 -0.100857325 0.4007013 -0.12092074 0.46892163
00000000: 0149 353f af5e 2dbf a223 4f3e 6211 39bf
00000010: ac74 79bf 092e 6fbf 5e18 3dbf 54e7 fbbe
00000020: 218c 2dbf a24f ddbd 3f0d c6be 5e00 183f
00000030: 99e2 cc3e a223 8dbf 648d 1fbf 9e29 383e
00000040: aa91 9abf f3cc 893e c22e 4cbd 028e 6ebf
00000050: c9fd 33bf 2fd6 a6be 02e4 61be 075e 1c3f
00000060: e287 383f 93d5 cabe 046d 91bf 0789 4c3e
00000070: 498e cebd b928 cd3e 4ba5 f7bd 7f16 f03e

cnn.6.running_var f4 [32]
0.5301507 0.283022 0.50017184 0.88956195 0.30893835 1.6373961 0.4991597 1.2072123
1.5211675 1.3218627 1.1153561 0.45450115 0.77220124 1.16966 0.72355676 0.99384445
1.8329492 0.668423 0.36398533 1.4246892 2.044752 1.175606 1.4949912 0.26683614
0.36070085 0.652113 1.2439585 0.74338347 0.68440473 0.5345894 0.82079977 0.40455803
00000000: f5b7 073f 42e8 903e 430b 003f 55ba 633f
00000010: 2b2d 9e3e 3296 d13f dc91 ff3e ef85 9a3f
00000020: 9eb5 c23f cc32 a93f fdc3 8e3f 60b4 e83e
00000030: fbae 453f 6bb7 953f 043b 393f 976c 7e3f
00000040: 149e ea3f c51d 2b3f 495c ba3e 375c b63f
00000050: 37dd 0240 427a 963f df5b bf3f bf9e 883e
00000060: c8ad b83e e1f0 263f 083a 9f3f 614e 3e3f
00000070: 2635 2f3f dada 083f ef1f 523f 3b22 cf3e

lstm.weight_ih_l0 f4 [256, 32]
0.015498194 -0.102151014 -0.07331194 0.08783639 -0.094287746 -0.051226087 -0.062006813 0.07558298
0.0074712536 -0.14704327 -0.13753255 -0.063704215 -0.05518785 -0.053286042 0.019770868 -0.037718892
0.050882664 0.0058456734 -0.03611443 0.014759622 -0.15658991 -0.110521 -0.08864824 0.036675587
-0.1101058 0.016812176 -0.096232966 -0.05352447 -0.04749182 -0.10239796 0.03184521 0.08156127
-0.012692117 -0.13020886 0.100332424 0.017583586 -0.027332343 -0.0985851 0.06679486 -0.050876956
-0.124219574 -0.06394537 0.10919041 0.10207109 0.084449105 0.07112647 -0.076319635 -0.011261301
0.044827376 -0.05890826 -0.006134231 0.034216724 0.06082229 -0.016484313 -0.08520235 -0.07099767
-0.09721482 0.022741674 -0.11467508 0.05993927 0.05301985 -0.09748626 -0.0482494 0.02713162
-0.098897785 -0.061489873 0.05248233 0.022902688 0.049327664 -0.12292938 -0.007692278 0.026830714
0.09531123 -0.104352415 -0.07064724 -0.09902644 0.08904426 0.098099604 0.09069196 -0.035845496
-0.06275226 0.015206835 0.045865227 0.00091944 -0.052057143 0.10498221 -0.035447083 0.047758847
-0.124406375 0.053201523 -0.122033484 -0.021427643 -0.023981579 0.122261375 0.07373692 -0.026935093
-0.052166875 0.0361074 -0.063516624 0.11711353 -0.10497919 -0.087589525 -0.11504755 0.10288571
-0.0010148692 0.08503963 -0.0086788405 0.10840939 -0.02729624 0.08545869 0.0150040295 0.08326836
0.039755132 -0.0938296 -0.052387085 0.08321304 0.027455768 0.03041735 0.035559006 -0.065838225
0.027850162 -0.029111974 0.00042549614 -0.08287234 0.030185752 -0.05350573 -0.11334575 -0.04506083
0.035456147 0.03947995 -0.03790863 -0.111326456 0.08009431 -0.016270459 0.1126984 0.10241804
-0.016105996 0.0839951 0.07928745 -0.13343057 0.007454472 0.10143867 -0.019780893 -0.06112824
-0.015269351 0.100273 0.043945156 0.01094164 -0.052478068 0.013531938 -0.021232244 -0.11221833
0.024380313 0.09958858 0.031946406 0.043039072 -0.10466525 0.058948085 0.08823541 0.03920165
-0.035096847 -0.14173847 0.08363161 -0.010188885 -0.036638163 0.091919646 -0.04863333 0.0013943127
-0.10877725 -0.024512505 0.06337382 -0.08608843 -0.11280682 0.038990024 -0.11722084 0.097113416
-0.044365123 -0.051915996 -0.013660005 0.06500599 -0.073665954 0.017421262 0.08839231 0.044802975
-0.040829357 -0.089058645 0.031245228 0.071244575 -0.046758678 0.013744901 -0.036880292 -0.14021008
-0.10372477 0.034453917 -0.11341022 -0.03463127 -0.116857685 -0.007869026 -0.025129799 0.0754486
-0.06364944 0.03117636 0.099276066 0.108972035 0.10447376 -0.07702681 -0.023225304 0.04546237
-0.09565194 0.05071597 -0.1010826 0.04799331 0.07016249 0.06884823 -0.13187543 0.0038330667
-0.046195913 0.008130875 0.057830617 -0.0052625076 0.007872 -0.15143359 -0.06367673 0.08233776
0.042019095 -0.025561117 0.047406137 -0.08837568 0.042643078 -0.016303098 -0.100022614 -0.021873228
-0.11569289 -0.09862604 0.061894115 0.10111342 0.075611055 0.043816667 -0.12597981 0.12232246
0.041707695 -0.070281126 -0.055475157 0.04609643 -0.07960542 0.09072141 0.09042015 0.11930933
0.020282194 0.105511025 -0.017847175 0.10866666 0.09855025 0.04811847 -0.010558303 -0.028207377
00000000: 23ec 7d3c 8d34 d1bd 9224 96bd 91e3 b33d
00000010: ef19 c1bd 72d2 51bd dbfa 7dbd 40cb 9a3d
00000020: 6bd1 f43b 8392 16be 55d5 0cbe 5b77 82bd
00000030: a80c 62bd 7742 5abd 84f6 a13c 207f 1abd
00000040: 576a 503d 108d bf3b b9ec 13bd 57d2 713c
00000050: 1b59 20be d658 e2bd 358d b5bd 2439 163d
00000060: 267f e1bd b0b9 893c ca15 c5bd 7a3c 5bbd
00000070: c886 42bd 06b6 d1bd 1f70 023d 9809 a73d
00000080: 99f2 4fbc 7955 05be 167b cd3d 740b 903c
00000090: 14e8 dfbc fce6 c9bd becb 883d 5b64 50bd
000000a0: d566 febd caf5 82bd 399f df3d a60a d13d
000000b0: a7f3 ac3d c1aa 913d 784d 9cbd 5281 38bc
000000c0: e99c 373d ca49 71bd a901 c9bb d626 0c3d
000000d0: cb20 793d 1c0a 87bc 927e aebd 3a67 91bd
000000e0: 9018 c7bd bf4c ba3c c5da eabd e182 753d
000000f0: 582b 593d e0a6 c7bd 2aa1 45bd 2243 de3c
00000100: ec8a cabd cedc 7bbd b6f7 563d 6b9e bb3c
00000110: ce0b 4a3d 66c2 fbbd 810f fcbb 16cc db3c
00000120: 8932 c33d b8b6 d5bd 80af 90bd 60ce cabd
00000130: d65c b63d 72e8 c83d b5bc b93d bad2 12bd
00000140: 4284 80bd 1726 793c 2ddd 3b3d 9306 713a
00000150: df39 55bd ea00 d73d f630 11bd c89e 433d
00000160: c5c8 febd d7e9 593d b1ec f9bd 0689 afbc
00000170: 0475 c4bc 2c64 fa3d 6203 973d fca6 dcbc
00000180: efac 55bd 5ae5 133d 0115 82bd 38d9 ef3d
00000190: 54ff d6bd 2362 b3bd 0d9e ebbd beb5 d23d
000001a0: 5c05 85ba 4229 ae3d b231 0ebc be05 de3d
000001b0: 5d9c dfbc f704 af3d 76d3 753c 9a88 aa3d
000001c0: 47d6 223d bc29 c0bd d793 56bd 996b aa3d
000001d0: ebea e03c ce2d f93c 52a6 113d 31d6 86bd
000001e0: 0626 e43c 3c7c eebc 2015 df39 f9b8 a9bd
000001f0: 1c48 f73c d328 5bbd d121 e8bd b491 38bd
00000200: 773a 113d bab5 213d 1446 1bbd 20ff e3bd
00000210: 7c08 a43d a049 85bc 6bce e63d 8dc0 d13d
00000220: b9f0 83bc 9f05 ac3d 7561 a23d 06a2 08be
00000230: a544 f43b 14bf cf3d 8a0b a2bc 9b61 7abd
00000240: 4d2c 7abc ee5b cd3d d6ff 333d 9044 333c
00000250: 3ef3 56bd 10b5 5d3c 3eef adbc b9d2 e5bd
00000260: 39b9 c73c 19f5 cb3d 3cda 023d bd49 303d
00000270: bc5a d6bd 8c73 713d c4b4 b43d e991 203d
00000280: b6c1 0fbd e423 11be 0d47 ab3d 48ef 26bc
00000290: e611 16bd 5e40 bc3d be33 47bd 5fc1 b63a
000002a0: 9bc6 debd 73ce c8bc 22ca 813d 214f b0bd
000002b0: 4307 e7bd 01b4 1f3d 7b11 f0bd 66e3 c63d
000002c0: 34b8 35bd dea5 54bd 37ce 5fbc dc21 853d
000002d0: 2dde 96bd 09b7 8e3c 0707 b53d 5383 373d
000002e0: af3c 27bd 6164 b6bd fef5 ff3c ade8 913d
000002f0: 0786 3fbd 4b32 613c ca0f 17bd 3b93 0fbe
00000300: a76d d4bd 8d1f 0d3d 9e43 e8bd 85d9 0dbd
00000310: 1553 efbd 16ed 00bc 02dd cdbc cc84 9a3d
00000320: a35a 82bd 9165 ff3c 4051 cb3d bb2c df3d
00000330: 57f6 d53d 3bc0 9dbd fe42 bebc c036 3a3d
00000340: 2ae5 c3bd 8dbb 4f3d 6504 cfbd a294 443d
00000350: 5ab1 8f3d 4d00 8d3d 5a0a 07be 3034 7b3b
00000360: ed37 3dbd 5d37 053c ccdf 6c3d 1d71 acbb
00000370: 90f9 003c 6811 1bbe f268 82bd b3a0 a83d
00000380: 371c 2c3d 8c65 d1bc f02c 423d 4ffe b4bd
00000390: 82aa 2e3d 138e 85bc a8d8 ccbd 7c2f b3bc
000003a0: 65f0 ecbd 73fc c9bd af84 7d3d 8e14 cf3d
000003b0: f8d9 9a3d 1b79 333d da00 01be 3384 fa3d
000003c0: b0d5 2a3d 8def 8fbd eb39 63bd 9ccf 3c3d
000003d0: 2b08 a3bd 26cc b93d 332e b93d 7358 f43d
000003e0: d826 a63c 2a16 d83d 3d34 92bc a08c de3d
000003f0: b7d4 c93d df17 453d bcfc 2cbc 2813 e7bc

lstm.weight_hh_l0 f4 [256, 64]
-0.099393964 -0.03280958 0.12446045 -0.11450077 -0.059743788 -0.032840304 -0.034555953 0.042598106
-0.00984209 -0.10201396 0.012759872 -0.029689303 0.14315693 -0.027223669 -0.08045971 0.13827895
-0.109219246 -0.022604316 -0.0072108386 0.061380718 -0.06165179 0.118254885 0.019979104 0.01459681
-0.08104487 0.03262151 0.0120647205 -0.037274014 -0.015649462 -0.019771166 -0.09620499 0.1088948
-0.07263354 -0.038863197 -0.08069566 0.102557994 0.1013556 0.09545302 0.05518306 0.10471606
0.040686093 0.051897213 -0.05800145 -0.05901103 0.054574315 0.043165814 0.09422725 0.14794867
0.08785833 0.024426559 -0.10165839 -0.1318287 -0.009274822 0.025661625 -0.06811146 -0.03293746
-0.013024325 -0.12996915 0.10740952 -0.082720034 -0.077723846 -0.124216355 -0.0758064 -0.09057762
0.019173235 -0.044524018 0.08279169 -0.06476311 0.10883378 -0.09543757 -0.07751702 0.08748671
-0.008961549 0.07251412 0.098451786 0.0067948466 0.00914558 0.025552249 -0.042526074 0.043392435
0.010898792 0.016084442 0.11334104 0.025734683 -0.10578091 -0.098427124 0.06735388 0.03378786
-0.044374112 0.08664369 -0.11311115 -0.011770879 0.05538867 0.07788749 0.07357986 -0.12809226
-0.043009188 0.11033716 -0.068478204 0.015952038 0.083840504 -0.068238534 0.0932272 -0.061845396
0.08496504 0.114750884 -8.175954e-05 0.030897196 -0.10164989 -0.06175093 0.063945524 0.103704825
-0.07863651 0.00347502 -0.12165545 -0.10199479 0.086391844 0.07044842 -0.080225505 0.00594991
-0.015686743 0.06695967 0.12859026 -0.011538793 -0.021854412 0.088119335 -0.11831493 0.031459536
-0.10700474 -0.030523779 -0.027694607 -0.017400924 -0.048415225 0.070239164 0.09069753 0.061073218
0.098683216 0.09948739 -0.09453774 0.043149315 0.09665258 -0.052306704 -0.13084403 -0.10912707
0.12939847 -0.0540723 -0.057590496 -0.14015992 -0.043238718 0.05490574 -0.012955907 -0.036396746
-0.070777185 0.09831052 0.04048825 -0.039380673 -0.07778943 0.05117436 0.040131267 0.06891001
-0.051233478 0.025346965 -0.12898238 0.07403401 -0.08291416 0.03926677 -0.04578204 -0.12947786
0.048614003 0.09992862 0.078606516 0.009530513 0.055760313 0.027046248 -0.091350734 -0.04923418
0.050027713 0.06383306 -0.088630244 -0.06298161 -0.079616845 0.060310274 -0.03154712 -0.023610767
-0.10235936 -0.11772666 0.086134344 0.08354714 0.11255147 -0.05642348 -0.099060126 0.09623104
0.026297227 -0.011637174 -0.005344063 0.075775735 0.12643945 0.09849883 -0.0039227433 0.039459005
-0.0995998 -0.09656618 -0.06854097 0.113316886 0.07153066 0.106280275 0.10758465 -0.078726105
0.10791262 0.0049651647 0.11736397 0.023658546 0.044898625 0.06425383 0.012183145 -0.09166853
0.09169361 -0.08513746 -0.046127796 0.08529292 -0.014687643 0.02181435 0.0016403428 0.10992749
-0.09304926 -0.016283229 0.07700685 0.08146794 0.01057738 0.0052807005 0.07712556 -0.052309085
-0.04534171 -0.10241062 -0.035171896 0.016050927 0.057949487 -0.0579068 -0.091246106 0.04491197
-0.055533804 0.048505608 0.11732691 -0.06764241 -0.032389488 -0.11288188 -0.08641927 -0.09058462
0.11680259 -0.02305477 0.073991045 -0.07460664 0.035062283 -0.017856611 0.08961285 -0.02294833
00000000: 108f cbbd 5763 06bd 1fe5 fe3d 617f eabd
00000010: e7b5 74bd 8e83 06bd 8b8a 0dbd 5a7b 2e3d
00000020: b840 21bc b2ec d0bd c80e 513c fb36 f3bc
00000030: bb97 123e 2c04 dfbc 0fc8 a4bd ff98 0d3e
00000040: 57ae dfbd b02c b9bc e648 ecbb 596a 7b3d
00000050: 9686 7cbd 9e2f f23d 38ab a33c 7527 6f3c
00000060: dafa a5bd 229e 053d 1bab 453c a3ac 18bd
00000070: 4d33 80bc 24f7 a1bc 1f07 c5bd 3d04 df3d
00000080: e5c0 94bd 042f 1fbd c443 a5bd ed09 d23d
00000090: 8693 cf3d df7c c33d a207 623d 6075 d63d
000000a0: 76a6 263d 2c92 543d ee92 6dbd 8db5 71bd
000000b0: 5189 5f3d a3ce 303d 37fa c03d db7f 173e
000000c0: 11ef b33d 351a c83c 4632 d0bd 1afe 06be
000000d0: 6cf5 17bc 5438 d23c 057e 8bbd 6ee9 06bd
000000e0: fa63 55bc a216 05be 86f9 db3d 1f69 a9bd
000000f0: ae2d 9fbd 2565 febd 6340 9bbd c280 b9bd
00000100: 3011 9d3c d15e 36bd b18e a93d 85a2 84bd
00000110: 3fe4 de3d c674 c3bd 3ec1 9ebd 3b2c b33d
00000120: 76d3 12bc 4882 943d 17a1 c93d 4ea7 de3b
00000130: 58d7 153c f352 d13c d22f 2ebd 44bc 313d
00000140: d990 323c 85c3 833c 591f e83d 8bd1 d23c
00000150: a9a3 d8bd 2994 c9bd d5f0 893d 2465 0a3d
00000160: a1c1 35bd 3f72 b13d d2a6 e7bd a5da 40bc
00000170: 3bdf 623d 7a83 9f3d 0ab1 963d 9e2a 03be
00000180: 672a 30bd 73f8 e13d 4d3e 8cbd d9ad 823c
00000190: 92b4 ab3d a5c0 8bbd e7ed be3d 9951 7dbd
000001a0: 2702 ae3d 8302 eb3d 5276 abb8 1e1c fd3c
000001b0: d12d d0bd 8bee 7cbd dff5 823d 3263 d43d
000001c0: 2e0c a1bd 29bd 633b 7e26 f9bd a5e2 d0bd
000001d0: 35ee b03d 4347 903d 454d a4bd 76f7 c23b
000001e0: 7c81 80bc 2722 893d 2aad 033e 350d 3dbc
000001f0: 0608 b3bc e977 b43d 194f f2bd b7db 003d
00000200: 4d25 dbbd 010d fabc cddf e2bc 628c 8ebc
00000210: 0b4f 46bd 8dd9 8f3d a0bf b93d e927 7a3d
00000220: 6d1a ca3d 0bc0 cb3d 019d c1bd 56bd 303d
00000230: caf1 c53d 8e3f 56bd fafb 05be 037e dfbd
00000240: 0881 043e eb7a 5dbd 03e4 6bbd 1586 0fbe
00000250: 151b 31bd d7e4 603d 0345 54bc c114 15bd
00000260: a1f3 90bd 0757 c93d 02d7 253d a14d 21bd
00000270: 1150 9fbd 359c 513d af60 243d b120 8d3d
00000280: 32da 51bd 70a4 cf3c f513 04be 259f 973d
00000290: e6ce a9bd 31d6 203d f385 3bbd d895 04be
000002a0: 7a1f 473d 60a7 cc3d 74fc a03d de25 1c3c
000002b0: ed64 643d 1890 dd3c 1816 bbbd c8a9 49bd
000002c0: dce9 4c3d e8ba 823d c683 b5bd 81fc 80bd
000002d0: 280e a3bd e807 773d 8e37 01bd 5e6b c1bc
000002e0: c9a1 d1bd ad1a f1bd 3467 b03d c31a ab3d
000002f0: 6381 e63d 4f1c 67bd 09e0 cabd c814 c53d
00000300: 486d d73c d8a9 3ebc 401d afbb 4f30 9b3d
00000310: 5879 013e c1b9 c93d 5b8a 80bb c49f 213d
00000320: fbfa cbbd 7dc4 c5bd 355f 8cbd af12 e83d
00000330: ab7e 923d 79a9 d93d 5755 dc3d 273b a1bd
00000340: 4b01 dd3d d2b2 a23b 855c f03d 91cf c13c
00000350: 9fe7 373d 8397 833d d09b 473c b6bc bbbd
00000360: dcc9 bb3d 8c5c aebd 80f0 3cbd 0eae ae3d
00000370: 71a4 70bc 02b4 b23c c500 d73a aa21 e13d
00000380: 9c90 bebd 6864 85bc c4b5 9d3d aad8 a63d
00000390: bf4c 2d3c ba09 ad3b 01f4 9d3d 0d42 56bd
000003a0: 3bb8 39bd a9bc d1bd 6810 10bd 3c7d 833c
000003b0: 715c 6d3d ae2f 6dbd 3ddf babd 9df5 373d
000003c0: 6a77 63bd d1ad 463d 1749 f03d 1b88 8abd
000003d0: d7aa 04bd 9d2e e7bd 96fc b0bd 6e84 b9bd
000003e0: 3236 ef3d 5bdd bcbc 9e88 973d 5ecb 98bd
000003f0: 789d 0f3d 0748 92bc f186 b73d 23fe bbbc

lstm.bias_ih_l0 f4 [256]
-0.10287611 0.032376483 -0.06301598 -0.08390593 0.06896118 -0.11772164 -0.11775951 0.09540227
0.07169869 -0.10093815 0.016102465 0.081900775 -0.0451912 0.09002924 0.053738452 0.010200179
-0.03690903 0.091006406 -0.13635466 0.030246234 0.063951634 0.059631802 0.06418668 0.06763357
0.0027259965 0.08832658 0.014943453 0.07632701 0.057198517 -0.13529958 -0.08386255 -0.0066822777
0.04452468 -0.059330095 0.04639925 -0.007470442 0.024989272 -0.06250363 -0.115544915 -0.07196352
0.07629878 0.039017133 0.0840556 0.0015315734 0.005303384 -0.08527439 0.074221194 -0.09338945
-0.055021215 0.09154008 0.004620246 -0.040196575 0.021842206 0.07282044 0.017172435 0.020095397
0.09228236 -0.03697573 0.09874787 -0.07451612 -0.08151438 -0.0679401 -0.13606834 0.04545842
0.071816675 -0.13594116 -0.00443008 -0.0152407875 -0.11939829 -0.0825316 -0.0057186736 0.07149042
-0.05906239 -0.13022579 -0.052771177 -0.110046454 -0.13348135 -0.011753665 0.06690323 -0.029460112
-0.10538001 -0.0700739 -0.07588494 -0.0044953097 -0.081647135 -0.13937356 0.070309155 0.06323501
0.023226626 -0.004081216 -0.02594443 -0.036331806 -0.04830771 -0.10501288 0.014377751 0.052093353
-0.060909025 -0.023309626 0.12558597 0.08575589 0.08080742 0.093714334 -0.067700095 -0.015779635
-0.052975416 0.011728975 0.093564354 -0.00075878465 0.012774757 0.07693867 -0.045780137 0.107061595
0.09626902 -0.022021832 0.052154873 -0.045760937 0.05748138 -0.07061371 -0.12027209 0.09700502
-0.085242674 -0.06457942 0.025433233 -0.0609522 0.08299609 -0.10798502 -0.035902444 -0.046682097
0.037422568 0.06666772 -0.061256066 0.06935966 -0.060125515 -0.04823768 -0.07118916 0.032812946
-0.07697087 -0.00073216105 0.08284793 -0.10623293 -0.091490395 -0.07428266 0.077378325 0.019004203
-0.073010884 0.053442203 0.09408571 0.06860155 0.11311991 -0.09526478 0.09819888 -0.009822526
0.06519884 -0.05408497 -0.004846717 -0.041018073 -0.07830372 -0.117615655 -0.08910084 -0.038868614
-0.07095428 0.12093737 0.06625158 -0.11562292 -0.035539545 0.09738951 -0.029997867 -0.07843847
0.02735391 -0.013276981 -0.115085274 -0.08505914 0.10609295 0.0844008 0.06361452 0.12029625
0.11665257 0.09244806 0.023061126 0.05159084 0.004298139 0.013120899 0.083943725 0.05694823
-0.018489424 0.060330838 0.0039186236 -0.080433704 -0.052934267 -0.023679053 0.040113505 -0.05531552
-0.076783605 -0.06286206 0.060800154 0.022458179 -0.12579776 -0.014048118 -0.11890218 -0.11336959
0.072223604 -0.050929185 -0.016830355 -0.011102132 -0.09080883 0.097059324 -0.06579618 -0.0050842343
0.058429696 0.120604396 0.10196827 0.00938297 0.0017079259 -0.06292147 -0.064111225 -0.07222518
-0.045707956 -0.11759558 -0.0077650542 0.120095834 -0.117049664 0.070447356 0.065012276 0.07921128
0.0554349 -0.0033206018 0.118334875 0.09133013 0.022436202 0.12080233 0.009668192 -0.13357913
-0.106878 0.077200964 -0.13025829 -0.102348246 -0.12113526 -0.13937211 -0.10321978 0.018859588
0.042276405 -0.14907333 -0.03254051 0.09973107 -0.01885546 -0.06611707 0.012527912 -0.087007955
-0.025122916 -0.06599418 0.0061307778 -0.063957006 0.084615976 -0.100303225 -0.11382972 -0.056426726
00000000: b6b0 d2bd 349d 043d 860e 81bd dfd6 abbd
00000010: 853b 8d3d 0b18 f1bd e62b f1bd 4462 c33d
00000020: c3d6 923d a9b8 cebd 51e9 833c 98bb a73d
00000030: 681a 39bd 4061 b83d da1c 5c3d a71e 273c
00000040: ec2d 17bd 9161 ba3d 8ea0 0bbe f3c6 f73c
00000050: 13f9 823d 7a40 743d 4e74 833d 7883 8a3d
00000060: a2a6 323b 91e4 b43d 62d5 743c 5651 9c3d
00000070: fe48 6a3d f98b 0abe 21c0 abbd 02f7 dabb
00000080: 835f 363d 1d04 73bd 240d 3e3d 9cca f4bb
00000090: 4db6 cc3c e701 80bd d0a2 ecbd 9c61 93bd
000000a0: 8942 9c3d 6ed0 1f3d 5825 ac3d 13bf c83a
000000b0: 02c8 ad3b 57a4 aebd 4801 983d f842 bfbd
000000c0: ed5d 61bd 5e79 bb3d 6f65 973b 2aa5 24bd
000000d0: 6dee b23c e222 953d 35ad 8c3c 1a9f a43c
000000e0: 89fe bc3d dd73 17bd 533c ca3d e89b 98bd
000000f0: 03f1 a6bd 2e24 8bbd 8055 0bbe 9c32 3a3d
00000100: 9f14 933d 2934 0bbe 342a 91bb 7fb4 79bc
00000110: 1787 f4bd 5406 a9bd b663 bbbb 9269 923d
00000120: 68eb 71bd e959 05be 9726 58bd 0960 e1bd
00000130: 56af 08be 7292 40bc 9004 893d 5556 f1bc
00000140: 7ad1 d7bd e882 8fbd 9069 9bbd 644d 93bb
00000150: 9d36 a7bd f1b7 0ebe 3ffe 8f3d 5b81 813d
00000160: c445 be3c b9bb 85bb 6a89 d4bc a9d0 14bd
00000170: 4ede 45bd fe10 d7bd a990 6b3c d75f 553d
00000180: be7b 79bd d4f3 bebc 9c99 003e c9a0 af3d
00000190: 5c7e a53d 4ded bf3d 59a6 8abd 4b44 81bc
000001a0: c0fc 58bd e32a 403c ab9e bf3d 2de9 46ba
000001b0: 374d 513c 0592 9d3d f483 3bbd 1c43 db3d
000001c0: b128 c53d 2167 b4bc 59a0 553d d26f 3bbd
000001d0: 9871 6b3d ec9d 90bd 3751 f6bd 91aa c63d
000001e0: b693 aebd 3742 84bd 5b59 d03c 04a9 79bd
000001f0: dbf9 a93d 4027 ddbd 710e 13bd ba35 3fbd
00000200: 6848 193d 1689 883d a4e7 7abd 700c 8e3d
00000210: 2c46 76bd e094 45bd 9fcb 91bd de66 063d
00000220: e7a2 9dbd 7fee 3fba 2dac a93d a790 d9bd
00000230: 515f bbbd 8221 98bd 8778 9e3d b4ae 9b3c
00000240: bb86 95bd 36e6 5a3d 02b0 c03d f87e 8c3d
00000250: 69ab e73d 2e1a c3bd 7f1c c93d a9ee 20bc
00000260: f886 853d 3488 5dbd 36d1 9ebb 9102 28bd
00000270: b35d a0bd 7ae0 f0bd 807a b6bd b234 1fbd
00000280: 7a50 91bd 03ae f73d e9ae 873d b6cb ecbd
00000290: ea91 11bd 2774 c73d 16be f5bc 59a4 a0bd
000002a0: 4f15 e03c b287 59bc d4b1 ebbd 7d33 aebd
000002b0: 4347 d93d 54da ac3d 5448 823d e15d f63d
000002c0: 8be7 ee3d 6955 bd3d b0ea bc3c eb50 533d
000002d0: 67d7 8c3b 0af9 563c b0ea ab3d 8c42 693d
000002e0: 2277 97bc 781d 773d cc67 803b 6dba a4bd
000002f0: 9ad1 58bd 93fa c1bc 0f4e 243d 8792 62bd
00000300: b940 9dbd d3bd 80bd 9509 793d 37fa b73c
00000310: 21d1 00be 142a 66bc fc82 f3bd 512e e8bd
00000320: f8e9 933d 1f9b 50bd d0df 89bc b7e5 35bc
00000330: fbf9 b9bd 0ac7 c63d 26c0 86bd a699 a6bb
00000340: fa53 6f3d 70ff f63d bed4 d03d 07bb 193c
00000350: 7cdc df3a f9dc 80bd bf4c 83bd ccea 93bd
00000360: 4438 3bbd f4d5 f0bd ff71 febb cef4 f53d
00000370: bcb7 efbd b446 903d 2825 853d 8639 a23d
00000380: b50f 633d 749e 59bb 8e59 f23d 4b0b bb3d
00000390: 20cc b73c 3667 f73d 5667 1e3c f8c8 08be
000003a0: dae2 dabd 8a1b 9e3d 6e62 05be f59b d1bd
000003b0: c315 f8bd 90b7 0ebe e464 d3bd 6c7f 9a3c
000003c0: 062a 2d3d aea6 18be 3349 05bd ce3f cc3d
000003d0: c476 9abc 6368 87bd df41 4d3c 3a31 b2bd
000003e0: 93ce cdbc f527 87bd b1e4 c83b e4fb 82bd
000003f0: 244b ad3d c76b cdbd 8e1f e9bd b61f 67bd

lstm.bias_hh_l0 f4 [256]
0.06290522 -0.075851314 -0.012110292 -0.028779278 -0.06346977 -0.045313872 -0.08677685 -0.05336854
0.029226614 0.028987927 -0.12168759 -0.0010841071 0.08254253 -0.0010182014 0.11399831 0.12545966
-0.0466638 -0.03351419 -0.1019669 -0.014275057 0.030192904 0.07108543 0.11307776 0.13288459
0.007982468 0.03974773 -0.07747936 -0.052201632 -0.123807706 -0.014413709 0.03228665 -0.07566753
-0.028329385 0.072273485 0.12356703 -0.12693572 -0.021083249 -0.11693798 -0.011504683 0.11051664
0.02481429 0.10490921 0.023093557 -0.0072984947 -0.10322904 -0.014160402 -0.02797118 -0.12108229
-0.034428358 -0.06373231 -0.086170845 0.11032333 0.06129589 -0.0993734 0.038392797 0.059967842
-0.06642417 -0.023346405 0.0012332993 0.10409008 -0.101724975 -0.047692146 -0.005746944 0.0008317365
-0.10859471 -0.116361044 -0.07529106 -0.120403975 -0.11744977 0.028813254 -0.07645374 0.05632487
-0.059629157 -0.05064905 0.043556694 0.021204898 0.07291467 0.05130451 0.109325215 -0.0033196567
0.04223274 0.108817525 0.092756726 0.011747863 -0.023266189 -0.034172464 0.03376133 0.04645789
-0.10446079 -0.11932693 -0.14231212 -0.08882099 0.09663136 -0.11534935 -0.06705135 -0.0863494
-0.07682883 -0.083222196 -0.015005355 -0.04636489 0.101753354 0.100435354 -0.036658794 -0.030070202
-0.0305205 0.009827109 -0.0163441 -0.012502479 -0.043903507 0.0017392194 -0.080791056 0.06411333
0.058890153 -0.040298313 -0.08374304 -0.08349212 -0.056096017 0.02982202 0.103644736 -0.11793845
0.04760673 -0.044208925 -0.03838881 0.05552584 -0.11389839 0.025853384 -0.14089797 -0.05729609
0.020609323 -0.030273676 0.04676617 0.10618341 0.04958666 0.124358095 -0.10861955 0.052451864
0.067019396 -0.006844161 0.08451118 0.03553645 0.027690738 0.08061384 -0.02938513 -0.057049993
0.020407416 0.015938606 -0.119521655 0.07254791 0.04124588 0.07141116 -0.0724969 0.08309318
0.058962226 -0.05724846 -0.031437233 0.10367947 0.016111858 0.057405975 0.04916434 0.099363655
-0.10604735 0.015103251 0.031147344 0.094897866 0.029156687 -0.11266365 -0.123485595 0.086043335
0.056555953 0.06812662 0.07186109 -0.053908896 0.09967219 -0.08000812 0.12645938 -0.07045826
0.11629733 0.08438823 0.08179252 0.06341289 0.07267461 -0.12193179 0.10739426 -0.023034006
0.018514585 0.09380483 -0.023759482 -0.048453394 0.032275524 0.10479862 0.008375511 -0.042304847
0.0017368539 0.020305153 0.057477977 -0.022177858 -0.018613817 -0.13122892 -0.025053702 0.026822558
0.042073835 -0.08549609 -0.02938379 -0.05531486 -0.08647085 0.07028501 0.012460204 -0.10445429
0.0070173885 0.09633696 -0.089643866 0.051587522 -0.057834193 0.10526428 0.09131217 -0.07805753
-0.12292016 0.028226295 -0.081744224 -0.0049978243 -0.0057550804 -0.013447797 -0.12940526 -0.01260315
-0.0018078418 0.099599995 0.016440779 -0.018906688 0.08030968 -0.096367635 0.07062754 -0.122173965
0.08958416 -0.04306795 0.028628873 -0.06822532 0.04556105 -0.08504024 0.054327194 -0.12937425
-0.0078110946 -0.11255172 0.042637616 -0.03492218 0.106540106 -0.029401196 -0.041009475 0.020093946
-0.102261364 0.060603235 -0.1129294 0.02969409 0.118217185 -0.13526288 -0.14496325 -0.05711981
00000000: 74d4 803d ef57 9bbd 3f6a 46bc 85c2 ebbc
00000010: 70fc 81bd 0a9b 39bd 10b8 b1bd f898 5abd
00000020: a76c ef3c 1778 ed3c 5837 f9bd 9918 8eba
00000030: 0f0c a93d 2b75 85ba f277 e93d 7f78 003e
00000040: 8a22 3fbd 2d46 09bd 06d4 d0bd eee1 69bc
00000050: 1c57 f73c 3d95 913d 5095 e73d e612 083e
00000060: e6c8 023c 84ce 223d 80ad 9ebd 61d1 55bd
00000070: e58e fdbd 7a27 6cbc 023f 043d 94f7 9abd
00000080: 0713 e8bc 1f04 943d b610 fd3d 70fb 01be
00000090: c7b6 acbc 2e7d efbd 237e 3cbc 8c56 e23d
000000a0: 5747 cb3c a4da d63d b32e bd3c 3628 efbb
000000b0: bf69 d3bd 0801 68bc d123 e5bc fef9 f7bd
000000c0: c004 0dbd 1686 82bd 577a b0bd 33f1 e13d
000000d0: 6611 7b3d 4884 cbbd c441 1d3d d7a0 753d
000000e0: 6509 88bd f640 bfbc a8a6 a13a 2e2d d53d
000000f0: 2f55 d0bd d758 43bd dc50 bcbb e408 5a3a
00000100: e766 debd b34e eebd 3332 9abd 5c96 f6bd
00000110: 8189 f0bd c609 ec3c c793 9cbd e8b4 663d
00000120: b43d 74bd 6175 4fbd 8168 323d e5b5 ad3c
00000130: 4954 953d ae24 523d e6e5 df3d 998e 59bb
00000140: 3dfc 2c3d b9db de3d 3df7 bd3d 1c7a 403c
00000150: bc98 bebc 6df8 0bbd 5249 0a3d a14a 3e3d
00000160: 8aef d5bd ad61 f4bd 45ba 11be c7e7 b5bd
00000170: aae6 c53d 483c ecbd 3852 89bd f4d7 b0bd
00000180: 6f58 9dbd 6670 aabd 05d9 75bc 1ce9 3dbd
00000190: 1064 d03d 0db1 cd3d 8827 16bd c955 f6bc
000001a0: 2106 fabc e201 213c 10e4 85bc 33d7 4cbc
000001b0: 2ad4 33bd 85f6 e33a c875 a5bd d94d 833d
000001c0: cd36 713d d80f 25bd 7981 abbd ebfd aabd
000001d0: f0c4 65bd 4f4d f43c b143 d43d b789 f1bd
000001e0: 46ff 423d 6b14 35bd 963d 1dbd 106f 633d
000001f0: 8f43 e9bd 7aca d33c 8f47 10be 4eaf 6abd
00000200: e2d4 a83c 8000 f8bc e28d 3f3d b076 d93d
00000210: 621b 4b3d 75af fe3d ed73 debd c4d7 563d
00000220: 7741 893d fc44 e0bb 3314 ad3d ab8e 113d
00000230: b0d7 e23c de18 a53d 16b9 f0bc 41ad 69bd
00000240: 742d a73c ae91 823c c5c7 f4bd 0094 943d
00000250: 71f1 283d 0440 923d 4179 94bd c22c aa3d
00000260: 6082 713d 5c7d 6abd 54c4 00bd e755 d43d
00000270: 04fd 833c 8722 6b3d 8c60 493d 2c7f cb3d
00000280: 5a2f d9bd a073 773c b728 ff3c d059 c23d
00000290: 01da ee3c 33bc e6bd 04e6 fcbd 7d37 b03d
000002a0: 37a7 673d f885 8b3d e82b 933d 93cf 5cbd
000002b0: ef20 cc3d 4cdb a3bd 917e 013e 6c4c 90bd
000002c0: 4b2d ee3d bdd3 ac3d d682 a73d 9ede 813d
000002d0: 6dd6 943d 60b7 f9bd 86f1 db3d d0b1 bcbc
000002e0: e6ab 973c bf1c c03d 3fa3 c2bc 1177 46bd
000002f0: 5733 043d a9a0 d63d 7039 093c d947 2dbd
00000300: 25a7 e33a fe56 a63c 076e 6b3d 57ae b5bc
00000310: 017c 98bc e060 06be 6c3d cdbc fbba db3c
00000320: 9d55 2c3d 9318 afbd 46b6 f0bc d691 62bd
00000330: a117 b1bd 96f1 8f3d e225 4c3c 21ec d5bd
00000340: 1ff2 e53b 504c c53d 3497 b7bd 704d 533d
00000350: 8ce3 6cbd cd94 d73d e001 bb3d a0dc 9fbd
00000360: 91bd fbbd d53a e73c 8469 a7bd cac4 a3bb
00000370: 1d95 bcbb 2654 5cbc d082 04be 717d 4ebc
00000380: 1bf5 ecba 15fb cb3d d0ae 863c 33e2 9abc
00000390: 6779 a43d 655c c5bd 2ca5 903d 5836 fabd
000003a0: e677 b73d 0568 30bd 1987 ea3c b7b9 8bbd
000003b0: 399e 3a3d 9429 aebd 3186 5e3d af7a 04be
000003c0: 36f4 ffbb 8481 e6bd c8a4 2e3d 8f0a 0fbd
000003d0: b331 da3d c7da f0bc 8df9 27bd 0f9c a43c
000003e0: 686e d1bd 193b 783d 8747 e7bd 0541 f33c
000003f0: da1b f23d 5a82 0abe 3f71 14be 76f6 69bd

lstm.weight_ih_l0_reverse f4 [256, 32]
0.07225067 -0.009216368 0.010520189 -0.13600561 -0.0040926645 -0.08233503 0.08767361 0.027627056
-0.011235638 -0.08288649 -0.06238856 -0.11628324 -0.023465801 -0.0067906193 0.019173434 -0.06591924
-0.035346605 -0.034866963 0.0584513 0.027541928 -0.011072363 -0.12698819 -0.015830344 -0.014459106
0.021172658 -0.09027796 -0.04338035 0.00995814 -0.048493303 -0.104107656 0.050542116 0.09862017
-0.07075545 -0.12640008 0.010677343 0.059056807 0.0052950187 -0.008369745 0.044555467 -0.040211156
-0.056215372 0.08823549 0.09174938 -0.074588194 -0.040158574 0.029248264 0.054165754 -0.023783587
-0.024681313 0.10636029 0.051607314 -0.12413853 0.03983464 0.09413486 0.11192002 -0.09525051
0.012894201 -0.036700074 -0.07996265 0.006693313 0.014715809 -0.068694755 0.06521299 -0.05833726
0.03867145 -0.12317544 -0.013055127 -0.08783361 -0.13501023 -0.11303514 -0.017856544 -0.041786034
0.10675106 0.030728798 0.062138118 -0.12310947 0.08299991 -0.061814573 0.09131341 0.104538284
-0.01326078 0.06344906 -0.10194306 -0.010347812 -0.081412375 0.08705228 0.07845175 0.00012932044
0.030315813 0.08980737 0.015121151 -0.095693365 -0.05168815 -0.010790267 0.021985205 -0.07354311
-0.029534513 -0.028399086 0.008976735 0.10088433 -0.062861405 0.025220947 -0.13101296 0.029090839
-0.059736494 -0.11818066 -0.114506215 0.01637616 0.0005347736 0.013410958 0.033189584 0.016452033
0.05224994 -0.039438397 -0.108681805 -0.0068408973 -0.05379095 0.073903926 -0.1387518 0.062511645
0.04076185 -0.019853298 0.09780987 -0.11110372 -0.028939819 0.08923237 0.095766164 -0.08929262
0.04892984 -0.028416768 0.029155303 0.120106705 0.10355928 -0.087173305 -0.07092909 0.1045157
-0.010046841 -0.099079184 0.016562711 -0.052180134 0.08060876 0.03322372 0.120635964 0.06330249
-0.027384907 -0.0004495221 0.10441657 0.024162073 0.12655292 0.003656882 -0.028527183 -0.010963609
0.09341869 0.01844079 -0.00091505604 -0.10143707 -0.09817813 -0.002977522 -0.008160154 0.09884223
-0.061443165 -0.021004865 -0.02532029 -0.1037141 0.025187626 -0.07958523 -0.10146764 -0.07092319
-0.10843595 0.092650935 0.055486348 0.07097092 0.03736005 -0.013857511 0.11671844 0.010493498
-0.064610265 0.09341521 0.011924046 0.020430345 -0.11105889 0.12624988 -0.04806884 0.014870786
-0.09002527 -0.032177906 -0.06836625 0.05660921 -0.018901842 0.12886246 0.015095353 0.09111512
0.06461747 -0.13991573 0.051617593 0.007498243 -0.08980267 -0.056584988 0.1009385 -0.09163472
-0.012548984 0.057873797 -0.10321159 -0.008846816 0.06926933 -0.12246086 0.062386766 0.11376723
0.025467353 -0.13231704 -0.053095616 0.08248801 0.025559705 0.07237552 -0.11227007 -0.012615212
0.02858598 0.073927134 -0.13829668 -0.0046402044 0.044393748 -0.03625056 0.06036404 -0.03356384
-0.023514885 -0.059755042 0.040238187 0.057974983 -0.05281753 -0.09355031 -0.031472962 -0.02221145
0.1078178 0.05915013 -0.09810069 -0.07411323 0.08110213 -0.1362861 0.012651115 -0.020206844
-0.039959125 -0.009735345 -0.068195485 0.040016584 0.08632327 -0.081969604 -0.066252366 0.06685191
0.11386317 0.10684038 -0.012462881 -0.035971858 -0.10644834 0.044406306 0.11183785 0.08939889
00000000: 29f8 933d 4000 17bc df5c 2c3c 0e45 0bbe
00000010: c21b 86bb 459f a8bd 398e b33d 2352 e23c
00000020: ae15 38bc 64c0 a9bd 268b 7fbd e825 eebd
00000030: 5a3b c0bc d883 debb 9b11 9d3c ab00 87bd
00000040: 9ac7 10bd a9d0 0ebd a16a 6f3d 9c9f e13c
00000050: db68 35bc 3109 02be a3ae 81bc e3e5 6cbc
00000060: 4872 ad3c a7e3 b8bd 98af 31bd 7727 233c
00000070: eaa0 46bd 6536 d5bd 4005 4f3d 5ff9 c93d
00000080: 3ce8 90bd 066f 01be 06f0 2e3c 8de5 713d
00000090: d681 ad3b 4121 09bc cb7f 363d 74b4 24bd
000000a0: 1742 66bd cfb4 b43d 19e7 bb3d b2c1 98bd
000000b0: 517d 24bd 0e9a ef3c e9dc 5d3d ccd5 c2bc
000000c0: 7730 cabc 6cd3 d93d 3162 533d 573c febd
000000d0: a629 233d c7c9 c03d 5336 e53d b312 c3bd
000000e0: 3342 533c d152 16bd 75c3 a3bd 9453 db3b
000000f0: 941a 713c d6af 8cbd 638e 853d 0df3 6ebd
00000100: f465 1e3d 6843 fcbd 2ce5 55bc 1ce2 b3bd
00000110: 1f40 0abe f87e e7bd e347 92bc d527 2bbd
00000120: 4da0 da3d f6ba fb3c 8a84 7e3d d120 fcbd
00000130: dbfb a93d 4731 7dbd 8602 bb3d 2b18 d63d
00000140: be43 59bc 95f1 813d 86c7 d0bd df89 29bc
00000150: 88bb a6bd 7748 b23d 50ab a03d 319a 0739
00000160: de58 f83c edec b73d b4be 773c e2fa c3bd
00000170: f4b6 53bd a9c9 30bc 511a b43c c59d 96bd
00000180: 5df2 f1bc 33a5 e8bc 2813 133c 729c ce3d
00000190: 7bbd 80bd 299c ce3c 4328 06be e94f ee3c
000001a0: 41ae 74bd b408 f2bd 3c82 eabd 4c27 863c
000001b0: 0c30 0c3a a3b9 5b3c cdf1 073d 6ac6 863c
000001c0: 0804 563d 288a 21bd 9194 debd 9b29 e0bb
000001d0: e653 5cbd f15a 973d f414 0ebe 1b06 803d
000001e0: e6f5 263d 62a3 a2bc 8b50 c83d 598a e3bd
000001f0: 3313 edbc 76bf b63d 0d21 c43d 0ddf b6bd
00000200: a86a 483d 48ca e8bc 1ad7 ee3c 81fa f53d
00000210: e316 d43d eb87 b2bd 4543 91bd 540c d63d
00000220: 819b 24bc 07ea cabd 86ae 873c d6ba 55bd
00000230: 3516 a53d 9815 083d fd0f f73d bca4 813d
00000240: 5056 e0bc d6ad ebb9 5bd8 d53d 8aef c53c
00000250: 1797 013e 4da8 6f3b d7b1 e9bc b6a0 33bc
00000260: 4c52 bf3d 2411 973c 5fe0 6fba 3dbe cfbd
00000270: 9e11 c9bd 8822 43bb 2bb2 05bc cc6d ca3d
00000280: d4ab 7bbd 6512 acbc 7f6c cfbc 0f68 d4bd
00000290: 4856 ce3c 95fd a2bd 44ce cfbd 2d40 91bd
000002a0: ab13 debd c6bf bd3d a745 633d 3459 913d
000002b0: da06 193d 9d0a 63bc 140a ef3d ecec 2b3c
000002c0: 6352 84bd 7950 bf3d 135d 433c 8a5d a73c
000002d0: d872 e3bd a647 013e d5e3 44bd 99a4 733c
000002e0: 2b5f b8bd fbcc 03bd 9b03 8cbd 0fdf 673d
000002f0: 09d8 9abc 85f4 033e 8052 773c 909a ba3d
00000300: 2a56 843d 1246 0fbe f86c 533d d2b3 f53b
00000310: 76ea b7bd a9c5 67bd d8b8 ce3d fcaa bbbd
00000320: 419a 4dbc 130d 6d3d 9960 d3bd 3cf2 10bc
00000330: 14dd 8d3d c2cc fabd 4489 7f3d cbfe e83d
00000340: e9a0 d03c 1e7e 07be ca7a 59bd 79ef a83d
00000350: 9662 d13c 9e39 943d daed e5bd 09b0 4ebc
00000360: 252d ea3c 1c67 973d a59d 0dbe db0c 98bb
00000370: 38d6 353d 787b 14bd 4940 773d 3d7a 09bd
00000380: 4aa2 c0bc b4c1 74bd ccd0 243d 2d77 6d3d
00000390: 3257 58bd 4e97 bfbd cbe9 00bd c9f4 b5bc
000003a0: 94cf dc3d 6847 723d 04e9 c8bd adc8 97bd
000003b0: e018 a63d 958e 0bbe 9f46 4f3c d388 a5bc
000003c0: 2eac 23bd ff80 1fbc 13aa 8bbd 6ee8 233d
000003d0: 41ca b03d aedf a7bd 52af 87bd a7e9 883d
000003e0: 1831 e93d 21cf da3d 1d31 4cbc 3a57 13bd
000003f0: 9601 dabd 63e3 353d 3e0b e53d c416 b73d
