backend/cnn_lstm_checkpoints/cnn_lstm_epoch_6.pth (torch, 788573 bytes, 64 tensors)

cnn.0.weight f4 [16, 1, 3, 3]
000000 fa a0 44 3e 44 f4 10 3d ff 9a 16 be f2 e2 07 3d
       0.19202033 0.0353892 -0.14707564 0.033175416
000010 85 67 78 3e 51 a0 b2 bc d4 c7 b2 3c bc 0c c3 bd
       0.2425824 -0.02180496 0.021823801 -0.09523913
000020 6e d4 91 3e e5 23 7e 3e 96 14 8d be 4a ea a1 3d
       0.28482383 0.2481838 -0.27554768 0.07906015
000030 b4 ca 2a 3e 06 da a1 be 2f a6 79 be 1a 94 ac 3e
       0.16678888 -0.3161165 -0.243798 0.33706743
000040 1f ad 64 3e f0 93 af 3d 4a b7 08 3e c7 29 81 be
       0.22331665 0.08573139 0.13351169 -0.25227186
000050 03 01 a4 3d 61 a7 72 be 39 bb b3 be eb 07 cc be
       0.080080055 -0.23696662 -0.35103777 -0.3984979
000060 05 10 e5 3d 96 97 63 be bc ce 29 bd 57 27 88 bd
       0.11184696 -0.22225794 -0.041456923 -0.066481285
000070 90 5c 10 be 06 fc 2c 3d 69 32 a5 bd 2e 64 2f be
       -0.1409781 0.042232536 -0.080662556 -0.1712806
000080 33 8c 29 be 8b e3 35 be fe 93 4d be c9 d2 27 be
       -0.16557388 -0.17762582 -0.20075986 -0.16389002
000090 c4 0f 89 3e e2 f7 01 3e 16 65 34 3e 75 24 14 3e
       0.2676984 0.12692216 0.17616686 0.14467032
0000a0 68 ad 1a 3e 78 fd d2 3d 74 70 60 be e4 35 68 be
       0.15105212 0.103022516 -0.21917897 -0.22676808
0000b0 84 37 a8 3e 6d e5 6e be d9 5c 69 3e e8 4c 35 3e
       0.32854855 -0.23329706 0.22789325 0.17705119
0000c0 d1 45 a7 3e b6 08 65 3e 82 b2 af bc c0 01 f3 bd
       0.32670453 0.22366604 -0.021447424 -0.11865568
0000d0 1a 5d bb bd 70 dc 96 bd 13 d2 37 bd af 41 8a 3e
       -0.09148617 -0.07366264 -0.044878077 0.27003238
0000e0 3a 4c 8c 3e 87 88 35 be 4b b1 aa 3e 73 7b 5b be
       0.27401906 -0.17727862 0.3333839 -0.21433811
0000f0 2c 84 d7 3d c6 ba cd 3d cf 9d 92 3e 82 9c d6 bd
       0.10523257 0.1004539 0.28636023 -0.1047907
000100 0c ce 68 3e 05 2e 36 bd 7b 2e 15 be b8 10 9b be
       0.2273485 -0.04447748 -0.14568512 -0.30286193
000110 a5 d1 4a 3e 49 d8 8a 3e 2d 22 a6 3e 7a bb 9d be
       0.19806536 0.27118137 0.3244795 -0.30807096
000120 2b 85 1b be 56 89 f5 bd 68 a9 ea bd 9b 28 9d 3d
       -0.15187518 -0.119890854 -0.11458093 0.076737605
000130 cd 43 96 3d 09 be 1c be 23 94 8f be ec 45 e6 3d
       0.07337151 -0.15306868 -0.28042707 0.11243805
000140 06 ea 17 3e a0 ed fb 3d d4 f2 08 bd 23 aa d6 bd
       0.14835367 0.12301183 -0.033434704 -0.1048167
000150 a6 5f 3f 3e e8 e3 49 3e fc 82 3d 3e 9c 32 14 bd
       0.1868883 0.19715846 0.18506998 -0.036181077
000160 48 63 a5 3e 38 64 b4 3e 2e a6 88 be 7a 5c 9e be
       0.32302308 0.3523271 -0.26689285 -0.3092993
000170 95 7b 9c bc 22 6d 3c be 62 9a 21 3d 43 9f e5 bd
       -0.019101897 -0.18401006 0.03945387 -0.112120174
000180 aa 14 3c 3e 17 f3 a0 3c f5 b2 28 3e 91 5d 14 be
       0.18367258 0.019647164 0.16474517 -0.14488818
000190 89 1f 6f 3e fe 14 b9 3e 62 2b 93 3e 48 4a d6 3d
       0.23351873 0.36148828 0.28744036 0.10463387
0001a0 cd 80 27 be b0 09 8a 3d 52 58 f3 bc 81 9b f8 3c
       -0.16357727 0.06740129 -0.0297052 0.030347588
0001b0 ee c3 30 bd a0 76 2f 3d 03 a8 2e 3e 89 97 2e be
       -0.043155603 0.04283774 0.17056279 -0.17049994
0001c0 a4 d3 8d be 4f f4 bb be 69 2a 87 be 7e f2 64 be
       -0.2770053 -0.3670983 -0.26399544 -0.22358128
0001d0 11 61 dd bc 9a 85 2a 3e d4 f8 30 3e 14 ed 81 3e
       -0.027023824 0.16652527 0.1728242 0.2537619
0001e0 f2 f0 8c 3e ab 6d cf bd 9c 65 95 3e 7b cb 39 bd
       0.27527577 -0.101283394 0.29179084 -0.04536007
0001f0 29 57 bc 3b 67 ef b3 3d 66 3c b6 3e e9 63 46 be
       0.005747695 0.08785897 0.35592955 -0.1937405
000200 62 c2 b5 3e 2e 8a 15 be bc 51 7f 3e 77 e3 54 3e
       0.35499865 -0.14603493 0.24933523 0.20789896
000210 8f 1b fa 3d 2f 87 2e be 93 7e 76 bd 53 9f 8b 3b
       0.12212288 -0.17043756 -0.060179304 0.0042609363
000220 23 c1 2c 3e a8 d6 b5 be 17 5e 17 be 29 7e bb be
       0.16870551 -0.35515332 -0.14781986 -0.3661969
000230 2f 94 25 be d7 07 e0 3d 69 21 86 bd eb 63 03 3e
       -0.16169809 0.10938995 -0.06549341 0.12831084

cnn.0.bias f4 [16]
000000 c1 9f 92 bd 3a 67 28 3c 86 0a 58 3d 63 ce 10 3e
       -0.07159377 0.010278517 0.05274441 0.1414123
000010 27 39 5f bd 8c e0 15 be e6 3c ab bd 64 a4 a0 be
       -0.054497864 -0.14636439 -0.08361225 -0.3137542
000020 67 b6 dd bc a9 c1 e6 3d c2 da 96 3e 52 06 86 be
       -0.027064515 0.112674065 0.29463774 -0.26176697
000030 32 c6 88 bc 9b 3f 60 be b7 da a6 3e 1d 8f 45 bd
       -0.01669607 -0.21899264 0.3258874 -0.048232187

cnn.1.weight f4 [16]
000000 85 a4 88 3f 79 f3 88 3f 70 1f 75 3f 4e 87 88 3f
       1.0675207 1.0699302 0.95751095 1.0666292
000010 46 de 72 3f 54 47 78 3f bc 09 71 3f cf 49 64 3f
       0.9487041 0.9698384 0.9415548 0.8917512
000020 f1 24 88 3f e4 34 70 3f 6e cc 81 3f b4 30 60 3f
       1.0636274 0.93830705 1.0140512 0.87574315
000030 7e 25 82 3f 00 12 87 3f c0 7e 73 3f cf c5 8a 3f
       1.0167692 1.0552368 0.9511528 1.0841616

cnn.1.bias f4 [16]
000000 18 e6 9d 3d 12 8c 5c 3d 57 39 d4 bd 5b d2 92 bc
       0.077099025 0.05384452 -0.10362499 -0.01792257
000010 32 83 b0 bd 2e 1c 59 3c de 93 5e bd ab 34 8d bd
       -0.086187735 0.0132513475 -0.054340236 -0.06894811
000020 cb 4c ef 3c 0c 7a 10 bd 2f ed 61 3c 2e 4d 16 be
       0.029211422 -0.035272643 0.013789459 -0.14677879
000030 cb 0f 80 bd f4 a5 49 3d fe 7a a0 bd 03 a3 c7 3c
       -0.06253012 0.04923053 -0.07835959 0.024369722

cnn.1.running_mean f4 [16]
000000 1e 01 90 bd 6b f2 00 3c 4c ef 53 3d 0a 0a 0f 3e
       -0.07031463 0.007870297 0.051741883 0.13968673
000010 f6 a4 5b bd 49 03 14 be 38 c3 aa bd 68 72 a1 be
       -0.053624116 -0.14454378 -0.08338016 -0.31532598
000020 d8 7c e1 bc 4a 22 dd 3d 8e ea 94 3e 21 5e 87 be
       -0.02752535 0.10797556 0.290852 -0.26439002
000030 32 33 86 bc 48 b2 5b be e9 e8 a7 3e 86 6a 51 bd
       -0.016381834 -0.21454728 0.32794884 -0.05112698

cnn.1.running_var f4 [16]
000000 0c 4b 80 3e 68 43 12 3e ac 17 a7 3f 6a b3 8f 3f
       0.25057256 0.14283526 1.3054099 1.1226628
000010 f6 85 2d 3f 66 58 4c 3e f8 fe 45 3f 1f 05 03 3d
       0.67782533 0.19955596 0.77342176 0.031987306
000020 0a 99 1f 3e 73 2e a2 3f 22 63 8f 3e 61 54 ff 3e
       0.15585724 1.2670425 0.2800532 0.49869063
000030 bf 15 9f 3f 5d a9 8c 3f da 60 f8 3e fb 18 ec 3e
       1.2428511 1.0989186 0.48511392 0.4611281

cnn.5.weight f4 [32, 16, 3, 3]
000000 e8 bd 97 3d 29 1e 87 3d 0c 1f 96 3d ce 98 48 bd
       0.074092686 0.065975495 0.073301405 -0.04897385
000010 13 26 9c bc e5 fb f3 3c bd 24 be 3d 42 da e3 bb
       -0.019061124 0.029783199 0.09284351 -0.0069535086
000020 58 1f 17 3c 5e 67 c0 bd 2b dd 58 3d cd 18 14 3d
       0.0092237815 -0.09394716 0.052945297 0.036156464
000030 9c e2 9e 3d 09 2e a4 bc 38 2f 95 bd 84 9b a3 3d
       0.07758066 -0.020041483 -0.07284397 0.079886466
000040 3c 30 44 3d 3f 3b 46 3c 9d a8 b0 3c ac 08 e3 bc
       0.047897562 0.012099086 0.021564776 -0.027714096
000050 d6 7b 6e 3d 73 fa be 3d cf dc 1f 3d 8a 12 84 3d
       0.058223568 0.09325113 0.03902894 0.064488485
000060 e9 a7 75 3d 64 b0 ca 3d 8b d9 eb 3d 64 66 45 3d
       0.059974585 0.09896925 0.115161024 0.04819335
000070 a4 70 28 bd 3b 01 21 bd 4b 01 40 bc 58 f3 5f 3d
       -0.041123047 -0.039307814 -0.011719058 0.05467543
000080 da 59 cf 3d 3d a3 fc 3c 43 62 75 bd 4a bc 35 bc
       0.1012456 0.030839557 -0.059908163 -0.011092255
000090 a2 5f 18 bc aa 36 60 bd 2d 37 94 3c a2 a2 37 bc
       -0.009300144 -0.05473963 0.018092716 -0.011208208
0000a0 c5 f9 16 3c 9b 0f 8f bb 04 bc f2 bc 93 1b 86 3c
       0.009214823 -0.004365874 -0.029630668 0.01637057
0000b0 fb f2 97 3b 8a dc f0 bb 03 f0 33 bc 70 73 22 ba
       0.00463712 -0.007350509 -0.010982516 -0.0006197011
0000c0 b9 da a3 3b 4e 33 d1 bd 72 07 f5 bc 36 f0 63 3c
       0.005000439 -0.10214864 -0.029910777 0.013912251
0000d0 81 a6 c8 3c 15 d7 06 3d 47 a8 08 bd cf e4 63 bc
       0.024493458 0.032919962 -0.033363607 -0.013909533
0000e0 c5 62 a6 bd 16 ff 92 bd 37 c2 39 3d 37 2a 05 bd
       -0.081243075 -0.0717756 0.045351233 -0.032510962
0000f0 e1 76 9b 3d 88 fb 80 3d af e8 b1 bd 33 68 da 3c
       0.07591034 0.06297976 -0.08686959 0.026661014
000100 10 28 8b 3d 8d b4 ec 3c 86 f7 fd bb 6b c4 05 3d
       0.06794751 0.028894687 -0.0077504544 0.032658022
000110 10 99 12 3d e0 83 9f 3c 6c 4b 8e 3d 56 52 64 3d
       0.035790503 0.019472063 0.06947979 0.055742584
000120 1e 2d b6 3d 31 b1 9a 3d ee bc c4 3d a9 a9 c9 3d
       0.08895324 0.07553328 0.09606348 0.09846813
000130 ab b1 8b 3d 98 d8 00 3e c4 d9 58 3d 7d be ee 3c
       0.06820997 0.12582624 0.052942052 0.029143566
000140 cd 25 af 3d 5a 1d 80 bd 07 89 aa 3a b0 81 35 bd
       0.08552132 -0.06255598 0.0013010808 -0.044313133
000150 ad 4c 5c bd c2 39 ab 3c b2 6b c2 3d f8 2a ad 3d
       -0.05378406 0.020901565 0.094931975 0.08455461
000160 32 9c 13 bd a4 f9 f3 bc e8 ca 1f bd c1 51 a2 3c
       -0.03603763 -0.029782124 -0.039011866 0.019814374
000170 af d6 d2 bc 32 5c df 3d 22 3e a1 3d 85 9f b9 3d
       -0.025737135 0.10906257 0.07873179 0.09063629
000180 69 7c 22 3c 28 b9 f3 3d 33 4e a9 3c 47 86 c0 bc
       0.009917357 0.1190055 0.020667171 -0.023501528
000190 be a7 15 bd c3 1b 3d bd fc d1 f3 3c 75 ee cc 3a
       -0.036536925 -0.046169054 0.029763214 0.001563503
0001a0 9f 55 9d bd 4f 56 be bb 94 94 50 bd 43 28 69 3d
       -0.076823466 -0.0058086286 -0.050922945 0.056923162
0001b0 b4 ce 84 3d 8e 93 2f 3e 04 eb a5 3d a6 1f 21 3e
       0.06484738 0.17146131 0.08101466 0.15734729
0001c0 e8 ab 04 3e 01 92 47 3d b0 fb 1c 3d 6e 80 b7 3d
       0.12956202 0.048723225 0.038325965 0.08960043
0001d0 8d 00 df 3d 88 67 87 bd a4 f5 4d bd 35 6f 3a 3d
       0.10888777 -0.06611544 -0.05028309 0.04551621
0001e0 33 ae 72 bd 46 1f 23 3a c3 68 fd bb c1 c8 77 bd
       -0.05924816 0.00062226166 -0.007733436 -0.06049419
0001f0 17 6d 5b 3c 3a 96 e2 3c 91 ed c7 bd 06 70 30 be
       0.013392708 0.027659524 -0.09762109 -0.17230234
000200 d6 32 2b be a4 e0 01 be 51 3f 8a bd ea a5 68 bd
       -0.16718611 -0.1268335 -0.06750358 -0.056798853
000210 02 d0 8c bd d9 6f 9e bd 89 d6 2a bd 1a bf f7 3d
       -0.06875612 -0.07736177 -0.041708503 0.120969966
000220 b0 d2 d7 3c 21 69 08 3e 1e 56 90 3d be 53 6b 3d
       0.02634558 0.13321353 0.070476755 0.05745291
000230 8b ab 32 3d 91 62 1b 3d ad 77 e1 3d af c1 83 3c
       0.043620627 0.037935797 0.110091545 0.016083566
000240 54 0e 4b bc 07 bc 89 ba 7a ee 54 bc fc 50 04 bd
       -0.012393553 -0.0010508307 -0.01299631 -0.032303795
000250 c3 a8 94 bd 6b da 9d bd c3 7b 5d bb 1a 32 43 3c
       -0.07258751 -0.077076755 -0.0033795692 0.011913801
000260 4d 48 13 bd 1a a3 db bd e3 5d 39 3d 9a 78 65 bd
       -0.035957623 -0.107244685 0.045255553 -0.056023218
000270 01 31 cd bd 79 59 3d 3c 01 f2 58 3d 84 b3 af bd
       -0.100191124 0.0115569765 0.052965168 -0.08579162
000280 ad 47 cb bd 48 24 fe bc 8a c7 eb bc 66 a3 79 bc
       -0.099257804 -0.03102316 -0.028781671 -0.015236711
000290 d1 3f d1 bd 9d c2 5f bd 82 d6 77 bd 4e 09 20 bd
       -0.1021725 -0.054628957 -0.060507305 -0.039071374
0002a0 c7 24 cb bd d9 b8 e3 bc 23 03 72 ba 3c b5 45 bb
       -0.09919124 -0.027798103 -0.0009232035 -0.0030167839
0002b0 84 55 e8 bd 17 48 8c bd 9b 39 21 3b 74 a6 cb bd
       -0.11344436 -0.068496875 0.0024600986 -0.09943858
0002c0 5f a9 ad bd 7e e7 cc bc 25 0c 9d bd 3f 30 e7 bc
       -0.084795706 -0.025012728 -0.07668332 -0.028221248
0002d0 c6 e4 66 3c dd 14 b9 3d 98 47 07 bc 89 28 02 bd
       0.01409263 0.090371825 -0.008256815 -0.03177694
0002e0 57 03 75 3d 74 7c ad bd d5 81 a5 bb 53 2a 90 bd
       0.05981764 -0.08471003 -0.0050508776 -0.07039323
0002f0 ed 76 8f 3c c0 4c 4d bd f1 2b 61 bd 08 ff bb bc
       0.017512763 -0.050122023 -0.054973546 -0.022948757
000300 e8 1e 04 bc 67 5f c4 bd fd 26 dd bc f3 c7 f4 3c
       -0.008064009 -0.09588509 -0.02699613 0.0298805
000310 68 ac df 37 a9 51 f2 3c 53 75 0c 3d 46 dc 9f 3c
       2.6663954e-05 0.029579954 0.034291577 0.019514214
000320 74 b1 19 3d c1 0e 15 3d e8 c5 22 bb 6e 44 39 3d
       0.037522748 0.036391024 -0.00248372 0.045231275
000330 7f 61 c1 3c 18 a7 0c 3c 6b a1 56 3d 26 55 64 3d
       0.02360606 0.00858476 0.052400034 0.055745266
000340 5e 4f e2 bc d7 8e 79 3d 58 65 07 bb 06 f6 33 3d
       -0.027625736 0.06092724 -0.002065977 0.043935798
000350 5d 9f af bd cf ef c4 ba 29 68 e2 3c 7a dd d8 bb
       -0.08575318 -0.0015025082 0.027637558 -0.006618199
000360 30 6f 20 bd 43 53 fe bd 9b f4 e7 bd d8 54 25 3c
       -0.039168537 -0.12418225 -0.11325952 0.010091029
000370 62 9f 12 be d3 be e5 bd 10 3a e7 bd f6 5e d0 bd
       -0.14318612 -0.112180375 -0.112903714 -0.10174362
000380 5f c2 c0 bd 68 c7 41 ba 5a a6 21 3d ad 4b 87 3d
       -0.09412073 -0.00073920796 0.039465286 0.06606231
000390 f5 c6 3e bd ad f7 8f 3d e8 ec 51 bd 80 32 a8 bd
       -0.04657646 0.07029662 -0.051251322 -0.08212757
0003a0 93 c1 71 3d be dd 86 3c b6 6d 94 bd e8 2c 9d bc
       0.059022497 0.016463157 -0.07247488 -0.019186452
0003b0 8b bb b5 3c bf a2 15 bc 57 09 39 bc 98 c4 81 3d
       0.022184154 -0.00913304 -0.011293731 0.063363254
0003c0 35 26 f4 3c 56 27 81 bd b9 6c fd bc 83 9f a4 bc
       0.029803375 -0.06306331 -0.030935632 -0.020095592
0003d0 f3 c8 bc 3c 50 6a 54 bd d7 b7 17 3d 1b 4c 8f 3c
       0.023045039 -0.0518592 0.037040558 0.017492345
0003e0 ec b0 21 3d 73 fa 4e 3d 58 3b a0 bd 6a d9 ba bb
       0.039475366 0.050531816 -0.07823819 -0.0057021873
0003f0 5a d5 8f bd 19 02 11 bd 0c fb e3 bd 5e 4a e0 bc
       -0.070231155 -0.03540239 -0.11131868 -0.027379211

cnn.5.bias f4 [32]
000000 e9 ef 78 bc e3 2b ab bd 06 4f 2f 3d 06 34 c6 3d
       -0.015193918 -0.0835798 0.042799972 0.096778914
000010 51 49 9a bd c0 c6 04 3e 1a bd 30 bd 83 be eb 3c
       -0.07533515 0.12966442 -0.04314909 0.028777367
000020 77 8a 82 bd fe 64 92 bd 28 2d 91 3d c5 f5 63 3d
       -0.06374066 -0.07148169 0.07088691 0.055654306
000030 be da c6 3c 60 37 d4 bd 89 44 3a bd 20 58 5c bd
       0.024274226 -0.103621244 -0.045475516 -0.05379498
000040 89 ca c8 bd c1 18 02 bd be e6 e8 bd cd 4e a8 3c
       -0.098042555 -0.03176189 -0.113721356 0.020545388
000050 f1 50 ad bc 01 a5 03 3c 3b ba 77 3d 69 76 5f bd
       -0.02115676 0.008034945 0.060480338 -0.054556284
000060 56 8d 01 3e 92 85 9a 3d 18 3c 7c 3d 06 26 ef bc
       0.12651572 0.07545008 0.061580747 -0.029192936
000070 fc c2 39 bd ac 66 58 bc c1 cb 35 bd 07 16 91 3d
       -0.045351967 -0.013208073 -0.044383768 0.070842795

cnn.6.weight f4 [32]
000000 12 97 6d 3f 5e dd 83 3f 10 41 7d 3f 72 92 7e 3f
       0.9280864 1.0301931 0.989274 0.9944221
000010 4b 87 84 3f db 05 73 3f 16 31 88 3f 5f c1 79 3f
       1.0353788 0.9493081 1.063998 0.97560686
000020 f3 d2 70 3f f8 e1 7d 3f cb 54 7e 3f 26 95 83 3f
       0.9407188 0.99172926 0.99348134 1.0279891
000030 51 7e 70 3f b1 9e 88 3f ab 51 7c 3f 03 da 70 3f
       0.93942744 1.0673429 0.98562115 0.9408266
000040 66 f6 6c 3f 0e ed 70 3f 5f 62 7b 3f 7c 94 7a 3f
       0.92563474 0.94111717 0.9819698 0.9788282
000050 b0 12 75 3f 03 a4 81 3f 32 98 6b 3f e2 e2 70 3f
       0.9573164 1.0128177 0.92029107 0.94096196
000060 39 1f 79 3f 91 5a 80 3f 4c 06 82 3f a6 7f 76 3f
       0.97313267 1.0027639 1.0158172 0.96288526
000070 99 72 81 3f af d7 76 3f c0 0e 77 3f 12 99 81 3f
       1.0113097 0.9642286 0.9650688 1.0124838

cnn.6.bias f4 [32]
000000 a0 f7 13 bd d5 cc 12 3d ee d2 1c bb a9 26 50 bb
       -0.036124825 0.035839874 -0.0023929435 -0.0031761324
000010 2c 7f 20 3d a8 9a 4a bd 1b d9 76 3d 2f 02 e9 bb
       0.03918378 -0.049463898 0.06026564 -0.007110856
000020 fc 78 81 bd b3 82 32 bc 60 b7 02 3c c0 73 77 3b
       -0.06321904 -0.010895419 0.00797829 0.0037758201
000030 7e bc 6d bd 8b e9 96 3d 10 b0 0e bc d5 6e ca bc
       -0.05804109 0.073687635 -0.008708969 -0.024711052
000040 f2 2f 79 bd 60 7b 03 bd a1 fc 0e bd f0 4a 63 bc
       -0.06083674 -0.03210008 -0.034908894 -0.013872847
000050 04 14 7a bd ef bc ef 3c 14 80 74 bd 8c ab 14 bd
       -0.061054245 0.029264895 -0.059692457 -0.036296412
000060 34 78 9e bc da c2 13 bd 3e 63 2f 3b 6e 86 a6 bc
       -0.019344427 -0.036074497 0.0026762034 -0.020327773
000070 cc ba c0 bc 40 9f e1 bc 6c ff 33 bd b0 4d 21 3c
       -0.023526572 -0.027541757 -0.04394476 0.009845182

cnn.6.running_mean f4 [32]
000000 5e 05 8d 3f a6 b4 8e bf 38 38 e8 3f 44 03 88 bf
       1.1017263 -1.114888 1.8142157 -1.0625997
000010 17 a7 87 bf 79 17 2a be c4 19 06 c0 21 24 e2 be
       -1.0597867 -0.16610517 -2.0953226 -0.4416819
000020 8d af 30 bf f9 00 c0 3e 40 32 1a c0 f7 e3 77 3f
       -0.6901787 0.37500742 -2.409317 0.9683222
000030 f1 24 93 bd fc 8b f9 bf d6 0d d1 bf 25 60 10 bf
       -0.071847804 -1.9495845 -1.6332347 -0.56396705
000040 2a 23 28 c0 8c 00 f6 be 65 d7 23 be c0 54 0f c0
       -2.6271462 -0.48047292 -0.16000135 -2.2395477
000050 59 ab b3 bc c7 6a 3f 3f 4d 96 66 bf b7 16 98 3f
       -0.02193229 0.74772304 -0.9007309 1.1881932
000060 91 6c 6d 3f f9 57 08 3f ea de 07 bf 00 21 8b 3f
       0.92743784 0.53259236 -0.53074515 1.0869446
000070 be cb c5 3e 6a 94 95 3e 20 bc fe b9 72 6d 83 bd
       0.38632005 0.29214793 -0.0004858682 -0.064173594

cnn.6.running_var f4 [32]
000000 b0 cf 4f 40 f8 7d 0b 40 c2 7d 9a 40 74 40 18 40
       3.2470512 2.1795635 4.8278513 2.378934
000010 0b d7 e9 3f a1 a7 62 40 c8 3c 88 3f 11 21 83 40
       1.8268751 3.5414813 1.0643549 4.0977864
000020 f5 27 6b 40 c3 64 99 3f d7 cb b4 40 65 c1 87 40
       3.6743138 1.1983875 5.649883 4.2423577
000030 0d 59 8b 40 03 fb 8a 3f 82 27 ba 3f 8e 74 fe 3f
       4.3546205 1.0857853 1.4543307 1.987932
000040 3a fd 1c 40 5c fd 15 40 bf cd 79 40 56 0f bd 3f
       2.4529557 2.3435888 3.9031827 1.4770305
000050 2d 54 d8 40 e2 3c 6b 40 c5 62 5c 40 6d dd 31 40
       6.7602754 3.675591 3.4435284 2.7791398
000060 14 33 58 40 79 c9 ee 3f 6c 3d 06 40 92 63 7e 40
       3.3781176 1.8655235 2.097499 3.9748273
000070 db 50 72 40 33 05 c8 3f 76 4f a5 40 a4 10 61 40
       3.786185 1.5626587 5.16595 3.5166407

lstm.weight_ih_l0 f4 [256, 32]
000000 92 c9 09 3d c9 cc bd bd 31 9b 7a bd fe 3e 00 3e
       0.033639498 -0.09267575 -0.06118316 0.1252403
000010 88 8e a2 bd c3 d9 f8 bd 95 8a f6 bd 8b 30 61 3d
       -0.07937342 -0.1215091 -0.12038151 0.054977935
000020 9c 36 3d bd 82 d7 85 be ad c7 45 be ea e7 fa 3b
       -0.046194658 -0.26140982 -0.19314452 0.007657041
000030 09 9a 76 bd c3 6c 9a bd 80 d4 0b 3d 2e 4a e3 bc
       -0.060205493 -0.07540276 0.034138203 -0.027745333
000040 2c 9c 82 3c c2 4d 1f 3d 7a d6 ff bd 79 dd d3 bb
       0.01594361 0.038892515 -0.1249208 -0.0064656106
000050 0e d4 79 be e9 31 5e bd 81 d9 09 be ff 87 e0 3b
       -0.24397299 -0.054246817 -0.13461877 0.0068521495
000060 5c 20 04 be ec 1f 58 bd 0c d0 cd bd a9 55 2c bd
       -0.12902969 -0.052764818 -0.100494474 -0.04207388
000070 ba 65 21 be 7c c4 aa bd 5f b8 93 3c 83 f3 82 3b
       -0.15761462 -0.08338258 0.01803225 0.003996314
000080 84 d3 8b bc dd 90 27 be 60 55 99 3d a9 d7 13 bc
       -0.017068632 -0.16363855 0.07486987 -0.009023585
000090 6f fb ca bc ca e9 fa bd 25 e0 55 3d 7b 2e 95 bd
       -0.024778096 -0.12251623 0.052215714 -0.07284256
0000a0 37 82 1b be f2 bd d6 bd 8f ec 8c 3d c5 43 be 3d
       -0.15186392 -0.10485448 0.068810575 0.0929027
0000b0 a6 c3 87 3d b8 5d 32 3d 9c 35 cf bd 94 48 c3 bc
       0.06629114 0.04354641 -0.10117647 -0.023838319
0000c0 df cb 45 3d 89 1f 82 bd 97 2c d1 bc 79 a9 cb 3c
       0.04829013 -0.06353671 -0.025533957 0.024861084
0000d0 4a 74 bd 3b 23 aa de bc 7d 08 df bd af ce d9 bd
       0.005781685 -0.027180737 -0.10890291 -0.10635125
0000e0 c7 8d c6 bd 58 50 df bb f4 49 16 be e6 01 34 3d
       -0.09695011 -0.0068149976 -0.14676648 0.043947123
0000f0 f7 a4 a0 3b d1 65 de bd a5 e8 88 bd 96 e3 93 bc
       0.004902478 -0.10859264 -0.066849984 -0.018052857
000100 c5 70 2d be c2 69 b3 bd 87 7b 15 3c dd bf a7 bc
       -0.1693755 -0.08760406 0.0091236895 -0.02047723
000110 f7 77 8c bc e9 9b 18 be a4 c7 19 bd 97 f0 0a bc
       -0.017147047 -0.14903225 -0.037543908 -0.008480213
000120 2d d3 33 3d a3 63 06 be 66 c5 e3 bd a9 50 d3 bd
       0.043902565 -0.13123946 -0.11121635 -0.10318119
000130 0f 96 ee 3c 87 cf 94 3d ab 7b c8 3d c3 1c 9e bd
       0.029124288 0.07266145 0.09789213 -0.077203296
000140 20 a6 d7 bd 8e 0e 5d bc 03 f3 17 3c f1 96 00 bd
       -0.10529733 -0.01349224 0.009274247 -0.03139395
000150 0b ce 8b bd d0 c2 00 3d d2 05 96 bc f6 0a 27 3d
       -0.06826409 0.031435788 -0.018313322 0.040781938
000160 81 00 49 be 56 27 6a 3d dd 26 3c be 62 4d 3b bd
       -0.19629098 0.05716642 -0.183742 -0.045728095
000170 49 59 39 bd e5 1d a3 3d 2a 55 63 3d 47 91 61 bd
       -0.045251165 0.07964686 0.05550114 -0.055070188
000180 e5 0e 91 bd f8 52 83 bb c3 b0 b7 bd c6 b3 ac 3d
       -0.07082919 -0.0040076934 -0.089692615 0.084327266
000190 fc a8 08 be 36 67 ed bd 1c be 11 be 44 e1 98 3d
       -0.13345712 -0.115919515 -0.14232677 0.07464841
0001a0 da 7f 1d bd c1 59 78 3d cc f4 0c bd 8b aa e5 3d
       -0.038452007 0.06063247 -0.034413144 0.11214169
0001b0 be 71 9a bc 2e b1 ba 3d 23 db 56 bb 94 49 57 3d
       -0.018853065 0.091158256 -0.0032784424 0.052560404
0001c0 e7 b8 a7 3c 1d ae dc bd 70 c4 b7 bd c9 3c 72 3d
       0.02047391 -0.10775397 -0.08973014 0.05914
0001d0 e3 43 d0 39 99 59 39 3c 96 ec 80 3b ac 7f bb bd
       0.0003972343 0.011312866 0.0039344532 -0.09155211
0001e0 9a c3 86 3c 68 17 53 bd e0 af 12 bd 80 99 d1 bd
       0.016450692 -0.051535994 -0.03581226 -0.10234356
0001f0 17 b5 11 bc 37 2c 90 bd 23 aa 0a be 96 2d d0 bd
       -0.008893273 -0.07039683 -0.13541465 -0.10164945
000200 d4 e3 df bc 90 90 96 bc e1 0a e6 bd 1b e6 1d be
       -0.027330317 -0.01837948 -0.11232544 -0.1541981
000210 a9 1b 07 3d c3 b2 80 bd 5a 4d a8 3d 2e 24 47 3d
       0.032985363 -0.06284096 0.08217879 0.048618488
000220 a4 13 95 bd 1d ad 15 3d ba a6 8b 3c c0 df 36 be
       -0.07279137 0.036542047 0.017047275 -0.17858791
000230 f6 67 e6 bc eb 75 19 3d 5b 7e 2d bd 84 9b b1 bd
       -0.028125744 0.03746597 -0.04235683 -0.086722404
000240 5b f4 a0 bd d6 a3 50 3d 61 a9 6a bc 33 6c 55 bd
       -0.07859107 0.050937496 -0.01432261 -0.05210514
000250 11 df ca bd ba d8 f3 bc af 42 82 bd 3e 19 11 be
       -0.09905828 -0.02976643 -0.06360375 -0.14169785
000260 6c ef 91 bc 16 66 86 3c d0 71 72 bc 2b 8a e6 ba
       -0.01781436 0.0164061 -0.014797643 -0.0017588785
000270 02 91 12 be 4c 72 06 bb 5b d1 57 3d 62 ef 22 3d
       -0.14313129 -0.0020514904 0.05268989 0.039779074
000280 ba 3c 91 bd 2a 7a 44 be b8 44 69 3d a4 98 6f bd
       -0.07091661 -0.19187227 0.0569503 -0.05849518
000290 2c a5 ed bd 85 2e 7b 3d 63 26 05 be c3 87 f8 bc
       -0.1160377 0.06132366 -0.13002925 -0.030338174
0002a0 0f c4 3e be a2 07 86 bd 07 71 08 bc ad d2 a3 bd
       -0.18629478 -0.065444246 -0.008327729 -0.079991676
0002b0 1d f8 1c be bc f4 c2 bb dc 8d 34 be 30 24 47 3d
       -0.15329023 -0.005949585 -0.1763224 0.048618495
0002c0 97 36 df bd 32 86 a1 bd 2f 6d b7 bd 85 12 51 3d
       -0.10899084 -0.07886924 -0.08956372 0.051043052
0002d0 1a b5 cf bd 79 02 4b bc de 03 57 3d 35 49 66 3c
       -0.10141964 -0.012390726 0.052493922 0.01405554
0002e0 63 14 64 bd 47 0e 1c be 61 71 7b bc d3 99 d4 3c
       -0.055683505 -0.15239821 -0.015346856 0.025952255
0002f0 2d 37 bc bd 6a d8 47 bd 93 d8 45 bd 1f f7 33 be
       -0.091902114 -0.048790373 -0.048302244 -0.17574738
000300 c2 77 07 be 88 24 4b bc 40 cb 1d be fd c5 ea bc
       -0.13229278 -0.012398846 -0.15409565 -0.028658861
000310 4c 93 11 be 01 45 0d bd 97 ec 2d bd de 21 ee 3c
       -0.14216346 -0.034489635 -0.042461958 0.029068884
000320 b5 e3 a5 bd 41 c7 0c 3b 30 df b7 3d 65 b7 9b 3d
       -0.08100072 0.002148107 0.089781165 0.07603339
000330 1f 18 92 3d ae 3e 11 be 2e 1c 49 bd 12 b6 ca 3b
       0.07133507 -0.14184067 -0.04909914 0.0061862553
000340 f5 04 06 be 1a 4e a3 3c 87 a4 f0 bd ee 06 5d 3c
       -0.13087828 0.019934703 -0.11750131 0.013490422
000350 2e a5 26 3d 3c 3f f0 3a 9a 31 11 be 6c 86 e3 bc
       0.04068487 0.0018329392 -0.14179078 -0.027774058
000360 06 4b 2f bd d4 fa 46 bc 0d ea 93 bc 89 84 17 bd
       -0.042796157 -0.012144763 -0.01805594 -0.03699163
000370 93 63 5a 3b 72 a3 26 be 1f 9d c3 bd ce 94 c5 3d
       0.003332351 -0.16273287 -0.09551453 0.09647523
000380 53 0b 46 3d c0 9c 60 bd 4a 46 5a 3d f0 1c 22 be
       0.048350643 -0.05483699 0.05328969 -0.15831351
000390 ed f2 81 bc 58 1c 90 3c 9d d4 07 be a5 33 7b bd
       -0.015862906 0.01759164 -0.132647 -0.06132855
0003a0 74 e3 ef bd f6 84 60 bd c7 b5 9d 3d 57 57 da 3d
       -0.11713305 -0.0548143 0.07700687 0.1066119
0003b0 45 12 02 3e fb af a1 3b 72 50 39 be c2 c5 bb 3d
       0.12702282 0.0049343086 -0.18097094 0.09168579
0003c0 a3 a1 01 3d 23 e8 b5 bd 8c 71 c3 bb 7d 20 f5 3c
       0.03164829 -0.08882167 -0.0059644636 0.029922718
0003d0 76 57 ef bc 1d 3c 1e 3d 35 18 12 3e ae ae e5 3d
       -0.02921651 0.038631547 0.14267047 0.11214958
0003e0 ae 38 74 3d 7c 7d 00 3e ac 3e 86 bd 63 d9 ce 3d
       0.059624366 0.12547868 -0.065549225 0.10100057
0003f0 f4 e9 14 3e 8e 61 38 3c d7 64 a5 3d ee f9 42 3d
       0.14542371 0.011253728 0.08075874 0.047601633

lstm.weight_hh_l0 f4 [256, 64]
000000 87 15 f8 bd 68 28 0d 3d 2d 60 be 3d 11 5b 0a be
       -0.12113481 0.034462363 0.09295688 -0.13511302
000010 cb bc 25 bd 32 79 6e bb c3 8c 68 bd 17 b7 9a 3d
       -0.04046325 -0.0036388156 -0.056774866 0.07554453
000020 d2 82 cc bb 43 9a f0 bd 4e 10 e2 bb cd 65 5e bc
       -0.006241181 -0.11748173 -0.0068989163 -0.013574076
000030 7b 69 10 3e d9 0a f1 bc ea 03 a3 bd e8 67 0d 3e
       0.14102738 -0.029424118 -0.07959731 0.13809168
000040 bb 8c ae bd cf c6 44 3d ad 76 6c bd e8 9d 64 3d
       -0.08522936 0.04804116 -0.057730366 0.055814654
000050 d5 3a 7d bd 3c 80 58 3d 13 74 2d 3d b1 7d a7 3c
       -0.061823685 0.05285667 0.042347025 0.020445677
000060 5f 30 a7 bc 81 8b 70 bb df 67 aa bc d9 53 8f bd
       -0.020408807 -0.0036704245 -0.020801483 -0.069984145
000070 97 57 9d bb 4d 83 a1 bc a9 c2 96 bd 03 c1 9f 3d
       -0.0048017013 -0.01971593 -0.07361347 0.07800486
000080 9a b7 29 be 07 22 91 3b ef 4e a0 bd 88 a3 c6 3d
       -0.16573945 0.004429105 -0.078275554 0.0969916
000090 ef 48 12 3e 62 dc ef 3d dd d7 7b 3d d9 78 02 3e
       0.14285634 0.117119566 0.06148516 0.12741412
0000a0 1f ec 8f 3c f4 cf 9f 3d ed 6c 05 bd 27 4b e0 b9
       0.017568646 0.07803336 -0.032574583 -0.00042780602
0000b0 c9 16 f3 3d e1 5f c6 3d 2d 3b 13 3e 20 21 dc 3d
       0.1186958 0.09686256 0.14378043 0.107485056
0000c0 30 92 4d 3d e8 dc d2 3d f5 08 53 3c 5d 92 d9 bd
       0.050188243 0.10296041 0.0128805535 -0.1062362
0000d0 9c 35 3b 3d 6f 64 ca 3b c8 a3 0d bc 9e bf 19 bd
       0.045705423 0.0061765234 -0.0086450055 -0.037536256
0000e0 8b 30 d3 bc 31 b4 07 be 1f d4 07 3e fe d2 fe bc
       -0.025779983 -0.13252331 0.13264512 -0.031106468
0000f0 de 5d 63 bc 59 39 f1 bd 76 88 8b bd 99 45 ab bd
       -0.01387736 -0.11778516 -0.06813137 -0.08362884
000100 fe 27 28 3c c4 e6 36 bd 9a d9 be 3d 56 dc 97 bd
       0.010263441 -0.04465367 0.09318848 -0.074150726
000110 86 51 f8 3d ab 8d b0 bd 6f 0b ba bd bf 78 e2 3d
       0.12124924 -0.08620771 -0.09084212 0.11058187
000120 9d 9b 0d bc d3 61 b6 3d 4c 9c bf 3d 82 71 1e 3c
       -0.008643058 0.08905377 0.09355983 0.009670617
000130 b0 84 e9 3c 56 a5 ce 3c db a7 35 bd a0 4a 82 3d
       0.028505653 0.025225323 -0.044349533 0.0636189
000140 3d a4 9d 3c 56 d8 d7 3c e0 8f d9 3d ec 2c 87 3c
       0.019243354 0.026348274 0.10623145 0.016500913
000150 42 45 f3 bd 31 75 ce bd 73 19 df 3d c6 5c 8e 3d
       -0.11878444 -0.10080946 0.10893526 0.06951289
000160 c4 56 28 bd b0 0c 92 3d 72 a6 0a be 97 91 0d bc
       -0.04109837 0.07131326 -0.13540056 -0.008640668
000170 89 81 b2 3d 42 30 a1 3d 35 18 ba 3d 2a 0e 18 be
       0.08716113 0.078705326 0.090866484 -0.14849153
000180 45 d8 c9 bc cd 14 1a 3e 8d a6 9d bd c1 41 7a 3c
       -0.024639258 0.15046997 -0.07697783 0.015274466
000190 c4 5f a1 3d c9 b8 6f bd e6 66 c1 3d 99 f8 90 bd
       0.07879594 -0.058525834 0.094434544 -0.07078666
0001a0 d9 c8 d6 3d bb 07 0f 3e 9c 13 21 3c cc d4 4e 3a
       0.104875274 0.13967793 0.009831335 0.00078899856
0001b0 84 52 e7 bd d6 67 20 bd ab b7 48 3d 74 9a ba 3d
       -0.112950355 -0.039161526 0.049003284 0.09111491
0001c0 6c ba aa bd 5a 1e 44 3b b1 6e b5 bd af b2 d1 bd
       -0.083363384 0.0029925318 -0.08859003 -0.10239159
0001d0 d4 8d ea 3d a1 93 ad 3d 23 0e 95 bd e2 57 81 3c
       0.11452833 0.084754236 -0.07278087 0.015788976
0001e0 9a 46 32 bd cc 04 32 3d 26 5d fc 3d cf bb 76 3c
       -0.043524362 0.043461606 0.12322454 0.0150594255
0001f0 f6 2e b1 3b bd cf d3 3d af de 01 be 24 56 e1 3c
       0.0054072095 0.10342357 -0.12682603 0.027506895
000200 bf c7 3f bd a4 af b1 3b b3 bf 63 bd 85 f3 af bd
       -0.046821352 0.0054225493 -0.05560274 -0.085913695
000210 0b 2a 1f bd e9 f1 61 3d c3 19 8f 3d 41 80 9d 3d
       -0.038858455 0.055162344 0.069873355 0.07690478
000220 54 db 2e 3d a1 15 93 3d 3c fe 84 bd f1 41 32 3d
       0.042689636 0.0718186 -0.06493804 0.043519918
000230 2e 5f fc 3d 69 d8 9d bc 7f 08 57 be c4 86 ec bd
       0.123228416 -0.019268231 -0.20999335 -0.11549142
000240 f7 9f 67 3d 82 78 2e bd a8 c9 c6 bd e8 b2 28 be
       0.05654904 -0.042595394 -0.097064316 -0.16474497
000250 e2 3b 9d bd c2 f9 86 3d b2 b8 22 bd 74 11 70 bc
       -0.07677437 0.06590606 -0.03972692 -0.014652599
000260 4a af e7 bd b4 c9 28 3e dc 16 21 3b ca 74 80 bc
       -0.113127306 0.16483194 0.0024580276 -0.01568069
000270 46 08 0b bd 7a 77 95 3d c8 0e df 3c 8e b8 6e 3c
       -0.033943437 0.07298179 0.027228728 0.014570368
000280 af 06 15 bd 5a 6a fb 3b 0a a4 23 be 19 8e 06 3d
       -0.036383327 0.00767259 -0.15980545 0.03285036
000290 cd 6b 9b bd 9a 83 43 3d 7d b5 2f bc 93 31 22 be
       -0.07588921 0.047732927 -0.0107244225 -0.15839224
0002a0 88 cd f0 3d 03 b7 08 3e cc a9 8a 3d 07 89 06 bd
       0.11757952 0.13351063 0.067706674 -0.032845523
0002b0 c2 0e 45 3d 17 ab 40 bc 3d e8 2d be bc d8 db bc
       0.048109777 -0.011759541 -0.16983123 -0.026836745
0002c0 75 e2 01 3c 7a 24 d0 3d e3 3f b7 bd e6 5b 24 bd
       0.007927527 0.10163207 -0.08947732 -0.040126704
0002d0 94 fa 80 bd 38 4d 6a 3d 17 2e 5d bd db 4a 1f bc
       -0.06297794 0.057202548 -0.053999033 -0.009722437
0002e0 14 d7 2a bd f9 25 48 be 7e 64 a6 3d 48 e0 b6 3d
       -0.04170902 -0.19545735 0.08124636 0.08929497
0002f0 00 13 00 3e 5a 32 5a bc 07 c7 16 be a2 00 dd 3d
       0.12507248 -0.013317669 -0.1472436 0.10791136
000300 d8 66 9b bb ae 17 c5 3c 6e cb 27 3c df f5 59 3d
       -0.0047424845 0.024059143 0.0102413725 0.053212997
000310 ed 27 0a 3e a4 5b a3 3d 9b 47 55 bc 14 6c fa 3c
       0.13491793 0.079764634 -0.01301756 0.030569114
000320 3b 46 c1 bd 05 fc b0 bd 0d b8 93 bd f5 08 f8 3d
       -0.094372235 -0.08641819 -0.07212839 0.121110834
000330 4f 45 9f 3d 93 cb 01 3e cf f2 b0 3d 31 66 45 bd
       0.077768914 0.12675314 0.08640062 -0.04819316
000340 b3 1f d1 3d ce 8f 05 3d ec e1 ed 3d b6 ab 48 3c
       0.10211124 0.032607846 0.11615357 0.01224797
000350 fc 93 41 3d 6e b4 9c 3d 4f 92 eb 3b c2 80 30 bd
       0.04726027 0.07651602 0.007189072 -0.043091543
000360 65 8d 79 3d 6e c0 3b bd 3f 88 88 bd 6e 74 99 3d
       0.06092586 -0.045837812 -0.06666612 0.0749291
000370 e0 03 d5 3b 36 5f f2 3b ad 5b d2 3b 78 01 a5 3d
       0.006500706 0.007396604 0.00641962 0.08056921
000380 b3 cf 53 bd a3 b4 86 bc b6 3c 78 3d 77 50 9c 3d
       -0.05171175 -0.016443556 0.060604773 0.07632535
000390 b9 fa 3e bc e9 75 d3 3c 85 f7 67 3d 3a e2 99 bd
       -0.011656457 0.02581306 0.056632537 -0.075138524
0003a0 3b a1 5c bc e6 a1 6f bd 41 c8 35 bc a9 2e f0 bc
       -0.013466175 -0.058504008 -0.0110951075 -0.029319124
0003b0 df c1 32 3d d1 eb c9 bd 42 22 02 be 25 f0 ec 3c
       0.04364192 -0.098594315 -0.12708381 0.028923104
0003c0 86 99 66 bd 4e fb 31 3d 26 a1 19 3e 50 28 90 bd
       -0.056298755 0.043452553 0.1500288 -0.07038939
0003d0 c3 fb 71 bb b9 e6 eb bd d7 94 c5 bd d6 7a b1 bd
       -0.0036923743 -0.11518616 -0.096475296 -0.08666007
0003e0 0e b6 d0 3d b7 1d 75 bd 57 5e 8d 3d 87 4e 85 bd
       0.10190974 -0.05984279 0.069027595 -0.065091185
0003f0 45 84 cf 3c 4a ec 74 bc 26 1e a0 3d 79 1c a1 bc
       0.025331626 -0.014948914 0.0781825 -0.019666897

lstm.bias_ih_l0 f4 [256]
000000 91 30 db bd 68 8b 9b 3b 4e 36 d9 bd 29 a4 ed bd
       -0.10702623 0.004746843 -0.10606061 -0.11603577
000010 b9 2f c3 3b 20 fb 41 be 9a 32 1d be e2 87 c7 3d
       0.0059566167 -0.18943453 -0.15351334 0.097427145
000020 f8 17 04 3d f5 2d 1b be 13 78 cb bc 3a 24 01 3d
       0.03224942 -0.1515425 -0.02483753 0.03152869
000030 1b 19 a0 bd e1 2b 8b 3d b0 0e e7 3c 29 76 41 bd
       -0.078172885 0.067954786 0.028205246 -0.047231827
000040 ee e6 86 bd 81 78 ff 3c a5 ef 4d be 8f 90 90 bc
       -0.06587015 0.03118539 -0.20110948 -0.017647056
000050 b3 e2 2a 3d e1 ed 2f 3c 6b 82 1c 3c 22 f7 8b 3d
       0.041720103 0.010737867 0.009552578 0.06834246
000060 50 a1 68 bc 1e 31 c2 3d ea 07 73 bd 85 dc 2b 3d
       -0.014198616 0.094820246 -0.05933372 0.04195835
000070 72 3a 11 3d 16 b2 53 be 4f c0 15 be 09 5a 0d bd
       0.03545613 -0.20673403 -0.14624141 -0.034509692
000080 38 8e db 3c 33 7a c0 bd 36 39 25 3d de ef 49 bd
       0.026801214 -0.09398308 0.040337764 -0.04930102
000090 3d 4c 95 bc a8 80 d8 bd c7 ae 14 be d0 8d 04 be
       -0.01822483 -0.10571414 -0.14519797 -0.12944722
0000a0 12 7f 56 3d 80 4c 1f ba 00 09 a6 3c 44 a1 03 3d
       0.052367277 -0.0006076768 0.020267963 0.032136217
0000b0 f0 18 a8 bc ed 8e 6e bd 5b 60 44 3d be 6d 07 be
       -0.020519704 -0.058241773 0.047943454 -0.13225457
0000c0 43 66 cf bd a3 4e fb 3c 7a 30 4b bc b4 3d ab bd
       -0.10126927 0.030677145 -0.012401694 -0.08361378
0000d0 ee c2 93 bc 64 73 02 3d d4 44 4b bc 1d 6c b4 bc
       -0.018037286 0.031848326 -0.012406547 -0.022024209
0000e0 87 6b a3 3d cf 98 85 bd c0 95 63 3d b6 b8 0b be
       0.079794936 -0.065232866 0.055562735 -0.1364468
0000f0 9b 1b c9 bd 81 e8 0c be 3d 53 4e be 25 05 f2 3c
       -0.098197185 -0.13760568 -0.2014894 0.029543469
000100 4a 8f 90 3d b6 6b 2c be b6 94 27 bd a3 45 41 bd
       0.0705858 -0.16837963 -0.040913306 -0.04718555
000110 04 15 2b be 35 06 0a be 4c fa 25 bd df b2 89 3d
       -0.16707236 -0.1347893 -0.040521905 0.0672357
000120 b7 a9 bc bd f1 46 2e be ae c0 9c bd d2 f1 18 be
       -0.09212058 -0.1701925 -0.07653938 -0.14935997
000130 c1 87 2d be 8f 65 22 bd 23 01 27 3d 3b 0d b2 bd
       -0.16946317 -0.039647635 0.04077257 -0.0869393
000140 61 3c 10 be 6d 6e ee bd 0e cf 00 be 99 ca 2a bd
       -0.14085533 -0.11642156 -0.12578985 -0.04169712
000150 4b 5d db bd 45 5a 35 be 90 46 a9 3c ad bf 2f 3d
       -0.107111536 -0.17710216 0.02066353 0.042907406
000160 7c 6a 8d b9 85 47 d6 bb be a2 a6 bd 04 8d 89 bd
       -0.00026972953 -0.0065392875 -0.08136509 -0.0671635
000170 a0 a5 96 bd f8 4a 1c be 14 31 cf bc 47 5e c2 3c
       -0.07355809 -0.15262973 -0.025291957 0.023726596
000180 63 51 a4 bd 3d 8c 5a bd be cb df 3d 3b 86 59 3d
       -0.08023336 -0.053356398 0.109275326 0.053106528
000190 8b 82 20 3d eb 9b 72 3d ba 79 ba bd 3b 41 5f bd
       0.039186995 0.059230726 -0.09105249 -0.054505568
0001a0 da ff aa bd d4 05 2f bd 4d 4b 3c 3d 4f 0f dc 3c
       -0.08349581 -0.042730168 0.04597025 0.026862768
0001b0 27 30 6b bc 99 b2 e2 3d 54 4a 9b bd 8d b3 9b 3d
       -0.014354742 0.11069221 -0.07582536 0.07602606
0001c0 8f 35 7d 3d 03 59 8b bd 81 db 06 3d 3a b0 a8 bd
       0.061818656 -0.06804087 0.03292418 -0.082367375
0001d0 e8 1d b1 3c 84 42 cf bd 05 3e 1d be 8a 09 86 3d
       0.021620706 -0.10120109 -0.1535569 0.06544788
0001e0 68 7f d1 bd 33 a6 d2 bd 3b 7b 13 bc 7b 73 e3 bd
       -0.10229379 -0.10285606 -0.009001548 -0.111060105
0001f0 92 74 85 3d f8 8f 24 be 46 b7 ae bd 47 3a 94 bd
       0.06516375 -0.16070545 -0.085310504 -0.07237678
000200 eb ad 3c 3d 4d 36 80 3d 7b 99 96 bd 9a d3 05 3d
       0.0460643 0.06260357 -0.07353493 0.032672502
000210 ca 64 5f bd 3d 97 5e bd c1 90 a0 bd ef e5 32 3d
       -0.05453948 -0.05434345 -0.078401096 0.043676313
000220 79 91 da bd f7 ea 29 bb ba b9 c9 3d 27 5d a3 bd
       -0.10672278 -0.0025927403 0.09849878 -0.07976752
000230 f1 8f c7 bd de 4e c3 bd 11 c6 69 3d 64 de ca 3b
       -0.097442515 -0.09536527 0.057073656 0.006191062
000240 b1 f1 37 bd 2a 10 8a 3d c4 18 bf 3d 51 05 3c 3d
       -0.04490823 0.06741364 0.093308955 0.045903508
000250 75 f0 c9 3d 96 cb b0 bd cc 42 cd 3d 9d f4 bd bc
       0.09860317 -0.08632581 0.10022506 -0.02318793
000260 28 c7 94 3d 2f 7a ac bd 49 f0 42 bc d3 64 29 bd
       0.072645485 -0.08421742 -0.011898109 -0.04135592
000270 17 34 bf bd d3 ae db bd ad f3 9b bd 5b a9 69 bd
       -0.09336107 -0.107267044 -0.07614837 -0.057046276
000280 ba 09 ca bd fb 5f 17 3e 2d e3 82 3c 05 a5 dc bd
       -0.098651364 0.14782707 0.015977466 -0.107736625
000290 03 6b 06 bd 83 aa e0 3d 65 aa b5 ba 17 78 95 bd
       -0.032816898 0.109700225 -0.0013859986 -0.07298296
0002a0 51 a9 d5 3c ad e1 d3 bc f4 a0 00 be f1 71 7c bd
       0.026081713 -0.025864447 -0.12561399 -0.0616321
0002b0 af 9e cf 3d f6 03 dc 3d 7b 8e ca 3d f0 af 00 3e
       0.10137688 0.10742943 0.09890457 0.12567115
0002c0 92 84 ba 3d e5 4a b6 3d fc ed 0c 3d 61 df f7 3c
       0.09107317 0.08901004 0.034406647 0.030257883
0002d0 4c 17 15 3c 1e bb d6 3c eb 90 93 3d 14 25 aa 3d
       0.009099793 0.026212271 0.07205375 0.08307853
0002e0 b3 c2 11 bd 29 24 2d 3d c0 66 86 3c 73 7b a8 bd
       -0.03558607 0.042270813 0.016406417 -0.08226671
0002f0 fe ac 4f bd cd 02 ff bc e7 c8 40 3d fa ba 91 bd
       -0.050702088 -0.031129265 0.047066595 -0.07115741
000300 98 31 a9 bd f3 c3 bc bd 33 cc 9d 3c 15 48 14 bc
       -0.082614124 -0.09217062 0.019262409 -0.009050389
000310 1b 53 3b be 28 33 a5 bd 56 f4 1d be 43 a7 e9 bd
       -0.18293421 -0.08066398 -0.15425238 -0.11408856
000320 19 4f f5 3c dc 03 be bd 39 85 02 bd a7 2d 79 bd
       0.029944943 -0.0927808 -0.031865332 -0.060834553
000330 54 92 02 be 8b fb 9f 3d e0 d8 bd bd 3e 99 98 bd
       -0.12751132 0.0781165 -0.09269881 -0.07451104
000340 d9 25 a2 3c ae 54 73 3d 18 1a 2d 3d 5c 71 19 bd
       0.019793438 0.05940693 0.042261213 -0.037461624
000350 05 77 ca bc 70 c2 d7 bd 9f 5b ec bd f7 4e 9a bd
       -0.024714956 -0.10535133 -0.11540913 -0.075345926
000360 e2 f4 95 bd 6b 5e bf bd c7 20 a7 bd a9 47 bb 3d
       -0.07322098 -0.09344181 -0.08160549 0.091445275
000370 71 41 1e be 1b 15 f5 ba e2 0c cc 3b 2a 3c 47 3d
       -0.15454651 -0.0018698307 0.0062271217 0.04864136
000380 20 ef 57 3d 5c 53 17 bd af 66 d3 3d 70 02 71 3d
       0.05271828 -0.036944732 0.1032232 0.058840215
000390 70 f3 cd bc fd 42 a5 3d d4 33 9f bc da c6 3a be
       -0.025140494 0.080694176 -0.019433893 -0.18239918
0003a0 47 eb 11 be 46 3e c6 3c e5 e5 37 be f2 87 ee bd
       -0.14249907 0.024199616 -0.17958792 -0.11647023
0003b0 66 3f 14 be 96 08 00 be 71 fc 09 be fa 04 8b bc
       -0.1447731 -0.12503275 -0.13475205 -0.016970146
0003c0 dc 38 55 3b 1e 0b 58 be d5 b9 43 bd 00 4b 72 3d
       0.0032535112 -0.21097991 -0.047784645 0.059153557
0003d0 9e 24 4b bd e6 d9 df bd 9c 78 b4 bc 80 5e 07 be
       -0.049595468 -0.10930233 -0.022030167 -0.13219643
0003e0 23 6c 22 bd 23 01 ce bd 66 46 ea bc 82 a6 03 be
       -0.03965391 -0.100588106 -0.028598022 -0.12856486
0003f0 7f 5c 9e 3d fa 3e 2a be c4 ea 33 be 5b 28 b2 bd
       0.07732486 -0.16625586 -0.17570025 -0.086991034

lstm.bias_hh_l0 f4 [256]
000000 42 a9 70 3d d8 ed d3 bd fa e9 61 bd ad 7b 79 bd
       0.058755167 -0.103480995 -0.055154778 -0.060908962
000010 74 82 01 be c1 ab ef bd 56 f1 fa bd c2 4d 52 bd
       -0.1264742 -0.11702681 -0.122530624 -0.051343687
000020 58 7d 27 bc 04 15 b1 bc e5 87 26 be a8 c3 52 bd
       -0.010222755 -0.021616466 -0.16262777 -0.051456124
000030 58 00 4b 3d b1 2c bd bc 3b 2d b5 3d 16 52 8b 3d
       0.049560875 -0.0230926 0.08846518 0.06802766
000040 3f e1 9a bd 6c 26 bf bd 13 b9 2a be 46 a4 7e bd
       -0.075624935 -0.093335 -0.16672163 -0.062168382
000050 1b 70 02 3c f5 ca b5 3c a2 62 6f 3d c8 cc 08 3e
       0.007961298 0.022191504 0.058443673 0.13359368
000060 0e 82 12 bc c0 67 3d 3d 15 66 1b be cc 4b b1 bd
       -0.00894214 0.04624152 -0.1517566 -0.08657035
000070 25 0b 15 be 1c d1 af bd 08 84 f6 bc 1d f5 d3 bd
       -0.14555033 -0.08584806 -0.030092254 -0.10349486
000080 de a1 3c bd d7 17 1a 3d b7 a6 f0 3d 11 d1 2c be
       -0.046052806 0.03762039 0.11750548 -0.16876628
000090 4f ae 83 bd 05 fe 23 be f4 94 28 bd e5 38 59 3d
       -0.06429731 -0.1601487 -0.041157678 0.053032774
0000a0 88 69 67 3a d6 b3 85 3d c8 ae 26 bd 82 ec be 3c
       0.0008827676 0.065284416 -0.04069403 0.023306135
0000b0 34 26 04 be fb e5 52 3c 1f 34 5e bd 36 c9 23 be
       -0.12905198 0.012872214 -0.054248925 -0.15994725
0000c0 b0 39 a5 bd e6 2b ff bd bc 56 d3 bd 0b 06 89 3d
       -0.08067644 -0.12459545 -0.10319278 0.06690606
0000d0 86 71 af 3c c9 b6 0f be ec 67 10 3c 6c 36 92 3c
       0.021416437 -0.14034571 0.008813839 0.017848216
0000e0 59 9c a1 bd 42 5e 53 bd a0 d5 2b bd 65 af 2c 3d
       -0.07891149 -0.051603563 -0.041951776 0.042159457
0000f0 c9 7f f2 bd 64 59 f0 bd aa c0 91 bd c0 1f 77 bc
       -0.11840779 -0.117358 -0.07116826 -0.015083253
000100 32 ec e0 bd de 5e 18 be ee e9 e4 bd 5c 01 1c be
       -0.10982551 -0.14879939 -0.11177431 -0.15234894
000110 37 16 29 be 07 0e c0 bc aa da e3 bd 78 47 55 3d
       -0.1651238 -0.023444189 -0.11125691 0.05207011
000120 dd d2 bd bd b4 94 b9 bd 85 1b a2 3c e1 58 94 bc
       -0.092687346 -0.09061566 0.019788513 -0.018108787
000130 87 46 17 3d 5d c7 bf 3c f0 61 aa 3d 20 08 79 bd
       0.036932494 0.023410494 0.08319461 -0.060798764
000140 d7 6c dd 3b 5d e0 7f 3d 52 85 2f 3d b1 84 d0 bc
       0.0067573595 0.06246983 0.042851754 -0.025453897
000150 ec 99 47 bd c6 40 93 bd 90 1f 82 bc 07 0f d6 3c
       -0.048730776 -0.07190089 -0.01588419 0.026130212
000160 32 07 03 be 50 6a f9 bd 78 7a 4a be 6b 0c f5 bd
       -0.12795714 -0.121784806 -0.1977328 -0.11965259
000170 2b 30 92 3d a1 e0 26 be 91 90 da bd 53 f0 ea bd
       0.071380936 -0.16296627 -0.10672105 -0.114716195
000180 f3 eb c4 bd 82 f9 e7 bd 08 45 00 bd 38 d2 a1 bd
       -0.09615316 -0.11326887 -0.031315833 -0.07901424
000190 f1 4d 76 3d aa 11 87 3d 6c ce 75 bd 04 e5 8c bd
       0.060132924 0.06595166 -0.060011312 -0.06879619
0001a0 fc 05 7a bd 14 d0 36 bd 02 f2 82 bd d9 b5 77 3c
       -0.061040863 -0.044632033 -0.063938156 0.015119039
0001b0 c6 79 91 bd 0a 61 11 3d 16 fe e2 bd b4 7c 07 3d
       -0.071033046 0.035492934 -0.11083619 0.03307791
0001c0 cf 35 c8 3c 35 c7 b0 bd d9 e3 d2 bd 48 f6 f5 bd
       0.02443972 -0.08631746 -0.10297365 -0.12009865
0001d0 c8 53 bc bd f1 af 48 ba e9 18 90 3d 61 15 19 be
       -0.091956675 -0.0007655612 0.07036001 -0.14949562
0001e0 9e 4f fa 3c 1e ee a8 bd 7d 24 95 bd 6a 88 b1 3b
       0.030555543 -0.08248542 -0.0728235 0.005417873
0001f0 61 e4 06 be 61 18 dc bc 94 df 42 be 19 f7 a9 bd
       -0.13173057 -0.026867094 -0.19030601 -0.08299083
000200 07 a0 ef 3c b0 a5 0c bd 69 42 0d 3d 08 54 8e 3d
       0.029251112 -0.0343377 0.03448716 0.069496214
000210 c0 fc 61 3d 45 2e f2 3d 17 39 ed bd 63 ab 81 3d
       0.05517268 0.118252315 -0.11583155 0.063315175
000220 e0 a5 18 3d 5d 9e 0e bc c0 21 cd 3d ba f5 7d 3d
       0.037267566 -0.008704749 0.10016203 0.06200192
000230 58 15 b2 3c 1c d7 73 3d 90 87 4b bd 6c 14 8f bd
       0.021738693 0.059531316 -0.04968983 -0.06986317
000240 7d b2 46 3d 1e 06 f5 3c 11 5f f6 bd 61 2f 4c 3d
       0.048510063 0.029910143 -0.12029851 0.04984987
000250 2b f7 da 3c 9c 8e a4 3d f4 52 90 bd 76 cd 8e 3d
       0.026729187 0.08035013 -0.07047072 0.06972782
000260 6c 01 88 3d c1 f4 b2 bd 3a a6 1d bd c9 a4 d3 3d
       0.06640896 -0.08738089 -0.038488604 0.10334165
000270 7e 3b 8a 3a fa c2 8a 3d 41 6e 7e 3d d8 44 a6 3d
       0.0010546295 0.0677547 0.062116865 0.081186
000280 40 f4 08 be c4 00 2c 3d a0 af 9c bc 7f 80 d2 3d
       -0.13374424 0.041992918 -0.019126713 0.10278415
000290 e6 93 02 3d d7 85 cd bd 2a 4d c2 bd bf 63 bb 3d
       0.03187933 -0.100352935 -0.09487374 0.091498844
0002a0 49 71 62 3d 1f 7d 63 3d d8 37 7b 3d d7 b4 f9 bc
       0.05528382 0.055539247 0.061332554 -0.030481739
0002b0 59 78 c2 3d 5d 63 69 bd a5 a1 25 3e 8e 4a 85 bd
       0.09495611 -0.056979526 0.16174944 -0.06508361
0002c0 52 ca b9 3d 39 c9 a5 3d 2a bf be 3d 01 5c 2c 3d
       0.09071793 0.08095021 0.093138054 0.04207993
0002d0 dc ab 9e 3d bb e7 de bd bf 97 c3 3d e9 ea 4a 3b
       0.07747623 -0.10884043 0.09550428 0.0030962771
0002e0 1d d9 b9 3a 1b 20 9b 3d 99 ac 38 bc 39 f9 4d bd
       0.0014179085 0.07574483 -0.011271619 -0.050286505
0002f0 ef 57 0d 3d a3 5e c7 3d 19 25 7b 3c 5a 2b 6e bd
       0.034507688 0.097348474 0.015328669 -0.058146812
000300 ae 24 86 bb e1 82 13 bc 0e 95 82 3c 48 e6 5b bd
       -0.004093728 -0.009003372 0.015940215 -0.05368641
000310 1f 23 9b bd ce 97 4a be 21 6a 77 bd 81 d7 d5 3c
       -0.07575058 -0.19784471 -0.060403947 0.026103737
000320 ec c0 56 b9 6d 67 02 be 70 f0 35 bd 15 23 d7 bd
       -0.000204805 -0.12734766 -0.044418752 -0.10504738
000330 58 42 fc bd 0d 4c 52 3d a3 9f 6c bc dd 0d 32 be
       -0.123173416 0.05134206 -0.014442357 -0.17388101
000340 cf 82 01 bd 3a ee 0f 3d 7b ef 18 be 1b 6a 9b 3b
       -0.03161889 0.0351393 -0.14935105 0.0047428734
000350 e9 8e ac bd 50 af 80 3d f2 e5 23 3d cd 40 a6 bd
       -0.084256954 0.06283438 0.040014215 -0.081178285
000360 26 0b 1a be 63 8c 56 3d 96 51 1f be dc d2 09 bd
       -0.15043315 0.052379977 -0.15558466 -0.033648357
000370 c0 28 31 bd 83 a5 af bd 05 b5 40 be 42 d6 30 bd
       -0.043251753 -0.08576491 -0.18819053 -0.043173082
000380 64 42 94 bb 5c 1e 87 3d 06 31 ae 3a 3c 85 52 bd
       -0.004524516 0.065975875 0.0013289757 -0.051396593
000390 e9 12 06 3d 50 c0 0b be 97 16 2a 3d 0f 19 2f be
       0.032732878 -0.1364758 0.04152545 -0.17099403
0003a0 6e 08 5d 3d fb bf c4 bd 05 94 a9 bc a7 a5 a8 bd
       0.053963117 -0.0960693 -0.020700464 -0.08234721
0003b0 73 98 b3 3c 94 cb 90 bd 99 bc ba 3c 36 2b 29 be
       0.02192328 -0.070700794 0.022795008 -0.1652039
0003c0 07 d5 3f bd 3a a5 32 be 15 68 e0 3c 9e 9f 9a bd
       -0.046834018 -0.17445841 0.02739338 -0.07549976
0003d0 0c 3d 9b 3d 23 a8 94 bd 30 c3 9a bd 58 93 cd bc
       0.07580003 -0.07258632 -0.0755676 -0.025094673
0003e0 aa 30 ef bd a0 11 d5 3c ac 33 17 be d8 01 0f bd
       -0.11679204 0.02600938 -0.14765805 -0.034913868
0003f0 3f 2d e3 3d 72 0b 4e be 3a cc 53 be b9 93 b3 bd
       0.110926144 -0.20121554 -0.20683375 -0.0876841
