backend/cnn_lstm_checkpoints/cnn_lstm_epoch_7.pth (torch, 788573 bytes, 64 tensors)

cnn.0.weight f4 [16, 1, 3, 3]
0.17901982 0.028695054 -0.15040252 0.05118937 0.26055247 -0.01490693 0.03869748 -0.06577548
0.29229322 0.2374344 -0.28821796 0.059388664 0.16807275 -0.31687596 -0.25375032 0.33673167
0.21918005 0.07343318 0.1057725 -0.26899558 0.05509476 -0.26888952 -0.33229035 -0.41071773
0.09134364 -0.21844716 -0.049077716 -0.09775547 -0.16238448 -0.006539384 -0.123284124 -0.16049066
-0.19853155 -0.12888184 -0.12997562 -0.14196402 0.23510554 0.10184508 0.17186089 0.10344103
0.12130962 0.097454004 -0.2537076 -0.25497782 0.311595 -0.21908683 0.23508205 0.1825222
0.337567 0.23426649 -0.006116421 -0.09740142 -0.07099124 -0.05299655 -0.0319249 0.2611708
0.26556358 -0.15551168 0.3427401 -0.2046834 0.12768473 0.11469834 0.30115992 -0.10543744
0.23275225 -0.036949374 -0.146818 -0.30268723 0.20244253 0.26724428 0.32010123 -0.31603223
-0.15527163 -0.12482441 -0.12306291 0.06979235 0.06416761 -0.16343534 -0.2805519 0.10491756
0.13672216 0.119443215 -0.03863509 -0.11138923 0.1893828 0.19853483 0.18282641 -0.036329485
0.3203251 0.36094677 -0.27688843 -0.32122332 -0.047474887 -0.1983088 0.019947259 -0.14087874
0.16228355 -0.0038446635 0.13300972 -0.16304147 0.23596314 0.35489374 0.27201536 0.07792781
-0.20073497 0.04453051 -0.061460767 -0.010533648 -0.060697924 0.023809224 0.14396277 -0.1866517
-0.26953885 -0.38177672 -0.2733473 -0.22387703 -0.05571429 0.103772305 0.10514227 0.18830173
0.28288972 -0.08100312 0.31896627 -0.009373664 0.04677553 0.13209632 0.35815623 -0.17963982
0.3623458 -0.14227301 0.258388 0.21836533 0.11993305 -0.16826053 -0.054528307 -0.0125466725
0.15396813 -0.36449936 -0.15807092 -0.36370832 -0.1671144 0.102755904 -0.06576406 0.12394042
00000000: f950 373e e411 eb3c 1e03 1abe f2ab 513d
00000010: 2267 853e 323c 74bc 4081 1e3d 4bb5 86bd
00000020: 75a7 953e 0122 733e 4e91 93be 8741 733d
00000030: 431b 2c3e 913d a2be 90eb 81be 1868 ac3e
00000040: bc70 603e 2364 963d 419f d83d cab9 89be
00000050: 0bab 613d e3ab 89be f621 aabe 9849 d2be
00000060: 6012 bb3d 9db0 5fbe b705 49bd 0534 c8bd
00000070: 1e48 26be 5448 d6bb 637c fcbd aa57 24be
00000080: db4b 4bbe 9af9 03be 5418 05be 045f 11be
00000090: 82bf 703e 2794 d03d 4dfc 2f3e e4d8 d33d
000000a0: 2e71 f83d f795 c73d f6e5 81be 748c 82be
000000b0: 6189 9f3e 4c58 60be 59b9 703e 19e7 3a3e
000000c0: 95d5 ac3e 8ee3 6f3e 426c c8bb 657a c7bd
000000d0: db63 91bd e912 59bd afc3 02bd 2eb8 853e
000000e0: f3f7 873e 743e 1fbe a17b af3e 8698 51be
000000f0: c9bf 023e f7e6 ea3d a231 9a3e 96ef d7bd
00000100: 9b56 6e3e 3a58 17bd 7557 16be d2f9 9abe
00000110: 184d 4f3e 3ed4 883e 4fe4 a33e face a1be
00000120: 87ff 1ebe f1a3 ffbd 6808 fcbd 4bef 8e3d
00000130: 4f6a 833d 985b 27be 80a4 8fbe 05df d63d
00000140: e500 0c3e a59e f43d d43f 1ebd 0920 e4bd
00000150: 91ed 413e b74c 4b3e d936 3b3e 3ace 14bd
00000160: a701 a43e 04ce b83e 52c4 8dbe 6277 a4be
00000170: 0775 42bd 7611 4bbe 6f68 a33c 8442 10be
00000180: a92d 263e c0f6 7bbb b333 083e 58f4 26be
00000190: 52a0 713e a2b4 b53e 9945 8b3e 9e98 9f3d
000001a0: 788d 4dbe a065 363d 49be 7bbd 5295 2cbc
000001b0: 639e 78bd 900b c33c fa6a 133e a021 3fbe
000001c0: ff00 8abe 3d78 c3be 2df4 8bbe 0540 65be
000001d0: ab34 64bd 9386 d43d d554 d73d 2bd2 403e
000001e0: ecd6 903e f7e4 a5bd 8c4f a33e ff93 19bc
000001f0: b397 3f3d 4244 073e 4160 b73e 80f3 37be
00000200: 6485 b93e 04b0 11be 6f4b 843e 299b 5f3e
00000210: 759f f53d 7d4c 2cbe 1359 5fbd 8f90 4dbc
00000220: d2a9 1d3e a99f babe 58dd 21be fa37 babe
00000230: 0a20 2bbe b071 d23d 4faf 86bd 7ad4 fd3d

cnn.0.bias f4 [16]
-0.075041056 -0.018646827 0.024763765 0.1178399 -0.08550763 -0.15601997 -0.10428124 -0.30859172
-0.014997661 0.118138365 0.347224 -0.26806447 0.012147733 -0.24783863 0.30986345 -0.08300528
00000000: 20af 99bd 3bc1 98bc 61dd ca3c 0c56 f13d
00000010: a01e afbd b3c3 1fbe 6791 d5bd bcff 9dbe
00000020: c0b8 75bc 87f2 f13d 58c7 b13e bf3f 89be
00000030: 4907 473c 69c9 7dbe 6ca6 9e3e acfe a9bd

cnn.1.weight f4 [16]
1.0432854 1.0763059 0.9602732 1.0383724 0.939162 0.95978016 0.94466704 0.9002402
1.1018599 0.9106913 1.0549881 0.915157 1.0139139 1.0196244 0.9359923 1.0797504
00000000: 608a 853f 64c4 893f 77d4 753f 63e9 843f
00000010: ec6c 703f 27b4 753f b3d5 713f 2476 663f
00000020: bf09 8d3f 1123 693f da09 873f bb47 6a3f
00000030: eec7 813f 0d83 823f 319d 6f3f 4335 8a3f

cnn.1.bias f4 [16]
0.048455145 0.04408856 -0.12034254 -0.07410792 -0.07504334 -0.013253477 -0.074272595 -0.06313633
0.047906853 -0.060967784 0.026799304 -0.096003555 -0.08948488 0.012125361 -0.089990206 -0.008920871
00000000: e778 463d 3596 343d 2676 f6bd e5c5 97bd
00000010: 53b0 99bd 1d25 59bc 3b1c 98bd 9f4d 81bd
00000020: fa39 443d 5bb9 79bd 378a db3c 839d c4bd
00000030: d943 b7bd 73a9 463c c94c b8bd d828 12bc

cnn.1.running_mean f4 [16]
-0.07630964 -0.018485388 0.031158973 0.118477 -0.083903655 -0.15199469 -0.10282851 -0.31057745
-0.012697761 0.11578919 0.33370468 -0.27237344 0.012683266 -0.24277897 0.31283617 -0.0727193
00000000: 3b48 9cbd ab6e 97bc 1a41 ff3c 12a4 f23d
00000010: aed5 abbd 7fa4 1bbe c197 d2bd 0204 9fbe
00000020: 450a 50bc e222 ed3d 57db aa3e 8874 8bbe
00000030: 79cd 4f3c 0d9b 78be 102c a03e dbed 94bd

cnn.1.running_var f4 [16]
0.33126846 0.11314642 1.6043942 1.1804379 0.39053813 0.305241 0.9203068 0.025739342
0.20087989 1.2758161 0.46976483 0.23598698 1.5312606 1.0549942 0.53409487 0.57404256
00000000: 059c a93e 4fb9 e73d ca5c cd3f 9718 973f
00000010: 9df4 c73e 8c48 9c3e 3a99 6b3f 50db d23c
00000020: 75b3 4d3e f14d a33f 0485 f03e 92a6 713e
00000030: 5900 c43f 0d0a 873f 71ba 083f 74f4 123f

cnn.5.weight f4 [32, 16, 3, 3]
0.078827254 0.07115377 0.07751255 -0.04056901 -0.010564353 0.036814213 0.10134949 0.0021141572
0.01701904 -0.09202406 0.05575421 0.03974217 0.0815855 -0.0139275035 -0.06644877 0.08557483
0.05525221 0.020900065 0.019893425 -0.02847318 0.059942175 0.08759088 0.034554403 0.06334518
0.05150468 0.09165451 0.11072795 0.035530243 -0.053144407 -0.04789717 -0.028184606 0.038956136
0.08937204 0.011637568 -0.07801636 -0.025461849 -0.007142646 -0.052190255 0.01910978 -0.0069053317
0.013344371 -0.0019371328 -0.02766014 0.018737048 0.0053398632 0.003743294 0.0011301595 0.009380786
0.019234 -0.08739936 -0.017233232 0.029101945 0.04019881 0.04585706 -0.02762725 -0.008039949
-0.07680091 -0.063492455 0.053669535 -0.025619624 0.08501669 0.071999215 -0.079483956 0.03673985
0.076286994 0.03697564 0.004016936 0.0445335 0.04670463 0.035925716 0.083289385 0.069638796
0.08598255 0.07145396 0.09379319 0.092615 0.06123456 0.12072507 0.045479823 0.020829363
0.07965655 -0.062010664 0.0021578 -0.044926874 -0.04974728 0.0248179 0.09695827 0.087953165
-0.032476295 -0.027880425 -0.02404923 0.032796048 -0.01117663 0.11914201 0.08716709 0.1008198
0.019719377 0.12706742 0.03185798 -0.029300595 -0.04175113 -0.053238884 0.025211137 -0.0021885114
-0.08199397 -0.009921414 -0.05469127 0.05157495 0.056800667 0.16361001 0.07578571 0.14444248
0.117069736 0.03936908 0.024445951 0.076882705 0.098926105 -0.066826515 -0.05023879 0.04402815
-0.05783038 0.0025776196 -0.00740909 -0.05979804 0.014586827 0.027354471 -0.10009936 -0.17492627
-0.17208667 -0.12736253 -0.06820618 -0.059503097 -0.07133413 -0.080194436 -0.046697292 0.13155103
0.036987513 0.14656977 0.07774741 0.06425328 0.054869138 0.044736758 0.11631299 0.026827142
0.009363336 0.01902086 0.010555725 -0.015224832 -0.054261323 -0.056266285 0.008398336 0.024648152
-0.02219319 -0.101604 0.05053171 -0.046495013 -0.10136052 0.012511053 0.054295897 -0.0924974
-0.10206458 -0.031343356 -0.029543664 -0.017989574 -0.10456883 -0.059606653 -0.06741761 -0.045218255
-0.1027593 -0.0342381 -0.005933889 -0.016860617 -0.12437467 -0.08260546 -0.014541499 -0.1138109
-0.10223091 -0.038127154 -0.08767484 -0.041649677 0.014595519 0.09229838 -0.0029029595 -0.036273334
0.05615574 -0.08670576 -0.012257764 -0.0745649 0.013417843 -0.047382932 -0.05042811 -0.0152439
-0.011666623 -0.0961707 -0.023135317 0.026690474 0.0008031812 0.030592365 0.058043364 0.04839509
0.06834449 0.055545527 0.021993807 0.070313245 0.036580935 0.02750129 0.0694477 0.026084
-0.0510961 0.027313842 -0.038809348 0.0015145508 -0.12049215 -0.034644898 -0.0040788907 -0.04420777
-0.05242311 -0.13130485 -0.120489106 -0.0130027775 -0.16361478 -0.13349147 -0.13921268 -0.12276039
-0.11601697 0.002861296 0.042134825 0.07176965 -0.05051895 0.06576819 -0.054633994 -0.086529754
0.052697062 0.00867572 -0.061378863 -0.0038166957 0.035770647 -0.012420679 -0.01089317 0.061162468
0.027776897 -0.05982999 -0.029599974 -0.036956154 0.0074485955 -0.06546638 0.015710656 -0.0015961507
0.022899857 0.027202224 -0.100330405 -0.027006667 -0.08786192 -0.051392127 -0.1289242 -0.049344387
00000000: 2f70 a13d 11b9 913d e6be 9e3d b12b 26bd
00000010: 1c16 2dbc 80ca 163d 5290 cf3d ac8d 0a3b
00000020: 846b 8b3c 1c77 bcbd 875e 643d b0c8 223d
00000030: 4c16 a73d 2f30 64bc 4b16 88bd db41 af3d
00000040: 2450 623d 9d36 ab3c 89f7 a23c 9640 e9bc
00000050: ed85 753d d962 b33d eb88 0d3d 1ebb 813d
00000060: 92f6 523d 5cb5 bb3d 56c5 e23d 2988 113d
00000070: f3ad 59bd d32f 44bd 67e3 e6bc 7890 1f3d
00000080: b008 b73d 7fab 3e3c 0bc7 9fbd 5e95 d0bc
00000090: db0c eabb 73c5 55bd 1d8c 9c3c 1f46 e2bb
000000a0: 59a2 5a3c 64e7 fdba 8597 e2bc 707e 993c
000000b0: 05fa ae3b 0d52 753b dc21 943a deb1 193c
000000c0: 9f90 9d3c 70fe b2bd b52c 8dbc 3467 ee3c
000000d0: 82a7 243d 9dd4 3b3d 8b52 e2bc feb9 03bc
000000e0: cc49 9dbd 5508 82bd 96d4 5b3d 3fe0 d1bc
000000f0: 3b1d ae3d 5374 933d 7cc8 a2bd 867c 163d
00000100: 5b3c 9c3d c573 173d 80a0 833b c268 363d
00000110: 5b4d 3f3d d826 133d a093 aa3d c99e 8e3d
00000120: 9f17 b03d 7456 923d a516 c03d efac bd3d
00000130: 17d1 7a3d b53e f73d 0d49 3a3d 57a2 aa3c
00000140: f922 a33d e5fe 7dbd e069 0d3b 3e05 38bd
00000150: cec3 4bbd e94e cb3c 0f92 c63d ca20 b43d
00000160: dd05 05bd 7d65 e4bc e402 c5bc 2655 063d
00000170: 2f1e 37bc ba00 f43d a984 b23d 9c7a ce3d
00000180: 888a a13c f61d 023e 837d 023d cd07 f0bc
00000190: 3c03 2bbd 0411 5abd 9687 ce3c 216d 0fbb
000001a0: 74ec a7bd 6d8d 22bc f403 60bd 4140 533d
000001b0: d1a7 683d 6289 273e 8a35 9b3d bbe8 133e
000001c0: 42c2 ef3d 7941 213d e042 c83c ae74 9d3d
000001d0: c599 ca3d 57dc 88bd 31c7 4dbd dd56 343d
000001e0: 8cdf 6cbd 48ed 283b f4c7 f2bb caee 74bd
000001f0: 96fd 6e3c 7c16 e03c e500 cdbd df1f 33be
00000200: 7d37 30be 536b 02be afaf 8bbd 85b9 73bd
00000210: a117 92bd fb3c a4bd a945 3fbd 50b5 063e
00000220: 3880 173d 6316 163e 093a 9f3d 3997 833d
00000230: 76be 603d e43d 373d 8135 ee3d 98c4 db3c
00000240: ad68 193c a2d1 9b3c ebf1 2c3c 9371 79bc
00000250: 1f41 5ebd 7a77 66bd 2d99 093c ecea c93c
00000260: 7ece b5bc c215 d0bd 57fa 4e3d 8e71 3ebd
00000270: 1b96 cfbd 29fb 4c3c 6065 5e3d 476f bdbd
00000280: 3c07 d1bd e461 00bd 8e05 f2bc df5e 93bc
00000290: 2f28 d6bd 1b26 74bd 3e12 8abd c736 39bd
000002a0: 7873 d2bd 403d 0cbd 1271 c2bb 471f 8abc
000002b0: 26b8 febd 0d2d a9bd 783f 6ebc b015 e9bd
000002c0: 705e d1bd 382b 1cbd de8e b3bd da98 2abd
000002d0: 0b22 6f3c ef06 bd3d 943f 3ebb 5993 14bd
000002e0: 9003 663d ca92 b1bd cad4 48bc 7bb5 98bd
000002f0: 83d6 5b3c 9b14 42bd b58d 4ebd 8dc1 79bc
00000300: 5d25 3fbc 25f5 c4bd 4786 bdbc fba5 da3c
00000310: 948c 523a d79c fa3c e1be 6d3d ee39 463d
00000320: 32f8 8b3d b583 633d 5b2c b43c 6400 903d
00000330: e4d5 153d 634a e13c 993a 8e3d 1dae d53c
00000340: 254a 51bd 47c1 df3c 8df6 1ebd e483 c63a
00000350: 97c4 f6bd cfe7 0dbd 37a8 85bb 3513 35bd
00000360: 9db9 56bd c774 06be fec2 f6bd 9a09 55bc
00000370: a28a 27be fdb1 08be c58d 0ebe cd69 fbbd
00000380: 4e9a edbd 9584 3b3b 9195 2c3d f7fb 923d
00000390: f5ec 4ebd 79b1 863d e5c7 5fbd 8336 b1bd
000003a0: e0d8 573d 9b24 0e3c 6768 7bbd 8721 7abb
000003b0: 3e84 123d 1b80 4bbc 4479 32bc 7f85 7a3d
000003c0: 608c e33c 4b10 75bd a57b f2bc 565f 17bd
000003d0: 5913 f43b 3d13 86bd a2b3 803c ee35 d1ba
000003e0: 7b98 bb3c 33d7 de3c 077a cdbd 163d ddbc
000003f0: f3f0 b3bd 8d80 52bd b504 04be 571d 4abd

cnn.5.bias f4 [32]
-0.022123786 -0.10933109 0.040017307 0.10318327 -0.05931681 0.120988525 -0.04970267 0.023353951
-0.06693904 -0.070623174 0.089783624 0.069544405 0.025510484 -0.12731135 -0.063606285 -0.05883475
-0.09007913 -0.031573985 -0.118565254 0.03575024 -0.02906307 -0.0014740607 0.0678127 -0.057325635
0.15082511 0.03674717 0.06594734 -0.0257468 -0.045004018 -0.020471822 -0.050318327 0.064018056
00000000: f13c b5bc fae8 dfbd 30e9 233d c051 d33d
00000010: 2ff6 72bd d5c8 f73d 0795 4bbd c950 bf3c
00000020: 5617 89bd e2a2 90bd 7ae0 b73d 4c6d 8e3d
00000030: 5dfb d03c e85d 02be 0344 82bd b5fc 70bd
00000040: 687b b8bd b953 01bd 57d2 f2bd d86e 123d
00000050: ad15 eebc 4535 c1ba 63e1 8a3d 49ce 6abd
00000060: e671 1a3e 3384 163d 660f 873d f4ea d2bc
00000070: 2256 38bd 86b4 a7bc 971a 4ebd e61b 833d

cnn.6.weight f4 [32]
0.9311433 1.032462 1.0035845 1.0016907 1.0321649 0.95897454 1.0644644 0.95274585
0.9430125 1.0204408 1.0057156 1.021178 0.93930745 1.072543 0.9889593 0.9464828
0.90924716 0.95144296 1.0204777 0.97752994 0.98714864 1.0141577 0.96858764 0.937152
0.96928364 1.0207675 1.0312072 0.98194575 1.032493 0.95882714 0.9764308 1.0304164
00000000: 685f 6e3f b727 843f 7575 803f 6737 803f
00000010: fb1d 843f 5b7f 753f 5f40 883f 27e7 733f
00000020: 4469 713f ce9d 823f 4abb 803f f6b5 823f
00000030: 7476 703f 1749 893f 702c 7d3f b24c 723f
00000040: 6cc4 683f c491 733f 039f 823f 673f 7a3f
00000050: c6b5 7c3f ebcf 813f 5cf5 773f 32e9 6f3f
00000060: f922 783f 82a8 823f 99fe 833f cc60 7b3f
00000070: bb28 843f b275 753f 5ef7 793f afe4 833f

cnn.6.bias f4 [32]
-0.03538929 0.036153298 0.013795654 0.011110387 0.028346399 -0.04472321 0.042097073 -0.02042968
-0.06588508 0.010580227 0.021212704 0.012686926 -0.063803345 0.08836129 -0.015056987 -0.028265687
-0.06967352 -0.02301791 -0.0054834047 -0.023097754 -0.037019886 0.042524558 -0.021002704 -0.024423067
-0.019475179 -0.007968967 0.018747274 0.010678905 -0.0041671824 -0.025965685 -0.037512746 0.028081099
00000000: 5cf4 10bd 7b15 143d 2b07 623c 5708 363c
00000010: b536 e83c af2f 37bd fb6d 2c3d 255c a7bc
00000020: c2ee 86bd b058 2d3c 44c6 ad3c d3dc 4f3c
00000030: 54ab 82bd c4f6 b43d 95b1 76bc 718d e7bc
00000040: feb0 8ebd 0e90 bcbc 22ae b3bb 8037 bdbc
00000050: 2aa2 17bd 3b2e 2e3d dd0d acbc e212 c8bc
00000060: 698a 9fbc 4590 02bc e293 993c 93f6 2e3c
00000070: dc8c 88bb fdb5 d4bc f7a6 19bd 550a e63c

cnn.6.running_mean f4 [32]
1.2260453 -1.2836152 1.4897839 -1.7036867 -1.1205432 -0.01907204 -2.2987568 -0.9511181
-0.55277395 1.0884583 -2.1061463 0.18967336 0.06956335 -2.6698685 -1.9451046 -1.0044534
-2.9471164 -0.87229913 0.15923536 -1.83586 0.32149228 0.38090423 -0.6873642 1.1543664
0.5865447 0.44994643 -1.5031677 0.69900674 -0.0045117484 0.20407692 -0.028419862 0.04727373
00000000: 0def 9c3f 814d a4bf 3db1 be3f 6812 dabf
00000010: f66d 8fbf f83c 9cbc d51e 13c0 7a7c 73bf
00000020: 9882 0dbf 9a52 8b3f 1acb 06c0 bc39 423e
00000030: 3b77 8e3d 20df 2ac0 30f9 f8bf ee91 80bf
00000040: 8e9d 3cc0 ff4e 5fbf 980e 233e 76fd eabf
00000050: a39a a43e e105 c33e 1af7 2fbf 47c2 933f
00000060: cb27 163f 615f e63e cd67 c0bf 1bf2 323f
00000070: 4ad7 93bb 8af9 503e c5d0 e8bc 19a2 413d

cnn.6.running_var f4 [32]
2.7125773 2.549776 2.2382743 1.527295 2.6951957 7.024465 1.4851586 3.3392782
5.447098 1.1735445 3.0046122 4.7886558 4.956445 3.598271 1.4535654 1.5830125
4.1043625 2.460032 4.1790576 1.8136221 7.410274 3.9682114 5.356834 3.5417373
4.894211 3.46422 1.336037 3.997227 7.349643 1.9411674 5.7684956 4.981041
00000000: de9a 2d40 882f 2340 e33f 0f40 677e c33f
00000010: 167e 2c40 6bc8 e040 ad19 be3f bcb6 5540
00000020: a04e ae40 b536 963f 914b 4040 ab3c 9940
00000030: 339b 9e40 124a 6640 6e0e ba3f 27a0 ca3f
00000040: f056 8340 2a71 1d40 d7ba 8540 c524 e83f
00000050: f720 ed40 2df7 7d40 2f6b ab40 d3ab 6240
00000060: 609d 9c40 c8b5 5d40 4303 ab3f 91d2 7f40
00000070: 4730 eb40 2c78 f83f 8497 b840 b064 9f40

lstm.weight_ih_l0 f4 [256, 32]
0.008994329 -0.0753132 -0.046442583 0.15194592 -0.09721347 -0.16573016 -0.15609144 0.08378556
-0.08518928 -0.3036781 -0.2277221 0.013362984 -0.07920235 -0.09989977 0.041223567 -0.01968163
-0.030327095 0.06962497 -0.16637973 0.017636314 -0.279444 -0.05669851 -0.18452528 0.03167931
-0.14621858 -0.11381022 -0.1352362 -0.016529066 -0.19968252 -0.08951664 -0.0071012275 -0.041923273
-0.0006012583 -0.14937423 0.07950966 0.00022036867 -0.002103163 -0.09496458 0.07949663 -0.069883704
-0.14965287 -0.06632712 0.09524158 0.11038901 0.082266636 0.05022355 -0.08808658 -0.032700878
0.06125811 -0.042849243 -0.021578364 0.03818635 0.022217039 -0.018846592 -0.07957433 -0.09865077
-0.07970072 0.011229653 -0.12929939 0.05303608 0.012364263 -0.09076674 -0.036991715 0.0016485226
-0.17160468 -0.095727995 0.0056056194 -0.03022534 -0.031679936 -0.15163788 -0.04288769 -0.011235205
0.03706025 -0.1454794 -0.11719876 -0.117105015 0.020415138 0.07186209 0.08508151 -0.08759529
-0.092324056 -0.023679787 0.015900007 -0.040237676 -0.07714108 0.019826492 -0.0212242 0.029052101
-0.19969566 0.046336927 -0.18964137 -0.05199807 -0.059904024 0.072139524 0.050193667 -0.060550973
-0.0701801 -0.009729737 -0.09435072 0.07699925 -0.14663921 -0.122957446 -0.1500287 0.067091435
-0.043096498 0.052818462 -0.044385057 0.109273136 -0.020019991 0.08233612 -0.015535287 0.044856314
0.018258216 -0.118223995 -0.09764789 0.04652656 0.0026396057 0.0038606739 -0.0013009005 -0.09870471
0.009265706 -0.062275868 -0.048381224 -0.11008648 -0.011323525 -0.07799817 -0.14139979 -0.10780767
-0.032657593 -0.026177216 -0.11755604 -0.15908912 0.027452864 -0.06907032 0.07445486 0.04336508
-0.07025473 0.033291373 0.010553817 -0.18417028 -0.027704962 0.02685954 -0.052711617 -0.091918774
-0.081637226 0.048728935 -0.010238304 -0.056841195 -0.10106735 -0.03622681 -0.069577955 -0.14504263
-0.020313755 0.0113374395 -0.025875054 -0.007732197 -0.15037003 -0.011794517 0.050710544 0.034142606
-0.07359084 -0.1935712 0.052322585 -0.07261953 -0.11158723 0.037927657 -0.14712407 -0.029070547
-0.19396472 -0.078684315 -0.024405638 -0.08413779 -0.16497527 -0.010557943 -0.1782474 0.040120576
-0.12099179 -0.07681016 -0.10574153 0.042225733 -0.11983778 -0.021386439 0.03544635 0.017043741
-0.06598236 -0.16888373 -0.038818706 0.02958489 -0.10358002 -0.062793136 -0.06765632 -0.18811163
-0.11516016 -0.029722542 -0.17228171 -0.059624624 -0.16612585 -0.041106794 -0.06727156 0.011207806
-0.07431729 0.013614812 0.095128745 0.050685707 0.07118685 -0.15697727 -0.07902083 -0.024838932
-0.11989702 -0.003163692 -0.09631986 0.0011076644 0.040922146 -0.025199521 -0.11971541 -0.051602036
-0.049147777 -0.008389618 -0.05566464 -0.058758054 0.006159078 -0.19027862 -0.094698 0.11327156
0.067860246 -0.04467627 0.02946204 -0.16524008 -0.030139772 0.03940911 -0.14367187 -0.0666374
-0.107314676 -0.020820007 0.09029052 0.10199309 0.14111203 0.0054460037 -0.17930573 0.082474746
0.029732998 -0.08441218 0.006278243 0.025063977 -0.0032942013 0.018737443 0.15992273 0.10299513
0.080716565 0.14225766 -0.088963106 0.0785511 0.16687582 -0.009912322 0.10354027 0.068712674
00000000: f35c 133c cf3d 9abd 943a 3ebd b697 1b3e
00000010: db17 c7bd 2bb5 29be 6fd6 1fbe c497 ab3d
00000020: b877 aebd b27b 9bbe fb2f 69be 6bf0 5a3c
00000030: d734 a2bd 4098 ccbd 0bda 283d 5f3b a1bc
00000040: 8770 f8bc 8997 8e3d 735f 2abe 087a 903c
00000050: 4913 8fbe b23c 68bd 32f4 3cbe 2ac2 013d
00000060: 53ba 15be 5515 e9bd 5c7b 0abe f767 87bc
00000070: 9379 4cbe 8054 b7bd 6ab1 e8bb bdb7 2bbd
00000080: c39d 1dba 8ff5 18be f6d5 a23d c412 6739
00000090: 38d5 09bb ca7c c2bd 21cf a23d 301f 8fbd
000000a0: 9a3e 19be 83d6 87bd 040e c33d a213 e23d
000000b0: 697b a83d 36b7 4d3d bd66 b4bd 5bf1 05bd
000000c0: c9e9 7a3d b082 2fbd 1cc5 b0bc 4a69 1c3d
000000d0: 8200 b63c 2b64 9abc def7 a2bd 6a09 cabd
000000e0: 223a a3bd 94fc 373c 0f67 04be 5c3c 593d
000000f0: 7a93 4a3c eae3 b9bd a084 17bd 3d13 d83a
00000100: 23b9 2fbe 0a0d c4bd 58af b73b 229b f7bc
00000110: d2c2 01bd f646 1bbe 01ab 2fbd de13 38bc
00000120: 7dcc 173d 8df8 14be e705 f0bd c1d4 efbd
00000130: a63d a73c 6e2c 933d 373f ae3d 2965 b3bd
00000140: 6514 bdbd 1dfc c1bc bb40 823c 43d0 24bd
00000150: 24fc 9dbd 2b6b a23c 60de adbc acfe ed3c
00000160: 057d 4cbe cacb 3d3d 5931 42be eefb 54bd
00000170: ec5d 75bd e3bd 933d e097 4d3d 4c04 78bd
00000180: 96ba 8fbd 7a69 1fbc f33a c1bd c8b1 9d3d
00000190: 9728 16be 1dd1 fbbd 20a1 19be 3c67 893d
000001a0: f485 30bd 2c58 583d 1bcd 35bd 98ca df3d
000001b0: f700 a4bc d79f a83d b787 7ebc 41bb 373d
000001c0: 4192 953c 6c1f f2bd 9efb c7bd a292 3e3d
000001d0: 3cfd 2c3b 5c03 7d3b fa82 aaba b225 cabd
000001e0: 30cf 173c fb14 7fbd 642b 46bd 0575 e1bd
000001f0: 4e86 39bc 81bd 9fbd 1bcb 10be 45ca dcbd
00000200: f8c3 05bd 9a71 d6bc 39c1 f0bd 42e8 22be
00000210: d4e4 e03c bd74 8dbd ca7b 983d 959f 313d
00000220: b6e1 8fbd 895c 083d ebe9 2c3c 2297 3cbe
00000230: 84f5 e2bc 8a08 dc3c 23e8 57bd e93f bcbd
00000240: 6b31 a7bd fe97 473d 8fbe 27bc 50d2 68bd
00000250: 66fc cebd 9062 14bd e37e 8ebd 0e86 14be
00000260: 0869 a6bc abc0 393c ecf7 d3bc 5f5e fdbb
00000270: 9afa 19be ca3d 41bc dcb5 4f3d 1ed9 0b3d
00000280: cbb6 96bd 8737 46be 3550 563d 8cb9 94bd
00000290: d887 e4bd 085a 1b3d b1a7 16be 5b25 eebc
000002a0: b09e 46be 3e25 a1bd 55ee c7bc 6f50 acbd
000002b0: 47ef 28be 39fb 2cbc 7d86 36be 7955 243d
000002c0: 8bca f7bd a54e 9dbd 048f d8bd e4f4 2c3d
000002d0: 836d f5bd 9d32 afbc 3130 113d 519f 8b3c
000002e0: c221 87bd dbef 2cbe 5d00 1fbd 035c f23c
000002f0: c321 d4bd b099 80bd 668f 8abd 56a0 40be
00000300: 17d9 ebbd b07c f3bc 9e6a 30be f338 74bd
00000310: e51c 2abe 995f 28bd acc5 89bd f2a0 373c
00000320: aa33 98bd a910 5f3c dcd2 c23d d19b 4f3d
00000330: 69ca 913d a6be 20be acd5 a1bd 047b cbbc
00000340: 928c f5bd f255 4fbb 5943 c5bd 0d2f 913a
00000350: fb9d 273d 3a6f cebc 5a2d f5bd a85c 53bd
00000360: 2e4f 49bd 9c74 09bc 9b00 64bd 49ac 70bd
00000370: 17d2 c93b 66d8 42be 06f1 c1bd ebfa e73d
00000380: 50fa 8a3d 77fe 36bd 605a f13c b234 29be
00000390: afe7 f6bc 726b 213d b81e 13be 3079 88bd
000003a0: ccc7 dbbd b88e aabc 3cea b83d c1e1 d03d
000003b0: ac7f 103e 6474 b23b ec9b 37be 85e8 a83d
000003c0: 9e92 f33c 4be0 acbd b8b9 cd3b f852 cd3c
000003d0: 87e3 57bb 447f 993c c9c2 233e 1cef d23d
000003e0: ba4e a53d feab 113e 4a32 b6bd 66df a03d
000003f0: 7fe1 2a3e 4b67 22bc ec0c d43d 3bb9 8c3d

lstm.weight_hh_l0 f4 [256, 64]
-0.12598234 0.03314209 0.11707226 -0.14119323 -0.024411555 0.0043097595 -0.03273507 0.085680276
-0.008872024 -0.10517908 -0.020758552 -0.0060159015 0.143659 -0.028337011 -0.06192639 0.12624775
-0.093600094 0.049635492 -0.07388217 0.04128933 -0.0672511 0.071821325 0.038171273 0.034748852
-0.030211156 -1.0191463e-05 -0.034573257 -0.059507497 -0.0026751598 -0.020926232 -0.075047635 0.090186976
-0.16740212 0.0011003343 -0.06500854 0.09377132 0.14922418 0.12802526 0.06323232 0.12696874
0.029360222 0.08060249 -0.015600977 -0.0033302223 0.13007937 0.081776686 0.14096516 0.11748606
0.024499955 0.08444633 0.01784733 -0.088838704 0.031185735 -0.01101398 -0.011161108 -0.053350847
-0.003345918 -0.14477797 0.13496432 -0.018846817 -0.015319027 -0.11459514 -0.054144006 -0.07257761
0.0040764525 -0.043269288 0.08648977 -0.07331736 0.11130479 -0.09870211 -0.09388577 0.11678497
-0.018555986 0.07523122 0.09018759 0.010094309 0.04043835 0.015070521 -0.05023714 0.04813875
0.015374724 0.021378767 0.098300174 0.005685997 -0.12564275 -0.10637685 0.10131991 0.05552287
-0.012814742 0.04887652 -0.13011318 -0.018641714 0.083075136 0.07147896 0.09829023 -0.14732553
-0.05236059 0.16075942 -0.088437855 0.014815788 0.082324 -0.060827512 0.09941207 -0.06423156
0.09717451 0.13947117 0.01685863 0.03872057 -0.12158209 -0.022943469 0.093286626 0.07238071
-0.08645456 -8.34777e-05 -0.09676497 -0.10697348 0.11662914 0.09242217 -0.07753777 0.018239401
-0.043652028 0.038879376 0.122463025 0.020586926 0.013191501 0.10488517 -0.12373158 0.020646444
-0.042914856 0.019033495 -0.05526655 -0.08370404 -0.03514749 0.063031524 0.08729016 0.091901064
0.051991723 0.074343786 -0.060095903 0.03793116 0.1301066 -0.0138657205 -0.2169321 -0.11186186
0.053056307 -0.048494976 -0.0958079 -0.16021055 -0.078878194 0.073397875 -0.04281993 -0.0104673635
-0.115782335 0.16223589 -0.0092136515 -0.015415161 -0.025431048 0.07398284 0.023448015 0.015064978
-0.046809107 0.015463492 -0.15873462 0.035825305 -0.078805335 0.05467297 -0.009302872 -0.16791941
0.1250097 0.1412475 0.06755469 -0.029423676 0.05795513 0.016488323 -0.15204357 -0.017751105
0.0074562132 0.104491405 -0.087698415 -0.04157369 -0.06544435 0.05983585 -0.0415035 -0.0077263764
-0.046137113 -0.20103347 0.08052002 0.087268084 0.13011815 -0.014835166 -0.147841 0.11330084
0.0062660496 0.026376393 0.010306109 0.049546823 0.13444477 0.08015374 -0.012129147 0.032018937
-0.09338032 -0.08554888 -0.06197077 0.11994173 0.079025745 0.12876683 0.08233594 -0.043524735
0.099509425 0.033331893 0.12098209 0.012758048 0.045522314 0.07725319 0.008811412 -0.039805934
0.056184735 -0.03440442 -0.067411326 0.07469158 0.0086050425 0.0056447615 0.004668475 0.08138336
-0.04476523 -0.020647174 0.06042736 0.07700134 -0.015236804 0.024101645 0.058475565 -0.075887986
-0.01167164 -0.053800587 -0.018661616 -0.031869885 0.045779876 -0.10109697 -0.12730217 0.036193423
-0.056862287 0.040449463 0.14823888 -0.069704324 0.0013076097 -0.11816851 -0.095862284 -0.08724157
0.10448987 -0.06581538 0.06938449 -0.067032285 0.029567307 -0.015831623 0.07812009 -0.015766686
00000000: 8401 01be 00c0 073d 95c3 ef3d f594 10be
00000010: befa c7bc e238 8d3b 3515 06bd 2479 af3d
00000020: f75b 11bc 2168 d7bd d70d aabc 0a21 c5bb
00000030: 581b 133e 0523 e8bc 87a6 7dbd 1747 013e
00000040: 68b1 bfbd 964e 4b3d 894f 97bd 001f 293d
00000050: f2ba 89bd 0f17 933d 7b59 1c3d d054 0e3d
00000060: 637d f7bc 00fc 2ab7 b09c 0dbd 22be 73bd
00000070: bc51 2fbb 7d6d abbc 93b2 99bd f3b3 b83d
00000080: 766b 2bbe 1839 903a 3323 85bd 2e0b c03d
00000090: 39ce 183e 0e19 033e f27f 813d 1804 023e
000000a0: d984 f03c eb12 a53d 3e9b 7fbc dc3f 5abb
000000b0: 8733 053e 897a a73d 2c59 103e 889c f03d
000000c0: 21b4 c83c 33f2 ac3d 9034 923c 11f1 b5bd
000000d0: 3a79 ff3c fb73 34bc 14dd 36bc 6b86 5abd
000000e0: 3047 5bbb ad40 14be 1634 0a3e a464 9abc
000000f0: a8fc 7abc dbb0 eabd 1bc6 5dbd 92a3 94bd
00000100: c393 853b 233b 31bd 8c21 b13d 6927 96bd
00000110: c4f3 e33d 5524 cabd 2f47 c0bd f52c ef3d
00000120: b902 98bc d312 9a3d 45b4 b83d 9a62 253c
00000130: afa2 253d 59ea 763c 76c5 4dbd 232d 453d
00000140: 44e6 7b3c 8622 af3c 9a51 c93d 9a51 ba3b
00000150: 7ea8 00be 1bdc d9bd d080 cf3d f36b 633d
00000160: ecf4 51bc bf32 483d 643c 05be 82b6 98bc
00000170: 4c23 aa3d 9063 923d 634c c93d 81dc 16be
00000180: 0f78 56bd 1e9e 243e e81e b5bd ebbd 723c
00000190: 7c99 a83d 4526 79bd 8e98 cb3d d68b 83bd
000001a0: 6e03 c73d 88d1 0e3e 1c1b 8a3c 7699 1e3d
000001b0: 0800 f9bd f1f3 bbbc 0f0d bf3d 563c 943d
000001c0: 170f b1bd c010 afb8 b62c c6bd e914 dbbd
000001d0: 42db ee3d d647 bd3d 1fcc 9ebd cc6a 953c
000001e0: 78cc 32bd fb3f 1f3d e5cd fa3d eaa5 a83c
000001f0: 2a21 583c 09ce d63d fc66 fdbd bb22 a93c
00000200: 7dc7 2fbd 22ec 9b3c 2e5f 62bd 066d abbd
00000210: d1f6 0fbd ac16 813d 2fc5 b23d a036 bc3d
00000220: 46f5 543d 8e41 983d 1f27 76bd b45d 1b3d
00000230: aa3a 053e 0c2d 63bc 7323 5ebe d517 e5bd
00000240: 9251 593d aba2 46bd ef36 c4bd 3c0e 24be
00000250: e48a a1bd a051 963d f363 2fbd 4e7f 2bbc
00000260: 4a1f edbd 2a21 263e dbf4 16bc df8f 7cbc
00000270: c654 d0bc 5184 973d 0d16 c03c 19d3 763c
00000280: e8ba 3fbd 965a 7d3c 548b 22be 8ebd 123d
00000290: b164 a1bd c4f0 5f3d 136b 18bc 11f3 2bbe
000002a0: 8b02 003e 2fa3 103e 1d5a 8a3d ec09 f1bc
000002b0: 5c62 6d3d 8512 873c 4fb1 1bbe c46a 91bc
000002c0: 4053 f43b 97ff d53d 3a9b b3bd 2c49 2abd
000002d0: b007 86bd 7016 753d 93ff 29bd 8b2d fdbb
000002e0: 45fa 3cbd b8db 4dbe aee7 a43d 9cb9 b23d
000002f0: b13d 053e 320f 73bc a263 17be 450a e83d
00000300: 6f53 cd3b 4e13 d83c f4da 283c 9cf1 4a3d
00000310: e4ab 093e a527 a43d 54b9 46bc 4a26 033d
00000320: 2e3e bfbd 4034 afbd 10d5 7dbd 02a4 f53d
00000330: 40d8 a13d 74db 033e bf9f a83d fe46 32bd
00000340: 99cb cb3d 0687 083d 75c5 f73d 2207 513c
00000350: 9b75 3a3d ec36 9e3d be5d 103c 8c0b 23bd
00000360: f721 663d a6eb 0cbd f30e 8abd e6f7 983d
00000370: 2afc 0c3c b1f7 b83b 02fa 983b 52ac a63d
00000380: bf5b 37bd 4324 a9bc ae82 773d e1b2 9d3d
00000390: caa3 79bc d070 c53c 1384 6f3d 296b 9bbd
000003a0: 683a 3fbc 015e 5cbd 3fe0 98bc ff89 02bd
000003b0: ae83 3b3d ee0b cfbd 805b 02be 8e3f 143d
000003c0: 6ee8 68bd 56ae 253d efcb 173e 24c1 8ebd
000003d0: 1a64 ab3a 5502 f2bd 7253 c4bd b5ab b2bd
000003e0: c9fe d53d 37ca 86bd 7519 8e3d 3948 89bd
000003f0: 2337 f23c 52b1 81bc 6dfd 9f3d 2329 81bc

lstm.bias_ih_l0 f4 [256]
-0.11826934 0.01727191 -0.11296818 -0.124306194 0.00037078132 -0.20263857 -0.1604961 0.103463024
0.019645952 -0.17327209 -0.023649974 0.021501863 -0.08829373 0.0591779 0.0073928456 -0.022784512
-0.076744296 0.017083136 -0.21184191 -0.029922104 0.025609989 -0.0074618147 0.008143598 0.060599726
0.014124266 0.08380307 -0.07052852 0.027205233 0.030041086 -0.20250651 -0.15829061 -0.0406136
0.024935985 -0.07953349 0.017347854 -0.06535075 -0.032518134 -0.1122654 -0.1398663 -0.11782402
0.041125316 -0.010057625 0.02824897 0.036058743 -0.016002012 -0.039227407 0.063509576 -0.13980626
-0.09701841 0.019168524 -0.024257218 -0.08993137 -0.022185974 0.026291192 -0.021408644 -0.02320933
0.059677217 -0.05387642 0.038386814 -0.15077828 -0.10881744 -0.150779 -0.19542365 0.018168354
0.06999783 -0.16901746 -0.044225693 -0.05292645 -0.1702017 -0.14369573 -0.046191923 0.07941278
-0.10061627 -0.18441013 -0.07583726 -0.15775757 -0.17467912 -0.054909885 0.022107558 -0.07034864
-0.14927918 -0.12359314 -0.13318835 -0.049210608 -0.12027834 -0.18890709 0.019111367 0.033825736
0.019748498 -0.010874381 -0.08866155 -0.0753313 -0.07687164 -0.149775 -0.032471355 0.0198779
-0.07684043 -0.029348396 0.08884997 0.042705514 0.027322885 0.05685416 -0.08809937 -0.04660873
-0.08918213 -0.051177442 0.057389684 0.020981709 -0.011716699 0.115476586 -0.04075122 0.07172735
0.06510771 -0.07535106 0.025740555 -0.08889011 0.018848965 -0.10446558 -0.1638199 0.064466275
-0.12764227 -0.09807967 -0.017873669 -0.12170099 0.058988992 -0.16877054 -0.08007793 -0.08277572
0.03844491 0.051190056 -0.070373476 0.015958907 -0.050156977 -0.056550715 -0.08629321 0.031473428
-0.09576264 0.0013068808 0.098543234 -0.08361898 -0.087244354 -0.08627123 0.056244448 0.014273033
-0.051489204 0.068126 0.09646054 0.047468703 0.10175574 -0.08613579 0.10892557 -0.018356813
0.07669732 -0.073970556 -0.01124752 -0.04031075 -0.08939962 -0.110895835 -0.07384963 -0.06676185
-0.08453145 0.14015351 0.020895345 -0.10255452 -0.026517587 0.10539668 -0.011549803 -0.060895078
0.03300494 -0.02340778 -0.14150517 -0.0718113 0.10418412 0.103898466 0.09340906 0.12043575
0.09659843 0.085568614 0.028351465 0.028479245 0.017305132 0.027496438 0.07801138 0.08408034
-0.023830175 0.04781243 0.032082055 -0.0815625 -0.049329378 -0.028898247 0.044998452 -0.07213212
-0.08839457 -0.08324012 0.012584394 -0.016042331 -0.1875718 -0.094466105 -0.16209817 -0.10818724
0.01810144 -0.110056184 -0.030131286 -0.07152601 -0.13576135 0.0664816 -0.1044134 -0.051153347
0.012791989 0.047627404 0.027561484 -0.046887442 -0.041429754 -0.12158767 -0.117014736 -0.07772308
-0.035173 -0.09636084 -0.09275148 0.07758266 -0.15957649 0.0027254913 -0.0047127455 0.04342249
0.06302722 -0.013630252 0.08314994 0.044309475 -0.041008025 0.075927846 -0.011114898 -0.17303215
-0.15112627 0.015313347 -0.16009428 -0.10011234 -0.14146191 -0.12131631 -0.09727198 -0.023208955
0.00869777 -0.2227389 -0.059057076 0.053090606 -0.054235578 -0.11472544 -0.031400587 -0.133551
-0.06067473 -0.091985725 -0.039036267 -0.14195135 0.06771799 -0.17817262 -0.16900821 -0.09673521
00000000: 3237 f2bd d27d 8d3c dc5b e7bd 3f94 febd
00000010: 6d65 c239 7c80 4fbe 1759 24be 6ce4 d33d
00000020: 8cf0 a03c 3d6e 31be 97bd c1bc ad24 b03c
00000030: 58d3 b4bd 8764 723d af3f f23b 96a6 babc
00000040: 1d2c 9dbd eff1 8b3c 16ed 58be 331f f5bc
00000050: 0acc d13c 3d82 f4bb ba6c 053c 6b37 783d
00000060: 7769 673c f2a0 ab3d 4271 90bd 82dd de3c
00000070: b918 f63c de5d 4fbe ef16 22be 725a 26bd
00000080: 8d46 cc3c 74e2 a2bd 161d 8e3c 9dd6 85bd
00000090: bc31 05bd 67eb e5bd 1d39 0fbe b84d f1bd
000000a0: 0573 283d bdc8 24bc 626a e73c 55b2 133d
000000b0: a716 83bc ebac 20bd 4f11 823d 5f29 0fbe
000000c0: 97b1 c6bd 4f07 9d3c 13b7 c6bc f02d b8bd
000000d0: 5cbf b5bc a060 d73c 2e61 afbc 7e21 bebc
000000e0: 1970 743d 85ad 5cbd 7e3b 1d3d 9f65 1abe
000000f0: aedb debd cf65 1abe 231d 48be cdd5 943c
00000100: 065b 8f3d ea12 2dbe 0026 35bd 68c9 58bd
00000110: 5b49 2ebe f924 13be be33 3dbd 2ba3 a23d
00000120: e70f cebd 02d6 3cbe 9150 9bbd 338b 21be
00000130: 15df 32be 30e9 60bd e91a b53c f312 90bd
00000140: a4dc 18be 661e fdbd 8762 08be 1091 49bd
00000150: 7e54 f6bd dc70 41be 718f 9c3c db8c 0a3d
00000160: 9ac7 a13c 762a 32bc 3094 b5bd 4c47 9abd
00000170: e16e 9dbd 9e5e 19be af00 05bd fad6 a23c
00000180: 845e 9dbd 0c6c f0bc f9f6 b53d faeb 2e3d
00000190: 3ed4 df3c e8df 683d 716d b4bd cce8 3ebd
000001a0: 1fa5 b6bd 709f 51bd 7211 6b3d d5e1 ab3c
000001b0: 66f7 3fbc fd7e ec3d c0ea 26bd cae5 923d
000001c0: 3157 853d a851 9abd dbdd d23c 050c b6bd
000001d0: 2569 9a3c 0df2 d5bd 67c0 27be e506 843d
000001e0: a8b4 02be fedd c8bd cd6b 92bc 5e3e f9bd
000001f0: 719e 713d 2fd2 2cbe e6ff a3bd 5186 a9bd
00000200: 6978 1d3d aaac 513d f81f 90bd 41bc 823c
00000210: 6771 4dbd b9a1 67bd 7fba b0bd 48ea 003d
00000220: 341f c4bd a54b ab3a 09d1 c93d 6e40 abbd
00000230: 2bad b2bd f8ae b0bd 9460 663d 70d9 693c
00000240: 58e6 52bd a585 8b3d 1b8d c53d 8b6e 423d
00000250: 5065 d03d f667 b0bd 5f14 df3d 0761 96bc
00000260: 7c13 9d3d e07d 97bd 8547 38bc e31c 25bd
00000270: 2617 b7bd 5b1d e3bd 7a3e 97bd 70ba 88bd
00000280: d31e adbd 6784 0f3e b72c ab3c 1b08 d2bd
00000290: 693b d9bc 37da d73d 633b 3dbc 1e6d 79bd
000002a0: 3030 073d acc1 bfbc bbe6 10be ce11 93bd
000002b0: 7c5e d53d b8c8 d43d 404d bf3d 05a7 f63d
000002c0: 66d5 c53d 993e af3d 5541 e83c 4e4d e93c
000002d0: 7ec3 8d3c 3640 e13c 6ec4 9f3d 5032 ac3d
000002e0: 8037 c3bc f7d6 433d 7968 033d 3d0a a7bd
000002f0: 9a0d 4abd 04bc ecbc 4c50 383d 01ba 93bd
00000300: 3608 b5bd cc79 aabd c62e 4e3c 356b 83bc
00000310: d212 40be 7277 c1bd 10fd 25be 4691 ddbd
00000320: 7949 943c 2365 e1bd e3d5 f6bc 3b7c 92bd
00000330: 0605 0bbe 8127 883d b1d6 d5bd 2c86 51bd
00000340: 7e95 513c f414 433d 9fc8 e13c 0c0d 40bd
00000350: 3fb2 29bd f502 f9bd 6ca5 efbd 472d 9fbd
00000360: 9011 10bd d558 c5bd 7df4 bdbd a8e3 9e3d
00000370: 0568 23be 289e 323b 606d 9abb c8db 313d
00000380: 6a14 813d 6c51 5fbc 844a aa3d da7d 353d
00000390: 08f8 27bd 0f80 9b3d 431b 36bc 572f 31be
000003a0: d8c0 1abe d5e4 7a3c c1ef 23be b307 cdbd
000003b0: 64db 10be af74 f8bd 8836 c7bd b520 bebc
000003c0: 1781 0e3c ab15 64be d5e5 71bd 8975 593d
000003d0: 2026 5ebd 2cf5 eabd e79d 00bd 98c1 08be
000003e0: 1186 78bd 0363 bcbd 7ee4 1fbd b25b 11be
000003f0: bbaf 8a3d e272 36be 7d10 2dbe 1c1d c6bd

lstm.bias_hh_l0 f4 [256]
0.047512043 -0.09095592 -0.062062267 -0.0691795 -0.13206002 -0.13023084 -0.12951335 -0.045307823
-0.022826223 -0.043346215 -0.16144024 -0.06148295 0.039439987 -0.031869456 0.06765284 0.09247493
-0.08649908 -0.10743733 -0.17745405 -0.07444339 -0.008148826 0.0039918264 0.057034712 0.1258509
0.019380743 0.035224352 -0.16295151 -0.101323515 -0.15096527 -0.08162069 -0.042141452 -0.10959871
-0.04791798 0.052070044 0.094515525 -0.18481606 -0.0785906 -0.16669998 -0.03582603 0.06465593
-0.01035924 0.055834457 -0.03271302 0.027228685 -0.124534294 0.03188657 -0.038682763 -0.16749893
-0.07642558 -0.13610382 -0.115048274 0.06058855 0.017267752 -0.14590295 -0.00018826412 0.01666311
-0.09902923 -0.040247153 -0.059127696 0.02782789 -0.12902817 -0.13053127 -0.06510238 -0.02645837
-0.11041349 -0.14943722 -0.11508675 -0.15808979 -0.16825317 -0.032350488 -0.11692695 0.064247064
-0.101183034 -0.10483324 0.020490587 -0.026506353 0.031716615 0.008148243 0.06452963 -0.044208094
-0.0016664176 0.055298258 0.035453327 -0.03296737 -0.061897554 -0.08370594 -0.017436353 0.017048506
-0.10793891 -0.1261199 -0.20502919 -0.12782043 0.06806739 -0.16011152 -0.11390042 -0.11856483
-0.092760235 -0.08926084 -0.05174129 -0.08941524 0.048268806 0.06357513 -0.057058226 -0.06089944
-0.06672717 -0.053079307 -0.052518733 0.009237977 -0.06839495 0.04027726 -0.07576205 0.028779281
0.027728753 -0.09362765 -0.110157296 -0.1266213 -0.09472854 -0.00403002 0.060096823 -0.15047714
0.005206941 -0.07770903 -0.08169562 -0.005223028 -0.13790524 -0.03493212 -0.18507344 -0.09338977
0.021631718 -0.045751162 0.037648536 0.052782524 0.059555184 0.11604506 -0.123723716 0.051112328
0.0482277 -0.0048051286 0.10020649 0.058150444 0.031936835 0.068625316 -0.050519016 -0.0617812
0.04192909 0.030622493 -0.11714693 0.051415075 0.02988176 0.08054015 -0.0617702 0.07455901
0.0704608 -0.07713403 -0.037838012 0.10438681 0.0050160256 0.06412594 0.06441558 0.071470395
-0.11962432 0.034319215 -0.01420881 0.10796625 0.038178653 -0.10465648 -0.105037555 0.10358672
0.06220703 0.05799591 0.045441367 -0.040660925 0.097763345 -0.06051049 0.15625395 -0.07031906
0.09624319 0.077508785 0.08708291 0.040301267 0.085681595 -0.10755626 0.1014619 0.004098065
0.013173795 0.08128653 0.0044040363 -0.049582317 0.035880394 0.09957943 0.013260505 -0.0591215
-0.009874137 -7.284943e-05 0.009262215 -0.06067838 -0.08038818 -0.21164681 -0.06824989 0.032005068
-0.012048317 -0.1446231 -0.042684693 -0.115738854 -0.13142358 0.03970715 -0.026157005 -0.15052316
-0.03862032 0.023359794 -0.16405065 -0.004682949 -0.1009718 0.04659814 0.038408678 -0.08355544
-0.11238502 0.049460936 -0.16673079 -0.04751101 -0.04828173 -0.0811696 -0.19913033 -0.048391953
0.0057844534 0.089290336 -0.018744394 -0.06592732 0.016865324 -0.14124219 0.049844466 -0.161627
0.04533587 -0.10495553 -0.0012068329 -0.065989435 0.025234606 -0.0669844 0.060275152 -0.1714427
-0.04138977 -0.18621741 0.016120967 -0.0815627 0.07115991 -0.07800943 -0.08493804 -0.026449155
-0.1378129 0.034611758 -0.15809634 -0.04830047 0.101319276 -0.21313229 -0.20014171 -0.09742828
00000000: fd9b 423d 1947 babd 0135 7ebd fbad 8dbd
00000010: be3a 07be 3c5b 05be 269f 04be b294 39bd
00000020: 0ffe babc cd8b 31bd 9750 25be 8cd5 7bbd
00000030: d38b 213d 8c89 02bd 928d 8a3d 7f63 bd3d
00000040: 6e26 b1bd 1a08 dcbd 84b6 35be c775 98bd
00000050: a782 05bc decd 823b 3b9d 693d 0fdf 003e
00000060: 5dc4 9e3c 6947 103d c3dc 26be b482 cfbd
00000070: a496 1abe c028 a7bd 849c 2cbd 4a75 e0bd
00000080: a545 44bd 6647 553d 5b91 c13d 6c40 3dbe
00000090: 1cf4 a0bd 66b3 2abe 51be 12bd 546a 843d
000000a0: cdb9 29bc acb2 643d 16fe 05bd b10e df3c
000000b0: d60b ffbd 7e9b 023d d171 1ebd d784 2bbe
000000c0: 0485 9cbd cd5e 0bbe 6e9e ebbd b32b 783d
000000d0: 1a75 8d3c 9567 15be c468 45b9 1381 883c
000000e0: d6cf cabd 33da 24bd e22f 72bd 51f7 e33c
000000f0: f61f 04be fda9 05be 6654 85bd 39bf d8bc
00000100: 7820 e2bd 1206 19be 9ab2 ebbd 4ae2 21be
00000110: 8f4a 2cbe f281 04bd 6677 efbd f793 833d
00000120: 0d39 cfbd cfb2 d6bd e0db a73c da23 d9bc
00000130: 48e9 013d 3580 053c 1c28 843d 8c13 35bd
00000140: b26b daba 6d80 623d 8237 113d cb08 07bd
00000150: 4a88 7dbd 056e abbd afd6 8ebc 4fa9 8b3c
00000160: 130f ddbd 9325 01be 2cf3 51be 5ce3 02be
00000170: ea66 8b3d 46f4 23be a044 e9bd 1ed2 f2bd
00000180: 14f9 bdbd 63ce b6bd adee 53bd 561f b7bd
00000190: 83b5 453d ae33 823d e3b5 69bd b171 79bd
000001a0: 41a8 88bd b069 59bd e21d 57bd e25a 173c
000001b0: a712 8cbd c5f9 243d 2229 9bbd 87c2 eb3c
000001c0: 6927 e33c dabf bfbd 269a e1bd 04a9 01be
000001d0: 0901 c2bd 420e 84bb 1628 763d ae16 1abe
000001e0: fd9e aa3b e925 9fbd 0950 a7bd ef25 abbb
000001f0: 0837 0dbe fc14 0fbd e483 3dbe 2343 bfbd
00000200: 0035 b13c 9265 3bbd 5a35 1a3d 7d32 583d
00000210: 23f0 733d 08a9 ed3d dc62 fdbd 295b 513d
00000220: 698a 453d 5774 9dbb 0f39 cd3d 292f 6e3d
00000230: 33d0 023d 6e8b 8c3d 07ed 4ebd 490e 7dbd
00000240: d6bd 2b3d 06dc fa3c bbea efbd 9d98 523d
00000250: 98ca f43c 3cf2 a43d c002 7dbd 65b2 983d
00000260: c04d 903d 72f8 9dbd 08fc 1abd c0c8 d53d
00000270: 795d a43b 7654 833d 51ec 833d 125f 923d
00000280: 98fd f4bd 4e92 0c3d 12cc 68bc 691d dd3d
00000290: 3861 1c3d 2356 d6bd ee1d d7bd 4625 d43d
000002a0: cccc 7e3d 1f8d 6d3d ba20 3a3d 128c 26bd
000002b0: 2638 c83d d9d9 77bd 0901 203e 7003 90bd
000002c0: 261b c53d edbc 9e3d 8658 b23d f112 253d
000002d0: d579 af3d 7546 dcbd 42cb cf3d 1049 863b
000002e0: e7d6 573c 8d79 a63d bc4f 903b d416 4bbd
000002f0: 52f7 123d 4df0 cb3d 9742 593c 6329 72bd
00000300: 22c7 21bc bdc6 98b8 8cc0 173c e589 78bd
00000310: 8fa2 a4bd f1b9 58be 99c6 8bbd bf17 033d
00000320: 4e66 45bc 1418 14be 25d6 2ebd 7e08 edbd
00000330: e793 06be f7a3 223d 3747 d6bc be22 1abe
00000340: 5730 1ebd 0a5d bf3c e5fc 27be 6c73 99bb
00000350: 4eca cebd b1dd 3e3d 6b52 1d3d 1d1f abbd
00000360: 1e2a e6bd 8d97 4a3d 7abb 2abe e89a 42bd
00000370: 10c3 45bd 3f3c a6bd d2e8 4bbe a436 46bd
00000380: 838b bd3b dadd b63d d88d 99bc e704 87bd
00000390: 2629 8a3c cba1 10be b629 4c3d 8c81 25be
000003a0: 1bb2 393d edf2 d6bd 982e 9eba 7825 87bd
000003b0: ceb8 ce3c 1e2f 89bd 14e3 763d ad8e 2fbe
000003c0: 5288 29bd c7af 3ebe 1e10 843c 580a a7bd
000003d0: 49bc 913d 68c3 9fbd fff3 adbd e6ab d8bc
000003e0: d31e 0dbe 0fc5 0d3d 02e4 21be b7d6 45bd
000003f0: 7b80 cf3d 5a3f 5abe f3f1 4cbe 7a88 c7bd

lstm.weight_ih_l0_reverse f4 [256, 32]
0.105972305 -0.080549456 9.239264e-05 -0.19686402 -0.07488027 -0.06592637 0.016640203 -0.052295823
-0.017720567 -0.077663265 -0.10985559 -0.15855022 0.004516035 -0.007386882 -0.07406216 -0.1333973
-0.06368108 -0.09387737 0.062381558 -0.033323143 -0.008526276 -0.20011555 0.0065788347 -0.06559714
0.06808456 -0.15050967 -0.123736024 -0.048228897 -0.046145126 -0.168268 0.10951851 0.08131661
-0.0965989 -0.16435178 -0.029663868 0.022462266 -0.0300636 -0.02559433 0.01711527 -0.07206839
-0.07223709 0.06597174 0.07004492 -0.1278243 -0.063402995 -0.017337002 0.033138633 -0.07271401
-0.027830482 0.071082115 0.035356943 -0.15145433 0.035864495 0.034624953 0.10521643 -0.13369074
-0.001918431 -0.052259725 -0.090729535 -0.016163634 0.006526423 -0.13572732 0.035066336 -0.08444958
0.007855202 -0.21602824 -0.025919763 -0.128377 -0.22593658 -0.20942998 -0.087307855 -0.1305129
-0.0009989089 -0.0701846 -0.016137142 -0.121815056 0.07431699 -0.13966852 0.0752762 0.09989318
-0.08674803 0.062444054 -0.19077471 -0.09012794 -0.18673624 0.10217183 0.018889384 -0.046995465
-0.019339006 -0.01818314 -0.087549254 -0.09795576 -0.15883079 0.014668993 0.031666957 -0.18831591
-0.06068343 -0.043231893 -0.008171808 0.101633735 -0.083129354 -0.073197074 -0.2208604 0.045014087
-0.12473448 -0.2418769 -0.21491042 0.04397219 -0.07019755 -0.08293102 -0.013994143 -0.019182038
-0.050871648 -0.0390385 -0.15528664 -0.036954217 -0.12940267 0.025580207 -0.26754737 0.059225056
-0.0067613693 -0.11854083 0.04749175 -0.13482791 -0.07711532 0.07611332 0.03579033 -0.1560242
0.087189086 -0.06362358 -0.01813326 0.072453216 0.046965722 -0.07005255 -0.078632444 0.064453445
0.021196242 -0.0076837232 0.043475293 -0.08094465 0.14601469 0.052769102 0.110648654 0.020336328
-0.030775057 -0.035506986 0.18355983 -0.0053387634 0.2418185 -0.057095986 0.042892147 -0.047590185
0.13333946 0.04251555 -0.060427368 -0.16356748 -0.05579254 -0.040646885 0.06193876 0.08617399
-0.10426416 -0.06426393 -0.075282216 -0.15032797 -0.082287624 -0.13709782 -0.17526935 -0.14403945
-0.15949014 0.061052244 -0.006043478 0.042892195 -0.016489955 -0.10982589 0.054233167 -0.043564137
-0.11869938 0.069526106 -0.033542383 -0.06911779 -0.16550684 0.046650954 -0.07968086 -0.010007904
-0.13584995 -0.08916732 -0.13424261 0.025919108 -0.022192158 0.036246907 -0.06575189 0.06976279
-0.027119078 -0.17129023 -0.033558294 -0.03718987 -0.11338027 -0.11268004 0.07448525 -0.12760474
-0.05337889 0.015316219 -0.12895317 -0.05041144 0.024249388 -0.1365628 0.03174633 0.061372228
0.007217619 -0.16374516 -0.10968216 0.07384661 -0.027216252 -0.029880838 -0.11254662 -0.051748723
0.0002602277 0.0059128664 -0.18681525 -0.062556505 0.006038419 -0.10540726 0.025707636 -0.055365812
-0.11283616 -0.09673111 -0.04714719 0.0060023963 -0.097079106 -0.12499087 -0.04382041 -0.07593131
0.05351301 0.059191238 -0.13712084 -0.1469624 0.027869355 -0.17667899 -0.030336577 -0.12192492
-0.05066472 -0.07318841 -0.13817061 -0.013018888 0.037295874 -0.16108605 -0.06653372 0.019952662
0.024396896 0.057953563 -0.10727545 -0.101405635 -0.15612537 -0.055021953 0.054692768 0.07862479
00000000: 0208 d93d 1df7 a4bd ecc2 c138 b996 49be
00000010: d45a 99bd 6804 87bd 0951 883c 2534 56bd
00000020: b92a 91bc eb0d 9fbd f8fb e0bd fd5a 22be
00000030: 3ffb 933b a80d f2bb e7ad 97bd 4d99 08be
00000040: 3a6b 82bd c742 c0bd ce83 7f3d d97d 08bd
00000050: cbb1 0bbc 17eb 4cbe 4493 d73b cb57 86bd
00000060: eb6f 8b3d 351f 1abe 5069 fdbd aa8b 45bd
00000070: ac02 3dbd 724e 2cbe 3e4b e03d 5389 a63d
00000080: a5d5 c5bd d54b 28be a401 f3bc c902 b83c
00000090: f047 f6bc 33ab d1bc 5335 8c3c 9898 93bd
000000a0: 0af1 93bd 311c 873d b673 8f3d 60e4 02be
000000b0: 6ed9 81bd 5406 8ebc 60bc 073d 15eb 94bd
000000c0: c0fc e3bc 8093 913d 71d2 103d d816 1bbe
000000d0: a6e6 123d e5d2 0d3d b67b d73d 3ae6 08be
000000e0: dd73 fbba 4b0e 56bd 68d0 b9bd 9969 84bc
000000f0: 9bdb d53b 1afc 0abe b8a1 0f3d e7f3 acbd
00000100: 1bb3 003c 8236 5dbe af55 d4bc 4375 03be
00000110: eb5b 67be d074 56be 76ce b2bd 2ca5 05be
00000120: d2ed 82ba f2bc 8fbd 0a32 84bc 2c7a f9bd
00000130: 8233 983d 4405 0fbe 692a 9a3d cc94 cc3d
00000140: f3a8 b1bd 56c5 7f3d 725a 43be ff94 b8bd
00000150: c937 3fbe 773f d13d e9bd 9a3c 517e 40bd
00000160: d66c 9ebc cff4 94bc 064d b3bd 089d c8bd
00000170: 8aa4 22be 3756 703c 36b5 013d e3d5 40be
00000180: 308f 78bd ed13 31bd 0ce3 05bc 5925 d03d
00000190: b93f aabd 59e8 95bd 3b29 62be b160 383d
000001a0: cb74 ffbd 94ae 77be 7a11 5cbe 2f1c 343d
000001b0: bcc3 8fbd bdd7 a9bd b147 65bc a623 9dbc
000001c0: ca5e 50bd d6e6 1fbd 7603 1fbe 4e5d 17bd
000001d0: 2282 04be 958d d13c f8fb 88be f995 723d
000001e0: 7a8e ddbb 89c5 f2bd b686 423d 5410 0abe
000001f0: a3ee 9dbd 4de1 9b3d e298 123d cfc4 1fbe
00000200: 3190 b23d 144d 82bd 348c 94bc 5a62 943d
00000210: 215f 403d b677 8fbd 0c0a a1bd 2b00 843d
00000220: bea3 ad3c bec7 fbbb 2613 323d 4fc6 a5bd
00000230: e084 153e 6a24 583d c39b e23d 5f98 a63c
00000240: f91b fcbc c66f 11bd 1cf7 3b3e cbf0 aebb
00000250: 459f 773e 7bdd 69bd adaf 2f3d eded 42bd
00000260: 248a 083e c924 2e3d b082 77bd 3c7e 27be
00000270: b886 64bd 597d 26bd 7fb3 7d3d fd7b b03d
00000280: 7388 d5bd cf9c 83bd 902d 9abd 93ef 19be
00000290: 6a86 a8bd 5f63 0cbe cf79 33be 147f 13be
000002a0: 6251 23be eb11 7a3d 5e08 c6bb baaf 2f3d
000002b0: f115 87bc 65ec e0bd 9923 5e3d 4f70 32bd
000002c0: a918 f3bd b463 8e3d bd63 09bd a18d 8dbd
000002d0: a07a 29be 1215 3f3d b82f a3bd 31f8 23bc
000002e0: 401c 0bbe 5b9d b6bd e576 09be 4f54 d43c
000002f0: 54cc b5bc a377 143d eda8 86bd cbdf 8e3d
00000300: d428 debc b566 2fbe 6c74 09bd 6854 18bd
00000310: ea33 e8bd cbc4 e6bd b98b 983d d1aa 02be
00000320: d3a3 5abd e1f0 7a3c 4d0c 04be 3a7c 4ebd
00000330: a7a6 c63c 1ed7 0bbe 7108 023d 7261 7b3d
00000340: c781 ec3b d0ac 27be 0aa1 e0bd e43c 973d
00000350: 9ef4 debc a9c8 f4bc d87e e6bd 78f6 53bd
00000360: 2c6f 8839 b8c0 c13b 7f4c 3fbe a01d 80bd
00000370: eedd c53b c3df d7bd d298 d23c 43c7 62bd
00000380: a516 e7bd f61a c6bd 691d 41bd c0af c43b
00000390: 69d1 c6bd 37fb ffbd 087d 33bd e081 9bbd
000003a0: 7530 5b3d 8372 723d 6869 0cbe 507d 16be
000003b0: 464e e43c 56eb 34be 6a84 f8bc c6b3 f9bd
000003c0: cf85 4fbd cee3 95bd 997c 0dbe 2d4d 55bc
000003d0: 8fc3 183d bef3 24be d542 88bd c473 a33c
000003e0: 00dc c73c b760 6d3d 3bb3 dbbd c2ad cfbd
000003f0: 54df 1fbe b35e 61bd 8605 603d 0906 a13d
